MODELS/parameters_LOL.pth (torch, 135851 bytes, 100 tensors)

Color_Space_Linearization.enhance_feature.0.weight f4 [3, 3, 5, 5]
0	0xbe98a510	-0.29813433
1	0xbec4e003	-0.38452157
2	0xbed268e4	-0.4109565
3	0xbeb7357c	-0.35782993
4	0xbe8fa930	-0.28058767
5	0xbec177a2	-0.37786585
6	0xbef177ee	-0.47161812
7	0xbefcbce9	-0.49362877
8	0xbede13df	-0.43374535
9	0xbeb2fcd4	-0.34958518
10	0xbec7eb55	-0.39046732
11	0xbf001661	-0.5003415
12	0xbf095966	-0.53652036
13	0xbef274ee	-0.47354835
14	0xbec6da87	-0.38838598
15	0xbea3e01f	-0.32006928
16	0xbed4cd71	-0.4156299
17	0xbee8257b	-0.45341095
18	0xbed4c060	-0.4155302
19	0xbeba9848	-0.36444306
20	0xbe99e912	-0.3006063
21	0xbed1ae04	-0.40953076
22	0xbeebdd91	-0.4606748
23	0xbed7ca14	-0.4214636
24	0xbeb47c93	-0.35251293
25	0x3e8df045	0.27722374
26	0x3e486a4a	0.19571796
27	0x3e22b9d2	0.15891197
28	0x3e4fcc0c	0.20292681
29	0x3e8cde44	0.27513325
30	0x3e5f7fc7	0.21826087
31	0x3def666a	0.11689456
32	0x3d915d1d	0.07097838
33	0x3dff4890	0.12465012
34	0x3e540ae9	0.20707287
35	0x3e22656d	0.15859003
36	0x3d27baea	0.04094974
37	0xbc347289	-0.011013635
38	0x3d61eea1	0.055159215
39	0x3e12801b	0.14306681
40	0x3e36b8f6	0.17843994
41	0x3db717dc	0.08940098
42	0x3d5aec71	0.053448144
43	0x3dc99504	0.098428756
44	0x3e1a2bf8	0.15055835
45	0x3e5f77a9	0.2182299
46	0x3dfdfa03	0.124012016
47	0x3da49a27	0.08037215
48	0x3df6e238	0.120548666
49	0x3e3a8f3f	0.18218707
50	0xbe27ecf2	-0.16398981
51	0xbe62de09	-0.22155012
52	0xbe755ec7	-0.23961936
53	0xbe3ccdb3	-0.18437843
54	0xbddbc862	-0.10731579
55	0xbe5a330b	-0.21308534
56	0xbe95bb95	-0.29244676
57	0xbea3fd80	-0.32029343
58	0xbe824136	-0.25440377
59	0xbe2c1f24	-0.16808754
60	0xbe9ad1a1	-0.3023806
61	0xbecf3f3d	-0.40477934
62	0xbee019ac	-0.43769586
63	0xbeb64a3b	-0.35603508
64	0xbe83bec1	-0.2573147
65	0xbe9329ef	-0.2874293
66	0xbec0b282	-0.3763619
67	0xbecde1b5	-0.40211263
68	0xbeac98f7	-0.33710453
69	0xbe86abf1	-0.26303056
70	0xbe547954	-0.20749408
71	0xbe99c8f9	-0.30036142
72	0xbeaacab8	-0.33357787
73	0xbe8cd422	-0.27505594
74	0xbe44b410	-0.19209313
75	0x3c792c79	0.015208357
76	0xbace3f30	-0.0015735384
77	0xbb09269b	-0.0020927552
78	0xbb260919	-0.0025335012
79	0xbc3d8718	-0.011567853
80	0xbde3c0d9	-0.11120767
81	0xbe23c9c9	-0.15994944
82	0xbe1f3634	-0.1554802
83	0xbe02e2d0	-0.12781835
84	0xbdd66ba3	-0.10469749
85	0xbda686f2	-0.081312075
86	0xbdcc02a5	-0.09961442
87	0xbd49ffdb	-0.04931627
88	0xbb1c37b2	-0.0023836908
89	0xbb4cbf87	-0.003124209
90	0xbc646510	-0.013940111
91	0x3cfa0c50	0.03052345
92	0x3df65b63	0.120291494
93	0x3e1797fc	0.14804071
94	0x3db5e4cc	0.0888153
95	0xbcba7221	-0.022759499
96	0x3ca1b972	0.019741748
97	0x3da32cae	0.07967506
98	0x3d9c7bab	0.07640775
99	0x3c18ce8b	0.009326587
100	0x3e94f98c	0.2909664
101	0x3e88b619	0.2670143
102	0x3e89540c	0.26821935
103	0x3e8b7995	0.27241197
104	0x3e8884b8	0.26663756
105	0x3e3eb7c2	0.18624786
106	0x3e0efaed	0.13962908
107	0x3e1ab8e4	0.15109593
108	0x3e3d1231	0.1846397
109	0x3e549f12	0.20763806
110	0x3e4e0ce8	0.20122111
111	0x3e35aa50	0.1774075
112	0x3e65c2f6	0.22437653
113	0x3e8bb123	0.27283582
114	0x3e8d1f11	0.27562764
115	0x3e77798f	0.24167465
116	0x3e851e2c	0.25999582
117	0x3ea7a5ac	0.32743585
118	0x3eb7393a	0.35785848
119	0x3ea52a87	0.32259008
120	0x3e8a8916	0.27057713
121	0x3e964a9e	0.29353803
122	0x3eb072c9	0.34462574
123	0x3eb77b08	0.35836053
124	0x3ea2d5c8	0.31803727
125	0xbe01f9c6	-0.12692937
126	0xbe04491d	-0.12918516
127	0xbdf5d6f6	-0.12003891
128	0xbe02976c	-0.12753075
129	0xbe1aa58c	-0.15102214
130	0xbe4c9369	-0.19978108
131	0xbe6318f4	-0.22177488
132	0xbe510327	-0.20411359
133	0xbe3f9514	-0.18709213
134	0xbe429ea6	-0.19005832
135	0xbe56e4f2	-0.20985773
136	0xbe63d4ea	-0.22249189
137	0xbe38a5b0	-0.18031955
138	0xbe1a497a	-0.15067092
139	0xbe2b2a44	-0.16715342
140	0xbe4dbb2b	-0.2009093
141	0xbe401f98	-0.18762052
142	0xbe068331	-0.13135983
143	0xbdea5439	-0.114418454
144	0xbe1f3a3c	-0.15549558
145	0xbe1ccae9	-0.15311779
146	0xbe0aa0ce	-0.13537905
147	0xbdbc55e3	-0.09196069
148	0xbdb34fc9	-0.08755452
149	0xbe0397bb	-0.1285085
150	0x3ea205a0	0.31644917
151	0x3e5bba8e	0.21457884
152	0x3e290a74	0.16507894
153	0x3e43c1f2	0.19116953
154	0x3e889bb8	0.26681304
155	0x3f23848d	0.6387413
156	0x3f3d22b9	0.7388111
157	0x3f593d56	0.84859216
158	0x3f58f050	0.8474169
159	0x3f401403	0.75030535
160	0x3f04483e	0.5167273
161	0x3f33c428	0.70221186
162	0x3f50ad67	0.8151459
163	0x3f3cd51e	0.7376269
164	0x3f14bab7	0.58097404
165	0x3e997942	0.29975325
166	0x3e9eb5d5	0.30998102
167	0x3e70797f	0.23483847
168	0x3e08bd26	0.13353404
169	0x3e103dd4	0.14086086
170	0x3e7d5888	0.24740803
171	0x3e12927e	0.14313695
172	0x3d1ef475	0.03880735
173	0x3cc5ced4	0.024146475
174	0x3e0ec4ce	0.13942263
175	0xbe768c44	-0.24076945
176	0xbea47086	-0.321171
177	0xbeae1c53	-0.34005985
178	0xbe962c11	-0.29330495
179	0xbe63c872	-0.22244433
180	0xbd569954	-0.05239232
181	0x3d0e1431	0.034687225
182	0x3e088b9a	0.13334504
183	0x3e039afc	0.1285209
184	0x3d4e9bd1	0.050441567
185	0xbddc4dcf	-0.10757028
186	0x3cae041f	0.0212422
187	0x3dbb9ced	0.091607906
188	0x3ce8320f	0.028344182
189	0xbd8b07e4	-0.067886144
190	0xbe7f3f41	-0.24926473
191	0xbe766c46	-0.2406474
192	0xbe8d980c	-0.27655065
193	0xbea0b178	-0.31385398
194	0xbe8cb80d	-0.2748417
195	0xbe1fc4cc	-0.15602416
196	0xbe440abe	-0.19144723
197	0xbe6d433e	-0.23170182
198	0xbe6f74c4	-0.23384386
199	0xbe31103d	-0.1729135
200	0xbe9d2072	-0.30688816
201	0xbed70519	-0.41996077
202	0xbeeaea15	-0.45881715
203	0xbecca2ec	-0.3996805
204	0xbe9b8558	-0.3037517
205	0xbea4d35c	-0.32192504
206	0xbe9ce960	-0.306468
207	0xbe7af532	-0.24507597
208	0xbe6891fd	-0.2271194
209	0xbe8005c6	-0.25004405
210	0xbe865ca4	-0.26242554
211	0xbe2e7cf6	-0.17039856
212	0xbdf809c3	-0.12111237
213	0xbe284384	-0.16432005
214	0xbe5efc34	-0.21775895
215	0xbe8a5d2e	-0.27024215
216	0xbe7f919b	-0.24957888
217	0xbe90c2a1	-0.2827349
218	0xbe9e36b0	-0.30901098
219	0xbe8ab75b	-0.27093014
220	0xbe5dc1c9	-0.21655954
221	0xbe817f1f	-0.25292298
222	0xbe9a3106	-0.30115527
223	0xbe994773	-0.29937324
224	0xbe77c715	-0.24197038

Color_Space_Linearization.enhance_feature.0.bias f4 [3]
0	0x3dc0182f	0.09379613
1	0xbcd4b820	-0.025966704
2	0x3caf030a	0.021363754

Color_Space_Linearization.enhance_feature.1.weight f4 [16, 3, 3, 3]
0	0xbe05ff31	-0.13085629
1	0xbe16fe13	-0.14745359
2	0xbde79c77	-0.1130914
3	0xbe30db26	-0.17271098
4	0xbe438946	-0.19095334
5	0xbe247e57	-0.1606382
6	0xbe35f5e5	-0.17769583
7	0xbe4af1d9	-0.1981882
8	0xbe2c5ddc	-0.1683268
9	0xbece3f6a	-0.40282756
10	0xbedd31d7	-0.43202087
11	0xbefa698e	-0.48908657
12	0xbe86ee52	-0.263537
13	0xbe8f36b6	-0.2797143
14	0xbe9548b7	-0.2915704
15	0xbe6a4b7a	-0.22880355
16	0xbe4be8de	-0.1991305
17	0xbe48e679	-0.19619168
18	0x3f3d9bcb	0.74065846
19	0x3f47de1d	0.7807329
20	0x3f41d996	0.75722635
21	0x3f042ae8	0.5162797
22	0x3efb8f70	0.49132872
23	0x3ed14837	0.40875408
24	0x3ead9725	0.33904377
25	0x3e710fea	0.23541227
26	0x3e5cb731	0.21554257
27	0xbe10ef09	-0.14153685
28	0xbe32e85d	-0.17471452
29	0xbdfec04d	-0.12439022
30	0xbe227a87	-0.15867053
31	0xbe4a26cb	-0.19741361
32	0xbe1c0589	-0.15236486
33	0xbdef11f4	-0.11673346
34	0xbe1f8053	-0.15576296
35	0xbde1a647	-0.11018043
36	0xbdc9cf59	-0.098540016
37	0xbe008eb2	-0.12554434
38	0xbe4b365a	-0.19844952
39	0xbd1ec2e5	-0.038760085
40	0xbd223143	-0.03959776
41	0xbd8dc4bc	-0.0692229
42	0x3d437f22	0.047728665
43	0x3d81875d	0.063246466
44	0x3cbe4c52	0.023229752
45	0x3e30eccc	0.17277831
46	0x3e76b79f	0.24093483
47	0x3e76a4f6	0.24086365
48	0x3e1ad70b	0.15121095
49	0x3e1d9433	0.15388565
50	0x3de10592	0.109873906
51	0xbdb3f5ee	-0.08787142
52	0xbdd28907	-0.10280042
53	0xbd91ade0	-0.07113242
54	0xbe1a3b59	-0.15061702
55	0xbe4b0bc8	-0.19828713
56	0xbe0fc4a2	-0.14039853
57	0xbe251cbb	-0.16124241
58	0xbe5dadcb	-0.21648328
59	0xbe299722	-0.16561559
60	0xbdfcd695	-0.12345616
61	0xbe38582e	-0.18002388
62	0xbe060673	-0.13088398
63	0x3dcdcba2	0.100486055
64	0x3dc4e754	0.09614435
65	0x3c8c8f3b	0.017158141
66	0x3e25abae	0.16178772
67	0x3e3afe5b	0.18261091
68	0x3e0b6065	0.1361099
69	0x3e50851c	0.20363277
70	0x3e60ab64	0.2194038
71	0x3e1d8d69	0.15385975
72	0x3d109254	0.0352958
73	0x3d981485	0.07425789
74	0x3dccbda2	0.09997107
75	0x3d1362a2	0.035982735
76	0x3d0dc9a2	0.03461612
77	0x3cf09907	0.029369844
78	0xbcf1e2d9	-0.029527115
79	0xbc8bff2e	-0.017089453
80	0x3d0e8aae	0.034800224
81	0x3c0b1309	0.008488425
82	0x3c22c70a	0.00993515
83	0x3c6ee1bd	0.014580187
84	0x3de23f15	0.11047188
85	0x3dda3c1c	0.10655996
86	0x3dd1fbd7	0.10253113
87	0x3e40e953	0.18839006
88	0x3e3afb47	0.18259917
89	0x3e339c89	0.17540182
90	0x3ea23eb3	0.3168846
91	0x3ea15c50	0.3151574
92	0x3e9e2a6a	0.30891734
93	0x3e23fd62	0.16014627
94	0x3dfb4fae	0.12271057
95	0x3ded146b	0.1157616
96	0x3eab1d6d	0.33420888
97	0x3e9dc276	0.30812424
98	0x3e9c3dca	0.3051589
99	0x3f9b169b	1.2116274
100	0x3f9742e6	1.1817291
101	0x3f9504f0	1.1642132
102	0x3f92eaed	1.1477944
103	0x3f9798c8	1.18435
104	0x3f95b8a1	1.1696969
105	0x3e91f8bd	0.28510085
106	0x3e8557de	0.260436
107	0x3e922f0f	0.28551528
108	0x3a53afa2	0.00080751826
109	0xbc3290a7	-0.010898746
110	0xba90cd90	-0.001104759
111	0x3ddd8f34	0.108183295
112	0x3db9a510	0.09064686
113	0x3dbe359d	0.0928757
114	0x3e523e02	0.20531467
115	0x3e409b5c	0.18809265
116	0x3e415fd5	0.18884213
117	0x3f109493	0.56476706
118	0x3f15a709	0.58458
119	0x3f116b90	0.5680475
120	0x3edb428f	0.42824218
121	0x3ed69a83	0.41914758
122	0x3ec4fb39	0.38472918
123	0x3ef63d37	0.48093578
124	0x3ee72e16	0.45152348
125	0x3ed073d3	0.40713367
126	0x3ebd7432	0.37002712
127	0x3ebc6e16	0.3680274
128	0x3ec77409	0.38955715
129	0x3ed0c325	0.40773883
130	0x3ef5d7ea	0.48016292
131	0x3f0a9756	0.5413717
132	0x3e04ef43	0.12981896
133	0x3e5e5a72	0.2171419
134	0x3e928f1c	0.2862481
135	0x3d0eebba	0.034892775
136	0x3b29a6fa	0.002588688
137	0x3cf18f68	0.029487327
138	0x3cd2bb93	0.025724208
139	0xbc720fe8	-0.0147743
140	0x3bf8004e	0.0075683957
141	0x3c8d0d60	0.017218292
142	0xbcd1ff08	-0.025634304
143	0xbb3d69c2	-0.0028902148
144	0x3f2dcb01	0.67887884
145	0x3f3d6a61	0.73990446
146	0x3f380fd4	0.7189915
147	0x3f393b1c	0.7235582
148	0x3f46bda6	0.7763313
149	0x3f38e621	0.7222615
150	0x3f30daba	0.6908375
151	0x3f2cc946	0.6749462
152	0x3f15b77b	0.58483094
153	0xbe80acad	-0.2513174
154	0xbe91b43a	-0.28457814
155	0xbe733a82	-0.23752788
156	0xbe47580c	-0.19467181
157	0xbe488c2b	-0.1958472
158	0xbe0c4fac	-0.13702267
159	0x3d1fbf0a	0.03900055
160	0x3de15c3e	0.11003922
161	0x3e30898b	0.17239968
162	0x3b790438	0.00379969
163	0x3bdda991	0.0067645987
164	0x3d07811b	0.03308211
165	0x3dc3c318	0.095586956
166	0x3dc8764c	0.09788188
167	0x3df5b843	0.11998036
168	0x3e482718	0.19546163
169	0x3e4ec448	0.20192063
170	0x3e64bc50	0.2233746
171	0x3cb7a24b	0.022416255
172	0xbcc69797	-0.024242206
173	0xbd39a03c	-0.045318827
174	0xbe3c528f	-0.18390869
175	0xbe4ce62b	-0.20009677
176	0xbe30439a	-0.17213288
177	0x3e4546fc	0.1926536
178	0x3e374e4e	0.17900965
179	0x3e3761ab	0.17908351
180	0xbef6525a	-0.48109704
181	0xbef2018a	-0.472668
182	0xbee739da	-0.45161325
183	0xbf045ba0	-0.5170231
184	0xbf0fcde3	-0.56173533
185	0xbf10f240	-0.56619644
186	0xbf81cfde	-1.0141561
187	0xbf85a42e	-1.0440729
188	0xbf7a5f1a	-0.97801363
189	0xbd972d3a	-0.07381673
190	0xbdab26ae	-0.08356987
191	0xbdac1ffa	-0.084045365
192	0xbdc1b689	-0.09458644
193	0xbdd49d05	-0.103815116
194	0xbdd86f94	-0.10568157
195	0xbd9f0490	-0.07764542
196	0xbdb25b10	-0.08708775
197	0xbdb53f0f	-0.08849918
198	0xbf148aca	-0.58024275
199	0xbf1f36e3	-0.62193125
200	0xbf2a77b7	-0.6658892
201	0xbf08403b	-0.5322301
202	0xbf0d3145	-0.55153304
203	0xbf0ad20a	-0.54226744
204	0xbef0999d	-0.46992198
205	0xbeda1731	-0.4259582
206	0xbecdb8a8	-0.40179944
207	0x3e7953f7	0.24348436
208	0x3ea29914	0.31757414
209	0x3e86dd60	0.2634077
210	0x3e5210d1	0.20514227
211	0x3e571268	0.21003115
212	0x3df62932	0.12019576
213	0xbda6aba7	-0.08138209
214	0xbe207c07	-0.15672313
215	0xbe45487d	-0.19265933
216	0xbe19fe22	-0.1503835
217	0xbe46ee49	-0.19426836
218	0xbe0ce0fa	-0.13757697
219	0xbe271d8e	-0.16319868
220	0xbe5b3ddf	-0.2141032
221	0xbe27fc96	-0.16404948
222	0xbdfdf594	-0.12400356
223	0xbe342bc0	-0.17594814
224	0xbe01f9c6	-0.12692937
225	0x3cb4550d	0.022013212
226	0x3c228f96	0.009921929
227	0xbd8a6f47	-0.06759506
228	0x3dae72dd	0.08518002
229	0x3dcb9e83	0.09942343
230	0x3d710954	0.058846787
231	0x3e0ccc6a	0.13749853
232	0x3e1ebaa0	0.1550088
233	0x3dca99e4	0.098926336
234	0x3d96665f	0.073437445
235	0x3dfd25ea	0.12360747
236	0x3e10e667	0.14150392
237	0x3d886de5	0.06661586
238	0x3d894126	0.06701879
239	0x3d4897a0	0.048972726
240	0xbd3fa619	-0.046789262
241	0xbd31a2b1	-0.043368045
242	0x3aaf2acb	0.0013364194
243	0x3f9a9141	1.2075578
244	0x3f971680	1.1803741
245	0x3f985fe1	1.190426
246	0x3f9a966d	1.2077156
247	0x3f9742e7	1.1817292
248	0x3f9a10fa	1.2036431
249	0x3f98f36b	1.1949285
250	0x3f980fcc	1.1879821
251	0x3f9a2523	1.2042583
252	0xbe9ff002	-0.312378
253	0xbeb9819f	-0.36231706
254	0xbeccb9b7	-0.3998544
255	0xbeab46b1	-0.3345237

Color_Space_Linearization.enhance_feature.1.bias f4 [16]
0	0xbdecba60	-0.11558986
1	0xbde868c7	-0.1134811
2	0xbe2b54fa	-0.16731635
3	0x3cccda9d	0.025006587
4	0xbe1db483	-0.15400891
5	0xbd9b28ab	-0.07576116
6	0xbdbc7fda	-0.09204073
7	0x3d246eda	0.04014478
8	0xbe21992a	-0.15781084
9	0xbdcc1fcd	-0.09967003
10	0x3e59b3c3	0.2125998
11	0x3db9990f	0.09062397
12	0x3cb726f0	0.022357434
13	0x3ebf452a	0.37357455
14	0xbdd9d528	-0.106363595
15	0x3d189087	0.037247207

Color_Space_Linearization.enhance_feature.3.weight f4 [64, 16, 1, 1]
0	0xbe45655d	-0.19276948
1	0xbdf99f54	-0.121885926
2	0xbdd28205	-0.102787055
3	0x3e662e7b	0.22478668
4	0xbd5fa943	-0.05460478
5	0x3e890514	0.26761687
6	0x3e21ec70	0.1581285
7	0xbeb6ea1b	-0.35725483
8	0xbdeeb9c9	-0.116565295
9	0xbf5af806	-0.85534704
10	0x3e575435	0.21028216
11	0xbd9970a8	-0.074921906
12	0xbe8cb262	-0.27479845
13	0x3e918e74	0.28428996
14	0x3e84a0ac	0.25903833
15	0xbebaa8eb	-0.36457
16	0x3c35f4fb	0.011105771
17	0x3dd4099a	0.10353394
18	0x3dd4e69b	0.10395547
19	0x3f0cdd38	0.55025053
20	0x3f0925da	0.5357338
21	0x3dda69ba	0.10664697
22	0x3f1cadd2	0.6120273
23	0x3e88baae	0.26704925
24	0x3dd1b9b4	0.10240498
25	0x3e03c804	0.12869269
26	0x3dc8716e	0.0978726
27	0x3ef8c1cf	0.48585364
28	0x3ee53fa9	0.4477513
29	0x3dae00b1	0.084962256
30	0x3e119c08	0.14219677
31	0x3e7c7008	0.24652112
32	0xbe3b9e14	-0.18322021
33	0xbdb88043	-0.09008839
34	0xbba7918c	-0.005113786
35	0xbdcb3b53	-0.099234246
36	0x3d707392	0.058703966
37	0x3e71803a	0.23584071
38	0x3d0f033b	0.03491519
39	0xbf3cafbd	-0.73705655
40	0xbcf0cf4c	-0.029395722
41	0x3e9f1eef	0.31078288
42	0xbdb8520c	-0.09000024
43	0xbee833ef	-0.45352122
44	0xbf03fa44	-0.5155375
45	0xbd5b26a5	-0.05350365
46	0x3e93e978	0.2888906
47	0xbf35c293	-0.7100002
48	0x3cdd2af7	0.026998026
49	0xbe5207d5	-0.205108
50	0xbeb82eb0	-0.3597312
51	0x3d3c29e3	0.045938384
52	0xbe100755	-0.14065297
53	0xbf8c5b07	-1.0965279
54	0x3e0f779c	0.14010471
55	0x3ee7e918	0.45295024
56	0xbe9db3fb	-0.30801377
57	0x3e28b4b7	0.16475187
58	0xbe14233a	-0.14466563
59	0x3e9e3866	0.30902404
60	0x3ef0114b	0.46888193
61	0xbe41a382	-0.1891003
62	0xbf8ababd	-1.0838238
63	0x3ed93521	0.42423347
64	0xbc513192	-0.012768166
65	0x3a83c87b	0.0010054255
66	0x3c97fd15	0.018553296
67	0x3e1abe28	0.15111601
68	0x3e0f8c73	0.14018421
69	0x3e1db604	0.15401465
70	0x3f34638f	0.70464414
71	0xbdcd341e	-0.10019706
72	0x3bea83fc	0.007156847
73	0xbe2d85b9	-0.16945542
74	0xbf1c68a8	-0.6109719
75	0x3ed2d82e	0.41180557
76	0x3e30fa4c	0.1728298
77	0x3db34ad6	0.08754508
78	0x3e455f5c	0.19274658
79	0xbdf26c75	-0.11837093
80	0x3de6254a	0.11237581
81	0x3d67ac41	0.05656076
82	0x3d0781bd	0.033082712
83	0xbede844f	-0.43460318
84	0xbf2c20c1	-0.6723748
85	0xbddabab9	-0.10680146
86	0xbe39d644	-0.18148142
87	0x3e4c38fc	0.19943613
88	0x3d2d10a1	0.042252187
89	0xbdd380ee	-0.10327326
90	0x3e5aead5	0.21378644
91	0xbe32b879	-0.17453183
92	0xbdb1ce0a	-0.08681877
93	0x3f029a63	0.51016825
94	0xbe1db0b4	-0.15399438
95	0x3e5866dd	0.21132989
96	0x3d01d255	0.03169473
97	0xbbc94d3b	-0.00614324
98	0x3d419c14	0.04726799
99	0x3ea4e290	0.32204103
100	0x3e974b42	0.29549605
101	0x3e857e08	0.26072717
102	0x3eeac5de	0.45854086
103	0xbf0132df	-0.5046825
104	0x3cf7431a	0.030183364
105	0xbe6232b6	-0.22089657
106	0x3dfc5fad	0.12322936
107	0xbea3d062	-0.3199492
108	0xbede49d0	-0.4341569
109	0x3eae5604	0.3405
110	0x3eb06f1a	0.34459764
111	0xbef52acd	-0.47884217
112	0x3d4d1cf1	0.05007643
113	0x3e459cc9	0.1929809
114	0x3ea4aa79	0.3216131
115	0xbe1f0f05	-0.15533073
116	0xbbef7e58	-0.0073087625
117	0x3ef8cdf3	0.48594627
118	0xba1358e0	-0.00056208484
119	0xbe7c9301	-0.24665453
120	0x3e926629	0.28593567
121	0x3e84681d	0.25860682
122	0xbde1627d	-0.11005113
123	0xbe15e308	-0.14637387
124	0xbe249e1d	-0.1607594
125	0xbe900864	-0.28131402
126	0x3f0af6b8	0.5428271
127	0xbe66327d	-0.22480197
128	0xbdaf134e	-0.08548604
129	0xbe3f9110	-0.1870768
130	0xbe43ec04	-0.19133002
131	0xbed9e827	-0.4255993
132	0xbebc24a8	-0.36746716
133	0xbe4b79ab	-0.19870631
134	0xbf42c1fa	-0.76077235
135	0xbe5bd8d8	-0.21469438
136	0xbe408eda	-0.18804494
137	0xbd351b57	-0.044215526
138	0xbe209d9b	-0.15685122
139	0xbef5975d	-0.47967044
140	0xbebc918a	-0.36829787
141	0xbd6307aa	-0.05542723
142	0xbe76bd2d	-0.24095602
143	0xbe485d89	-0.19566931
144	0x3e34515d	0.17609163
145	0x3ea60d14	0.32431853
146	0x3eb0b0bd	0.3450984
147	0x3d362cd2	0.044476338
148	0x3e239ac6	0.1597701
149	0x3e9517ec	0.29119813
150	0x3e9c3acf	0.30513617
151	0x3e99b64e	0.300219
152	0x3ead4f64	0.33849633
153	0x3edade6c	0.4274782
154	0x3d7b4759	0.06134734
155	0x3e759fa5	0.23986681
156	0x3e69a07a	0.22815123
157	0x3ce370d9	0.02776377
158	0x3ea01b12	0.31270653
159	0x3e9641f0	0.2934718
160	0x3e684717	0.22683369
161	0x3de62aab	0.11238607
162	0x3dfff685	0.12498192
163	0xbd30d829	-0.043174896
164	0xbd92e957	-0.07173412
165	0x3e160f66	0.14654312
166	0x3e53cc52	0.20683411
167	0x3c81bb4e	0.015836384
168	0x3df72e54	0.12069383
169	0xbdb36a91	-0.0876056
170	0xbca1d4d6	-0.019754808
171	0xbe87c8f0	-0.2652049
172	0xbe8ebb2d	-0.2787718
173	0x3f690b1e	0.9103259
174	0x3e285ab8	0.16440856
175	0x3cdf07d4	0.027225412
176	0x3d91dfd6	0.071227714
177	0x3c899de5	0.016798923
178	0x3dc1f573	0.09470644
179	0x3e1856e3	0.14876895
180	0x3db77df8	0.089595735
181	0x3f2ff2b3	0.68729705
182	0x3dcd770a	0.100324705
183	0xbf1bacbc	-0.60810447
184	0x3d8025bc	0.06257197
185	0xbf5cdcc5	-0.8627437
186	0xbc9efb8f	-0.019407062
187	0xbea01f72	-0.3127399
188	0xbf0b61aa	-0.544459
189	0x3f040667	0.5157227
190	0x3f2c61f0	0.6733694
191	0xbf18ff83	-0.5976488
192	0x3e48df8b	0.19616525
193	0x3e10ca58	0.14139688
194	0x3de9a108	0.114076674
195	0xbd2d8281	-0.042360786
196	0xbe46e9c9	-0.1942512
197	0xbd59274f	-0.053016003
198	0x3ed89406	0.42300433
199	0x3eedebdf	0.46469018
200	0x3dfa8459	0.122322746
201	0xbd520423	-0.051273476
202	0xbe3f13f1	-0.18659951
203	0x3ed8945e	0.42300695
204	0x3ea3c2b3	0.3198448
205	0x3eb0c39e	0.34524244
206	0xbdb84e5b	-0.0899932
207	0x3ee48e93	0.44640025
208	0x3c211846	0.009832447
209	0xbe14a486	-0.14515886
210	0xbe86092c	-0.26178873
211	0x3dbb06fd	0.09132192
212	0xbdc0d9d7	-0.0941655
213	0xbee560e4	-0.44800484
214	0xbdfab742	-0.12241985
215	0x3e3a38bf	0.1818571
216	0xbe6a63fe	-0.22889706
217	0xbecf712d	-0.40516034
218	0x3d8fe636	0.07026331
219	0x3d515656	0.051107727
220	0x3d830f78	0.06399435
221	0x3e4df549	0.201131
222	0xbf05684f	-0.5211229
223	0x3e2b6dcb	0.16741101
224	0x3e39c2b0	0.18140674
225	0x3d072b53	0.0330003
226	0x3c9d6704	0.01921416
227	0x3e9fa092	0.31177193
228	0x3f31211f	0.69191164
229	0xbd971270	-0.073765635
230	0xbd0d4ff1	-0.034500066
231	0x3e79d71e	0.24398467
232	0x3cd7fdfe	0.02636623
233	0x3f31554c	0.6927078
234	0xbda010dc	-0.07815716
235	0x3e110a4f	0.14164089
236	0x3e621c69	0.2208115
237	0xbe1e6687	-0.15468799
238	0xbd6bcdc5	-0.057569284
239	0x3e7847c4	0.24246126
240	0x3dbb3fe5	0.09143046
241	0x3d0bb8f5	0.034111936
242	0x3c3ce181	0.011528374
243	0xbf22d7ec	-0.6361072
244	0xbf3c2420	-0.7349262
245	0xbe11dad7	-0.14243637
246	0xbee5fd62	-0.44919878
247	0x3ecffd0b	0.40622744
248	0x3cb18855	0.021671453
249	0x3df39183	0.118929885
250	0x3cf158a8	0.02946122
251	0xbe306837	-0.17227255
252	0x3d4c6c4c	0.049907967
253	0x3db86d95	0.09005276
254	0xbe3d0389	-0.1845838
255	0x3ed1fcd8	0.41013217

Color_Space_Linearization.enhance_feature.3.bias f4 [64]
0	0x3ec8ad9c	0.39194953
1	0xbde992f8	-0.11404985
2	0xbd80cb09	-0.06288726
3	0x3d30b420	0.04314053
4	0x3df8810f	0.12133991
5	0x3e5720d3	0.21008615
6	0xbe18b643	-0.14913277
7	0xbe076613	-0.13222532
8	0x3d7ebd91	0.062192503
9	0xbd9a676e	-0.07539259
10	0xbcf20c85	-0.029546985
11	0x3e412851	0.18863036
12	0x3df83f08	0.12121397
13	0x3e15bc95	0.1462272
14	0xbeccecef	-0.40024516
15	0x3e1f29dd	0.15543313
16	0xbdc56b9c	-0.096396655
17	0xbd732062	-0.059357055
18	0x3dbf26cc	0.09333572
19	0x3dce3aac	0.100697845
20	0x3d9a1e2a	0.075252846
21	0x3bf5115a	0.007478875
22	0x3e43071b	0.1904568
23	0x3e9b3ea9	0.30321243
24	0xbe0f1215	-0.13971741
25	0x3cdd7ef3	0.027038073
26	0xbe392802	-0.18081668
27	0xbde25796	-0.11051862
28	0xbe6de423	-0.23231559
29	0x3c1d2d26	0.009593284
30	0xbe2421d0	-0.16028523
31	0x3e0aebb8	0.13566482
32	0x3e51571d	0.20443387
33	0xbdcb8fc1	-0.09939528
34	0xbd3cd77a	-0.046103932
35	0xbc8facbe	-0.017538425
36	0xbdaf0383	-0.08545592
37	0xbd213efd	-0.03936671
38	0x3d1620fc	0.03665255
39	0xbe13c896	-0.14431986
40	0xbe0e9dc2	-0.13927367
41	0x3e4689ca	0.193885
42	0x3e3878ad	0.18014784
43	0x3e5d8b0c	0.21635073
44	0x3e1c5c64	0.15269619
45	0x3bdc1943	0.0067168786
46	0x3e54b8b8	0.2077359
47	0xbda9dd9b	-0.08294221
48	0xbe4c0cbf	-0.19926737
49	0xbdb52124	-0.08844212
50	0xbe2212d3	-0.15827493
51	0xbbaa4dda	-0.005197269
52	0xbd92d507	-0.07169538
53	0xbe3fbe0a	-0.18724838
54	0xbafc1321	-0.0019231775
55	0x3e9e4ee3	0.3091956
56	0x3e58127a	0.21100798
57	0x3e53cc51	0.2068341
58	0x3e8f369f	0.2797136
59	0xbe311dae	-0.17296478
60	0xbc5911a5	-0.013248836
61	0x3d34c4b5	0.044132907
62	0x3d1547c1	0.036445383
63	0x3e9eb60a	0.3099826

Color_Space_Linearization.enhance_feature.4.weight f4 [32, 64, 1, 1]
0	0x3e227b39	0.15867318
1	0x3dd44173	0.10364046
2	0x3e990c27	0.29892084
3	0xbd63ef41	-0.055648092
4	0x3de40b4a	0.11134966
5	0xbec6a87c	-0.38800418
6	0x3ea1cce7	0.3160164
7	0x3cda0dff	0.026618002
8	0xbdacc5f7	-0.08436196
9	0xba08ebb2	-0.00052231096
10	0x3b93447d	0.0044942484
11	0x3dfa026b	0.122074924
12	0xbe26426f	-0.1623628
13	0xbd1a23e9	-0.037631903
14	0x3d8193d1	0.06327022
15	0xbedcde2c	-0.43138254
16	0x3da17115	0.07882897
17	0x3e256c7a	0.16154662
18	0xbde53885	-0.11192421
19	0x3dec04a6	0.11524324
20	0xbd1f9998	-0.038964838
21	0xbad8916c	-0.0016522831
22	0xbea9182c	-0.33026254
23	0x3e28bcfc	0.16478342
24	0x3e92d8d6	0.28681058
25	0x3c24d0ee	0.010059578
26	0x3e693395	0.22773583
27	0x3ebe01da	0.37110788
28	0xbe1692c2	-0.14704421
29	0x3d66b9bd	0.056329478
30	0x3d295ab4	0.041346267
31	0x3e12f0ad	0.14349623
32	0xbe938fa3	-0.28820524
33	0xbd0b1e72	-0.03396458
34	0x3d96e319	0.07367534
35	0x3e00f962	0.12595132
36	0xbe151993	-0.14560537
37	0x3c9e1d32	0.01930103
38	0xbcda0ea3	-0.026618307
39	0xbe0124d6	-0.12611708
40	0x3e418c01	0.18901064
41	0xbecd100c	-0.40051305
42	0xbce8f874	-0.028438784
43	0xbe9b2adb	-0.30306134
44	0xbeb74f18	-0.3580253
45	0x3dab24b1	0.08356608
46	0xbe05ea00	-0.13077545
47	0x3e6cfee6	0.23144111
48	0x3e234cee	0.15947315
49	0x3e8776a0	0.2645769
50	0x3ee87d9a	0.45408326
51	0xb92d1ae0	-0.00016508577
52	0x3da6bb7a	0.08141227
53	0x3ea06f8c	0.31335104
54	0xbd1c5d13	-0.0381747
55	0xbe00c86b	-0.12576453
56	0xbcb1948b	-0.021677276
57	0xbdfc151c	-0.12308714
58	0xbd9de2be	-0.07709263
59	0x3ea84f69	0.32873085
60	0xbc6ef53e	-0.0145848375
61	0xbcabc545	-0.020968089
62	0xbd86b02e	-0.06576572
63	0xbd85d9a6	-0.06535654
64	0x3e0b453f	0.13600634
65	0x3e910310	0.2832265
66	0xbe1dde1d	-0.1541676
67	0x3e892443	0.26785478
68	0x3e0bba96	0.13645396
69	0xbe81eb66	-0.25374907
70	0x3e380d44	0.1797381
71	0xbeb2ef32	-0.34948117
72	0xbe47cdfa	-0.19512168
73	0xbd64f35f	-0.05589616
74	0x3e845a9d	0.25850382
75	0x3cd89c60	0.026441753
76	0x3dc47664	0.09592894
77	0x3e865940	0.26239967
78	0x3e373fc1	0.17895414
79	0xbebf7651	-0.37394956
80	0xbe591db3	-0.21202736
81	0xbe2cf253	-0.16889314
82	0x3dde6387	0.10858827
83	0x3e3e63b7	0.18592726
84	0xbd7816dd	-0.06056868
85	0x3da80a7e	0.08205126
86	0xbc7224f7	-0.014779321
87	0x3e751eb6	0.23937497
88	0x3e91fd14	0.28513396
89	0x3d43ef51	0.04783565
90	0x3e9f8b24	0.31160843
91	0xbdae8ae5	-0.08522586
92	0xbe20510f	-0.15655921
93	0xbe822a2b	-0.25422797
94	0xbe80fef8	-0.25194526
95	0x3dffafc4	0.124846965
96	0x3e4f0861	0.2021804
97	0xbde7360a	-0.11289604
98	0xbda27508	-0.07932478
99	0xbda60ea3	-0.081082605
100	0xbd7599cb	-0.05996112
101	0x3c1ee6a3	0.009698543
102	0xbd23eae3	-0.040018927
103	0x3c8d4d79	0.017248856
104	0xbcc17269	-0.023614125
105	0xbe501729	-0.20321335
106	0x3dcdb39d	0.10044024
107	0x3e153616	0.14571413
108	0x3c7b00c2	0.015320005
109	0xbe40301b	-0.18768351
110	0x3e55d131	0.20880581
111	0xbdc3fc7e	-0.095696434
112	0xbd21fcee	-0.039547853
113	0x3ef4bccc	0.4780029
114	0x3d111fcb	0.03543071
115	0x3d5bcaba	0.053660132
116	0xbd7c25d9	-0.06155953
117	0x3d3c85b5	0.04602595
118	0xbdaba2e8	-0.08380681
119	0xbe24c5db	-0.16091101
120	0x3d65bf05	0.056090374
121	0x3ea79450	0.3273034
122	0xbe31e29b	-0.173716
123	0x3ecb765f	0.39738747
124	0xbd03ca86	-0.032175563
125	0x3e326d7c	0.17424577
126	0xbe471d1c	-0.19444698
127	0x3e1db838	0.15402305
128	0xbe68df33	-0.22741394
129	0x3df43cf7	0.119256906
130	0xbccd6650	-0.0250732
131	0xbd5a44aa	-0.05328814
132	0x3cfeb690	0.031092912
133	0xbe8b36d6	-0.27190274
134	0xbd1c3f64	-0.03814639
135	0x3e0f18e6	0.13974342
136	0xbdfe4bd7	-0.12416809
137	0x3e5a8896	0.21341166
138	0xbdd906d4	-0.105970055
139	0xbd9eed94	-0.07760158
140	0x3ced7d84	0.028990515
141	0xbe2ee8e6	-0.17081031
142	0x3e1e573b	0.15462963
143	0x3c4754c3	0.012166205
144	0x3e185db4	0.14879495
145	0xbd2645c9	-0.040593896
146	0x3d61400f	0.05499273
147	0x3a1cc621	0.0005980451
148	0xbe02d769	-0.12777485
149	0xbe357252	-0.17719391
150	0xbc152dcf	-0.00910516
151	0xbdb78a09	-0.08961875
152	0x3d9e9b93	0.07744517
153	0xbe557da6	-0.20848712
154	0x3da6cd44	0.0814462
155	0xbd62fd73	-0.05541749
156	0x3dd045d1	0.101695664
157	0x3d2543c4	0.04034783
158	0x3e061c3b	0.13096707
159	0xbdb5d143	-0.08877804
160	0xbea2da3a	-0.3180712
161	0xbd05b4f7	-0.032643285
162	0xbd869012	-0.06570448
163	0xbd4bc411	-0.04974753
164	0x3e499379	0.19685163
165	0xbe22fdd1	-0.15917136
166	0xbe0a900d	-0.13531514
167	0x3de88c54	0.113548905
168	0xbc79663e	-0.01522213
169	0xbedbd0f5	-0.4293286
170	0xbe28014c	-0.16406745
171	0xbef657e7	-0.4811394
172	0x3b63c72a	0.0034756162
173	0xbd9f5441	-0.07779742
174	0xbec8735b	-0.3915051
175	0xbc508ff6	-0.012729635
176	0x3d0e4344	0.03473212
177	0x3cc87a98	0.02447252
178	0x3af49994	0.0018661493
179	0xbe2d5e16	-0.16930422
180	0x3db9cc26	0.09072141
181	0x3ddb5e4a	0.107113436
182	0x3dd42c07	0.1035996
183	0xbe957928	-0.29193997
184	0xbd2be980	-0.04197073
185	0xbde353ca	-0.11099966
186	0xbd810cdb	-0.0630128
187	0x3da1f68e	0.07908355
188	0x3e42043e	0.18946931
189	0x3d8aa6a3	0.06770065
190	0xbd34fa4f	-0.044184025
191	0xbe4afa17	-0.19821964
192	0xbe24cc58	-0.16093576
193	0xbebcc25e	-0.3686704
194	0x3ecdfb31	0.40230706
195	0xbc989467	-0.018625451
196	0xbf2ff56c	-0.6873386
197	0xbea3d0ec	-0.31995332
198	0x3e4e98e5	0.20175512
199	0xbc5f930a	-0.013645897
200	0x3f9cfd41	1.2264787
201	0xbf53b1fd	-0.82693464
202	0x3d846840	0.064651966
203	0xbd042e7f	-0.032270905
204	0xbf69ddce	-0.9135407
205	0x3cee1e33	0.029067134
206	0x3e9667a8	0.29375958
207	0xbe3dc1f1	-0.18531014
208	0x3e0e0deb	0.13872497
209	0x3ef149e7	0.47126696
210	0xbf421d6c	-0.75826144
211	0xbdca3dc0	-0.09875059
212	0x3e80b982	0.2514153
213	0x3f1294d2	0.5725833
214	0xbf91cd71	-1.1390821
215	0xbe2ea79c	-0.17056125
216	0x3ebddab3	0.37080917
217	0x3f291d77	0.66060585
218	0xbd308364	-0.043094054
219	0x3eb6e4af	0.35721347
220	0x3eb0651f	0.3445215
221	0x3c99e049	0.018783705
222	0xbccc9b09	-0.02497627
223	0x3d52c843	0.051460516
224	0xbea3af5f	-0.31969735
225	0x3e8586a9	0.260793
226	0x3f9a9b7a	1.2078698
227	0x3c6a3598	0.014295004
228	0xbcab4adf	-0.020909725
229	0x3f8a41e8	1.0801363
230	0x3ebbc4b1	0.366735
231	0xba67c4c6	-0.0008841272
232	0x3ebd9457	0.37027237
233	0xbf329deb	-0.69772214
234	0xbe8df064	-0.27722466
235	0xbe91982e	-0.28436416
236	0xbf566bf3	-0.8375847
237	0x3f067ba6	0.5253242
238	0xbebf7c7b	-0.3739966
239	0x3f41a082	0.7563554
240	0x3fbb32a8	1.4624834
241	0xbb6dd322	-0.0036289175
242	0x3f3b622b	0.7319667
243	0x3f208097	0.6269621
244	0x3dd967ad	0.10615478
245	0x3e52b4de	0.20576808
246	0x3d07539e	0.033038728
247	0xbe8e202f	-0.2775893
248	0xbf270fad	-0.65258294
249	0xbde03fdd	-0.10949681
250	0xbebfdad7	-0.3747165
251	0x3f3b24bb	0.7310292
252	0xbf139e25	-0.57663184
253	0xbecccd52	-0.40000397
254	0x3dddcc91	0.108300336
255	0xbeb85a72	-0.36006504

Color_Space_Linearization.enhance_feature.4.bias f4 [32]
0	0x3e42b49a	0.19014207
1	0x3e11a5c1	0.14223386
2	0xbe25f0c4	-0.16205126
3	0xbeafc650	-0.34330988
4	0x3e830c92	0.25595528
5	0xbeddf20e	-0.43348736
6	0x3e3a0036	0.18164143
7	0x3e1f4584	0.15553862
8	0xbe90c008	-0.28271508
9	0x3de824bd	0.11335132
10	0x3dfedfd7	0.12445038
11	0xbe144be1	-0.1448207
12	0xbe1392a9	-0.14411415
13	0xbe825896	-0.2545821
14	0xbf43f4f9	-0.76545674
15	0x3e2ac611	0.16677119
16	0xbde1aa18	-0.11018771
17	0xbe135950	-0.14389539
18	0xbe3bfef9	-0.18358983
19	0xbe0d08e7	-0.13772927
20	0x3cd1b0df	0.025597034
21	0x3d45d360	0.048297286
22	0xbc9c4909	-0.019077795
23	0x3dbbe8d5	0.091752686
24	0xbea189a1	-0.31550315
25	0xbe279815	-0.16366608
26	0x3dad12ef	0.08450877
27	0xbd06e9ef	-0.03293794
28	0x3da4699b	0.08027955
29	0x3d828544	0.06373075
30	0x3e2c4737	0.16824041
31	0xba98dbc5	-0.0011662176

Color_Space_Linearization.Color_Feature.0.weight f4 [16, 16, 3, 3]
0	0x3e3f6c9c	0.18693775
1	0x3e005e22	0.12535909
2	0x3e2e1b1c	0.17002529
3	0xbc48fa71	-0.012266741
4	0xbde6d70c	-0.11271486
5	0xbd5f035f	-0.054446574
6	0x3e313882	0.17306712
7	0x3e1a5793	0.1507247
8	0x3e855d93	0.26047954
9	0x3e4a0669	0.19729008
10	0x3e548702	0.20754626
11	0x3e387fe4	0.18017536
12	0x3de55a29	0.11198837
13	0x3e3d1cba	0.1846799
14	0x3e4b82c9	0.1987411
15	0x3de20679	0.11036391
16	0x3d12fdfe	0.035886757
17	0xbcc02da0	-0.023459256
18	0xbd66614a	-0.056245126
19	0xbe331de6	-0.17491874
20	0xbe120598	-0.14259946
21	0xbe06546b	-0.1311814
22	0xbe8691e6	-0.26283187
23	0xbe72d90c	-0.2371561
24	0xbe493aad	-0.1965129
25	0xbeba871b	-0.36431202
26	0xbeaf912a	-0.3429044
27	0x3d998f76	0.07498066
28	0x3e050f8c	0.12994212
29	0x3cc77fdf	0.024352966
30	0x3d8e0d24	0.069361
31	0x3d47295a	0.04862342
32	0xbdd1e000	-0.10247803
33	0xbe53e306	-0.20692071
34	0xbe45c1b7	-0.19312178
35	0xbe7857fd	-0.24252315
36	0x3e8ca846	0.27472132
37	0x3e510da0	0.20415354
38	0x3dd02025	0.10162381
39	0x3e88ec46	0.26742762
40	0x3e4ea1fb	0.20178978
41	0x3decf395	0.11569897
42	0x3de26ee3	0.11056306
43	0x3d437040	0.04771447
44	0x3cdb8ee7	0.02680154
45	0xbe506e52	-0.20354584
46	0xbe132fc5	-0.14373691
47	0xbe0eb671	-0.13936783
48	0xbe491041	-0.19635107
49	0xbe0ff5fe	-0.14058682
50	0xbe10db7c	-0.14146227
51	0xbe64dfdc	-0.2235102
52	0xbe358012	-0.17724636
53	0xbe3ac8ba	-0.18240634
54	0x3d25f790	0.040519297
55	0x3d0e1644	0.034689203
56	0xbbb8e286	-0.005642238
57	0x3ca1aa01	0.019734384
58	0x3d0675a8	0.03282705
59	0x3c1fb238	0.0097470805
60	0xbe0ecd7a	-0.1394557
61	0xbe8ea4cf	-0.27860114
62	0xbebdd441	-0.37076
63	0x3e29f32b	0.16596667
64	0x3e30f552	0.17281082
65	0x3e0c71a6	0.13715228
66	0x3e0b5c75	0.13609488
67	0x3e30bb16	0.17258868
68	0x3e1bf92b	0.15231769
69	0x3de449a5	0.11146859
70	0x3de147c0	0.11000013
71	0x3d5e6108	0.054291755
72	0xbe0f6024	-0.14001518
73	0xbd41cfc2	-0.047317274
74	0xbc176f63	-0.009242865
75	0xbe891d73	-0.2678028
76	0x3b78bcda	0.0037954361
77	0x3d990106	0.07470898
78	0x3e4eed08	0.20207608
79	0x3e8d2732	0.27568966
80	0x3dda3271	0.10654152
81	0x3e3808a8	0.17972052
82	0x3e61bf74	0.2204569
83	0x3e1077d2	0.14108208
84	0x3d0b29ef	0.033975538
85	0x3e0691af	0.13141511
86	0x3ddb642d	0.107124664
87	0x3cc50a4c	0.024052761
88	0x3d89fbfb	0.067375146
89	0xbc4a8428	-0.01236061
90	0x3a13e965	0.00056423835
91	0x3d436122	0.047700055
92	0x3d8d5855	0.069016136
93	0xbb7a01ce	-0.0038148048
94	0x3c6cc0a9	0.014450231
95	0xbd5f323a	-0.05449126
96	0x3d808742	0.062757984
97	0x3e116462	0.14198449
98	0x3d9b4b3f	0.075827114
99	0x3e22f479	0.15913571
100	0x3e0c730e	0.13715765
101	0x3d86ae37	0.065761976
102	0xbdfb0f24	-0.12258747
103	0xbd4f4653	-0.050604176
104	0xbceb9871	-0.028759213
105	0xbcd7cbaf	-0.026342241
106	0x3cf548b3	0.029941892
107	0x3d4e4169	0.05035535
108	0x3d39e52b	0.045384567
109	0x3c70c8d3	0.014696318
110	0xbcc1f8fc	-0.023678295
111	0x3ce28929	0.027653294
112	0x3ce5689b	0.028003981
113	0x3d215d1b	0.039395433
114	0x3b9c88e4	0.004777061
115	0x3c476f13	0.012172478
116	0x3d50d78b	0.050986808
117	0xbdf425a8	-0.11921245
118	0xbe1effab	-0.15527217
119	0xbe07c2d3	-0.13257913
120	0xbdf6b3d1	-0.12046016
121	0xbdf4f408	-0.11960608
122	0xbde16636	-0.11005823
123	0x3d3654b9	0.04451439
124	0xbdc5259a	-0.096263126
125	0xbe44a10e	-0.19202062
126	0xbddf23be	-0.10895489
127	0xbdf8a15a	-0.1214015
128	0xbe189383	-0.14900021
129	0xbe53ce99	-0.2068428
130	0xbe2838f9	-0.16427983
131	0xbe2e6638	-0.17031181
132	0xbd170e73	-0.036879014
133	0x3cd82533	0.026384925
134	0xbccfcd13	-0.025366342
135	0x3cd5efb8	0.026115283
136	0xbb7f28bb	-0.003893419
137	0x3bd91647	0.00662497
138	0xbce5f445	-0.028070578
139	0xbd95af1a	-0.073087886
140	0xbdb1fa33	-0.086903
141	0x3d83b65e	0.06431268
142	0x3d45c42d	0.04828279
143	0x3c593406	0.013257032
144	0x3d3dea36	0.04636594
145	0x3d5f6662	0.054541
146	0x3de9087a	0.1137857
147	0x3e55c404	0.20875555
148	0x3e55297f	0.20816611
149	0x3e7006df	0.23440121
150	0xbc264e15	-0.010150452
151	0xbcfcc8c5	-0.030857453
152	0xbca15a1b	-0.019696286
153	0xbc19f5e1	-0.009397001
154	0x3b7636f7	0.0037569383
155	0x3cbc84a9	0.023012476
156	0xbd40d1be	-0.047075026
157	0xbb6e2e82	-0.0036343639
158	0x3cbffc22	0.023435656
159	0x3d4e1746	0.050315164
160	0x3da3d65e	0.07999872
161	0x3dd177f0	0.102279544
162	0x3c911bb3	0.017713403
163	0x3d16e8c5	0.03684308
164	0x3d94e78a	0.07270725
165	0xbdec1948	-0.115282595
166	0xbdb66d68	-0.08907586
167	0xbd827d48	-0.06371552
168	0xbde4d40c	-0.11173257
169	0xbdb297cc	-0.08720359
170	0xbd89e0f7	-0.06732362
171	0xbea20df2	-0.31651264
172	0xbe6351f6	-0.22199234
173	0xbe313242	-0.17304328
174	0xbdfead9b	-0.12435456
175	0xbd79247f	-0.06082582
176	0xbd91ed29	-0.07125313
177	0x3c8bf984	0.017086752
178	0x3d81bc4a	0.063347414
179	0x3ad87447	0.0016514146
180	0xbe536dad	-0.20647307
181	0xbe1138ba	-0.14181796
182	0xbdcdd35e	-0.10050081
183	0xbd973121	-0.073824175
184	0xbc6f1928	-0.0145934
185	0x3c88742a	0.016656954
186	0xbde9fc6a	-0.11425097
187	0xbd9a1683	-0.07523825
188	0xbd3084e5	-0.043095488
189	0x3beee14b	0.0072900406
190	0xbcf534ed	-0.029932464
191	0xbd2a8740	-0.04163289
192	0x3e0f225c	0.13977951
193	0x3de35ed5	0.11102072
194	0x3dcf214f	0.10113775
195	0x3e5f1440	0.21785069
196	0x3e445c81	0.19175912
197	0x3e36b982	0.17844203
198	0xbe4f9745	-0.20272548
199	0xbe4f4a4e	-0.20243189
200	0xbe46e1e3	-0.19422106
201	0xbea50559	-0.32230642
202	0xbea2fad9	-0.31832007
203	0xbeb5c8fc	-0.355049
204	0x3d1e3fe9	0.03863517
205	0x3d76009c	0.060059175
206	0x3cfbcb62	0.030736629
207	0xbec9919d	-0.39368907
208	0xbeb56c8b	-0.35434374
209	0xbe8b19c6	-0.271681
210	0xbea9e6be	-0.33183855
211	0xbe96872c	-0.29400003
212	0xbe6455e4	-0.2229839
213	0xbea970ed	-0.33093968
214	0xbe9db326	-0.30800742
215	0xbe84b112	-0.25916344
216	0x3d224e16	0.03962525
217	0x3da6dfb7	0.08148139
218	0x3e389284	0.18024641
219	0x3e456bd5	0.19279416
220	0x3e22ff1c	0.15917629
221	0x3e0f94f0	0.14021659
222	0x3e9e5b64	0.309291
223	0x3e539707	0.20663081
224	0x3e34bf86	0.17651185
225	0xbc666754	-0.014062721
226	0x3d232f3c	0.039839968
227	0x3d95dc5f	0.07317423
228	0x3bf205c6	0.007385942
229	0x3d209c89	0.039211784
230	0x3d420bf0	0.047374666
231	0x3d28cf2c	0.0412132
232	0x3d6cd183	0.057816993
233	0x3d831d00	0.06402016
234	0xbece4219	-0.40284804
235	0xbebfd73f	-0.37468907
236	0xbea0e210	-0.31422472
237	0xbd958bf2	-0.07302083
238	0x3ce922de	0.028459009
239	0x3dbd2b7c	0.092368096
240	0x3e2b292d	0.16714926
241	0x3e752cc3	0.23942856
242	0x3e409baa	0.18809381
243	0xbc18ec97	-0.009333751
244	0x3bd3efbd	0.006467788
245	0x3db44dfb	0.08803936
246	0x3e149e42	0.14513496
247	0x3e151e59	0.14562358
248	0x3e3c7572	0.18404177
249	0x3dee3152	0.11630501
250	0x3d1bdd7c	0.03805302
251	0x3d2d5c48	0.042324334
252	0x3dac8a4f	0.08424818
253	0x3e01be23	0.12670188
254	0x3e041c0e	0.12901327
255	0x3dc66997	0.096881084

Color_Space_Linearization.Color_Feature.0.bias f4 [16]
0	0x3e6f9350	0.23396039
1	0xbe4890ea	-0.1958653
2	0xbdf64886	-0.120255515
3	0xbdadb6d3	-0.084821366
4	0x3e56343d	0.20918365
5	0x3c9ab836	0.018886667
6	0x3d807fe9	0.06274397
7	0x3e40fad8	0.1884569
8	0x3dd3ecb8	0.10347885
9	0x3c1d78c7	0.009611315
10	0xbef9ed76	-0.4881398
11	0x3d0f70ba	0.035019614
12	0xbe195926	-0.14975414
13	0xbe5dcf85	-0.21661194
14	0x3e53a3a2	0.2066789
15	0xbe25478d	-0.16140576

Color_Space_Linearization.Color_Feature.1.weight f4 [8, 16, 1, 1]
0	0x3d180701	0.037116054
1	0x3f28eb5c	0.6598413
2	0xbc8731b2	-0.016503189
3	0xbe30201c	-0.17199749
4	0x3de87817	0.1135103
5	0x3e41b8c3	0.18918137
6	0xbd7d4ada	-0.061838962
7	0x3e47e599	0.19521178
8	0x3e13ba27	0.1442648
9	0x3d6357b3	0.05550356
10	0x3d346238	0.04403898
11	0xbd20ceb8	-0.039259642
12	0x3d074b1e	0.03303062
13	0xbbcffe40	-0.0063474476
14	0x3e0ca884	0.13736159
15	0x3d1ef220	0.038805127
16	0x3d258160	0.040406585
17	0xbd8f658f	-0.07001793
18	0x3d38ab7f	0.045085426
19	0x3bb995a7	0.005663592
20	0x3c8e0c36	0.017339807
21	0x3e1cf7e8	0.15328944
22	0xbe4e2f6c	-0.20135278
23	0xbd2a3435	-0.041553695
24	0x3e8158f8	0.2526319
25	0xbd3e5950	-0.046471894
26	0x3f9713c4	1.1802907
27	0xbe6f7a8e	-0.23386595
28	0x3cdaa414	0.026689567
29	0xbc70e921	-0.01470402
30	0xbea0bec0	-0.3139553
31	0xbdd1d5e7	-0.10245877
32	0xbdb326db	-0.087476455
33	0xbd8efc4a	-0.06981714
34	0xbd18bf29	-0.03729168
35	0xbeae2f6e	-0.3402056
36	0xbe312ecd	-0.1730301
37	0x3e8e02e2	0.27736574
38	0xbdf93b26	-0.12169485
39	0x3e6ed16c	0.23322076
40	0xbdaa3404	-0.083107024
41	0x3dd90678	0.10596937
42	0xbd9338af	-0.07188546
43	0x3d8101d8	0.0629918
44	0xbcf4a402	-0.029863361
45	0xbd8a634e	-0.06757222
46	0xbe17dd4f	-0.14830516
47	0x3e2aa50c	0.16664523
48	0xbd85fcf1	-0.06542385
49	0xbd35e10a	-0.044404067
50	0x3dde55ec	0.10856232
51	0xbdaba417	-0.08380907
52	0x3c5d3b84	0.013502959
53	0xbd852547	-0.06501251
54	0x3f37ed76	0.7184671
55	0x3e4f0955	0.20218404
56	0x3d387a93	0.04503877
57	0xbd88c2c3	-0.06677773
58	0x3d992609	0.07477958
59	0xbe5e8172	-0.21729067
60	0x3dbd0364	0.09229162
61	0xbe12f6a4	-0.14351898
62	0x3ee43bf7	0.44577
63	0xbd002884	-0.03128864
64	0x3ed0bec0	0.4077053
65	0x3c6eb525	0.014569555
66	0xbcf7a6ab	-0.03023084
67	0x3dd0bd80	0.10192394
68	0x3eec7edb	0.46190533
69	0x3e79f2f1	0.24409081
70	0xbe30e5da	-0.17275181
71	0x3e652533	0.22377472
72	0xbdc5909b	-0.09646722
73	0xbec3f722	-0.38274485
74	0xbd6c3f7b	-0.057677727
75	0xbca55622	-0.020182673
76	0xbd09ac5b	-0.033611637
77	0xbee9ad28	-0.4563992
78	0x3ee6286c	0.44952714
79	0x3e384c37	0.17997824
80	0x3c3ec605	0.011643891
81	0x3d588a86	0.05286648
82	0x3d119802	0.035545357
83	0xbdbfa211	-0.093570836
84	0x3cb931b2	0.022606704
85	0x3c4e625c	0.012596693
86	0x3e0fa577	0.14027964
87	0x3d4543ad	0.048160244
88	0x3e047640	0.12935734
89	0x3eda4f06	0.42638415
90	0x3e65b40b	0.22431962
91	0xc03921f2	-2.8926969
92	0x3d1fdd08	0.03902915
93	0x3dbfa79b	0.0935814
94	0xbde04ad8	-0.10951775
95	0xbd7b534b	-0.06135873
96	0x3d4a1903	0.04934026
97	0xbd23b682	-0.039968975
98	0xbb3f2bb8	-0.0029170346
99	0xbec04eea	-0.37560207
100	0x3d1177b7	0.03551456
101	0xbd2dce62	-0.04243315
102	0xbd9dbd65	-0.0770214
103	0x3e629706	0.22127923
104	0x3f902a0f	1.1262835
105	0x3eed000d	0.462891
106	0x3dd11a2f	0.10210072
107	0xbd529259	-0.0514091
108	0xbcf0fc8e	-0.029417302
109	0x3d80b488	0.062844336
110	0xbe785559	-0.24251308
111	0xbf5d89dc	-0.8653848
112	0xbcc679b3	-0.024227953
113	0xbd871266	-0.06595306
114	0x3ec13650	0.3773675
115	0x3e05a133	0.13049774
116	0xbc1cebf4	-0.00957774
117	0x3d48d237	0.0490286
118	0xbe6c5d93	-0.2308257
119	0x3cac3e62	0.02102584
120	0xbd6922b9	-0.05691788
121	0xbeb2bdd0	-0.3491044
122	0xbd0fbf77	-0.035094704
123	0x3d020279	0.03174064
124	0x3ea9b8e6	0.3314888
125	0xbe89eb40	-0.26937294
126	0x3c5f1b02	0.013617279
127	0x3d00bd9e	0.031430833

Color_Space_Linearization.Color_Feature.1.bias f4 [8]
0	0xbe5b36d2	-0.21407631
1	0xbf6f143a	-0.9339024
2	0x3e480aaa	0.19535318
3	0xbc705126	-0.014667785
4	0x3e9bc9d3	0.30427417
5	0xbd8f076e	-0.06983839
6	0x3e889ea9	0.26683548
7	0xbde37ac2	-0.111073986

Color_Space_Linearization.Color_Feature.3.weight f4 [3, 8, 1, 1]
0	0xbeb780ba	-0.35840398
1	0xbe1aa4ee	-0.15101978
2	0xbf3a47b6	-0.7276567
3	0xbd756fe6	-0.059921168
4	0xbddfe764	-0.10932806
5	0x3f5d2b8e	0.86394584
6	0x3dd0ce00	0.101955414
7	0x3e086ff5	0.13323958
8	0x3c3ebb05	0.011641269
9	0xbeb58edf	-0.35460564
10	0xbf1e3c8c	-0.6181114
11	0x3e7b9775	0.24569495
12	0x3e77d60b	0.24202745
13	0x3e8a43b5	0.2700478
14	0x3e29b11b	0.16571467
15	0xbeff6df8	-0.49888587
16	0xbea5077e	-0.3223228
17	0xbf1148ab	-0.5675151
18	0x3ce27d34	0.027647592
19	0xbee99015	-0.45617738
20	0x3e5ac09c	0.21362537
21	0xbf07c8c0	-0.53040695
22	0x3e82ba0d	0.2553257
23	0xbe380e7a	-0.17974272

Color_Space_Linearization.Color_Feature.3.bias f4 [3]
0	0xbe45192b	-0.19247882
1	0x3e03a56f	0.12856077
2	0x3eeafbf8	0.45895362

Color_Space_Linearization.gain_rate.0.weight f4 [8, 16]
0	0xbe2b7c55	-0.16746648
1	0x3e2a63ad	0.16639586
2	0xbddf5de0	-0.10906577
3	0xbe665ca9	-0.22496285
4	0x3dac7d4a	0.084223345
5	0xbdb115a9	-0.086467095
6	0xbe67f0e3	-0.22650485
7	0x3d75ec2c	0.060039684
8	0xbebbb1b9	-0.3665903
9	0xbdd7f45c	-0.10544655
10	0x3e0da57a	0.13832656
11	0x3d9441b6	0.07239096
12	0x3e587324	0.21137673
13	0x3e2143d4	0.1574853
14	0xbc335870	-0.010946378
15	0xbe22ca9f	-0.15897606
16	0xbd38099b	-0.044931035
17	0xbd8499a3	-0.064746164
18	0x3e237f35	0.15966494
19	0x3e59d66f	0.21273206
20	0x3dba9ae6	0.09111576
21	0x3e8a1ae6	0.26973647
22	0xbde31e33	-0.110897444
23	0xbdc39653	-0.095501564
24	0xbe329c5f	-0.17442463
25	0xbe0cde84	-0.13756758
26	0x3df1b23c	0.11801574
27	0xbe91ecca	-0.28500968
28	0x3d7e2d82	0.06205512
29	0xbe877946	-0.26459712
30	0xbcc66e19	-0.02422242
31	0xbda67f51	-0.081297524
32	0x3d8ad0f5	0.06778137
33	0x3ca806a4	0.020510979
34	0x3d91e696	0.07124059
35	0x3e52acf1	0.20573784
36	0xbe9a53c1	-0.30142024
37	0xbdbd42fd	-0.092412926
38	0xbdb709b4	-0.089373976
39	0x3c9b5f7e	0.018966433
40	0xbcbf7fae	-0.023376312
41	0x3dcef60b	0.10105523
42	0x3ea2c6c0	0.3179226
43	0x3e03b452	0.12861755
44	0xbd50c97b	-0.050973397
45	0x3d903e97	0.07043188
46	0xbd2a7250	-0.041612923
47	0xbd9f22dc	-0.07770321
48	0x3d81ad76	0.06331913
49	0x3cf33bd1	0.029691609
50	0x3e6cb43e	0.23115632
51	0xbe22cdb6	-0.15898785
52	0xbe1081a2	-0.14111951
53	0x3d6f8010	0.05847174
54	0x3e00b639	0.12569512
55	0xbe69129c	-0.22761005
56	0x3e23e51c	0.16005367
57	0x38c6488e	9.45489e-05
58	0x3a8ee9c7	0.0010903411
59	0xbd8645a1	-0.065562494
60	0xbda1a010	-0.078918576
61	0x3e1bac13	0.1520236
62	0xbe9a8cde	-0.30185598
63	0x3e21c73d	0.1579866
64	0xbdd4a0c9	-0.1038223
65	0x3e768ae6	0.24076423
66	0x3e15ae60	0.146173
67	0x3e020c3b	0.12699978
68	0x3e170ba7	0.14750539
69	0xbe3250ff	-0.1741371
70	0x3dd676f2	0.10471906
71	0x3b10ae5b	0.002207658
72	0x3e460f45	0.19341762
73	0xbc31f899	-0.010862493
74	0x3e4d0a26	0.20023403
75	0x3dadd0ae	0.08487068
76	0xbe328d67	-0.17436753
77	0x3ca63312	0.020288024
78	0xbe50f0d6	-0.20404372
79	0xbdad4dd1	-0.08462108
80	0xbbe64b0e	-0.00702799
81	0xbe2ed00e	-0.17071554
82	0x3d0348c0	0.0320518
83	0xbdc19ea1	-0.09454084
84	0x3d2c46af	0.042059597
85	0xbc51af8a	-0.012798199
86	0x3ea1689b	0.3152512
87	0xbdc053f8	-0.09391016
88	0xbe22c836	-0.15896687
89	0x3b462312	0.0030233306
90	0xbdb44dc8	-0.08803898
91	0xbe23aa4a	-0.15982929
92	0xbd174613	-0.036932062
93	0xbacc3713	-0.0015580378
94	0x3dd29231	0.1028179
95	0x3eac8b03	0.33699808
96	0xbccbc6e2	-0.024875108
97	0xbe3c557a	-0.18391982
98	0xbe004692	-0.1252692
99	0x3db0329a	0.086034015
100	0xbd6b4648	-0.057440072
101	0xbeaeb7a7	-0.3412449
102	0xbd3aaa55	-0.045572598
103	0x3cd9b67e	0.026576277
104	0x3e26726c	0.16254586
105	0x3d25b095	0.040451605
106	0x3e3e6273	0.18592243
107	0x3d4a3e23	0.049375664
108	0x3e8305d1	0.25590375
109	0xbe1c2a26	-0.15250453
110	0x3d87347c	0.066018075
111	0x3dd7e188	0.105410635
112	0x3e7310eb	0.23736922
113	0x3de32723	0.11091449
114	0x3d8b6ee1	0.06808258
115	0xbd228a15	-0.039682467
116	0x3e0b13fd	0.13581844
117	0xbe2b2416	-0.16712984
118	0x3c256d6f	0.010096892
119	0xbe89db91	-0.26925328
120	0xbdba19ae	-0.09086929
121	0xbd19e863	-0.037575137
122	0x3e92018c	0.28516805
123	0xbc249642	-0.01004559
124	0xbd61e82e	-0.055153064
125	0x3d814b15	0.06313149
126	0x3c821f89	0.015884178
127	0xbe6b48d7	-0.22977005

Color_Space_Linearization.gain_rate.2.weight f4 [1, 8]
0	0x3e87a5de	0.26493734
1	0x3f17a5e4	0.59237504
2	0x3ec151ef	0.37757823
3	0xbebe9052	-0.37219483
4	0xbeab005f	-0.3339872
5	0x3eaea1b1	0.34107736
6	0xbe978c07	-0.2959902
7	0x3f05997b	0.5218732

Color_Space_Linearization.tail.0.weight f4 [3, 3, 1, 1]
0	0x3f0d6fbd	0.55248624
1	0x3f00e513	0.5034954
2	0xbdbe8eae	-0.09304558
3	0xbfb04bb3	-1.3773102
4	0xbe5ddf43	-0.21667199
5	0x3f2a40f5	0.66505367
6	0x3f302909	0.68812615
7	0x3e014550	0.12624097
8	0xbeafb03d	-0.34314147

Color_Space_Linearization.tail.0.bias f4 [3]
0	0xbe40b311	-0.18818308
1	0x3db984e6	0.090585515
2	0x3eb51035	0.35363927
