MODELS/parameters_Rellisur.pth (torch, 135851 bytes, 100 tensors)

Color_Space_Linearization.enhance_feature.0.weight f4 [3, 3, 5, 5]
0.7357979 0.55085313 0.2117361 0.12506147 0.29070514 0.68706834 0.2872885 0.029883211
-0.040990803 0.2608288 0.39366117 0.023532728 -0.16205254 -0.19984834 -0.021576623 0.15232699
-0.11543479 -0.29414767 -0.5319415 -0.27553368 0.2677291 0.012443366 -0.41809353 -0.70791376
-0.18541543 0.7576104 0.5590333 0.13791376 -0.0471957 0.2329657 0.58661944 0.27062637
-0.07648292 -0.124227576 0.088352755 0.05722337 -0.1655543 -0.5323574 -0.64135206 -0.47078362
-0.2928045 -0.3840514 -0.7143592 -1.0690137 -1.0697569 -0.049386576 -0.23203507 -0.8648666
-1.4432644 -1.4375278 0.60726017 0.48255107 0.16795431 0.056194164 0.26226398 0.58248913
0.3012149 0.00848063 0.040810134 0.3156631 0.4167843 0.1534368 -0.08416594 -0.121789545
0.11606746 0.12575144 0.016085625 -0.1567689 -0.5017783 -0.2005914 0.49368224 0.41685414
0.019345485 -0.32007045 0.15670392 -0.107040584 -0.1260129 0.104599215 0.2579054 0.2578483
-0.45765013 -0.44652304 -0.24163851 -0.09201315 0.11842289 -0.6370648 -0.71586144 -0.67204726
-0.3724635 -0.04302295 -0.55617934 -0.70128495 -0.6600712 -0.27325737 0.04940758 -0.19841287
-0.41780347 -0.32179922 0.03722954 0.2724928 0.21553938 0.30937952 0.5229021 0.55847615
0.51274145 0.29680067 0.286899 0.5367782 0.61332774 0.6017575 0.2216098 0.22725448
0.4229139 0.52577937 0.53988695 0.11360646 0.061083086 0.17214242 0.36573324 0.44122836
0.06520311 -0.076515906 0.116583735 0.2502592 0.3649505 0.061182283 0.13059525 0.3259029
0.3935347 0.14483938 0.29860082 0.50051045 0.6862083 0.6481629 0.5545789 0.45049527
0.56783026 0.639937 0.68202704 0.6368196 0.4024965 0.4196871 0.49522427 0.5110342
0.48969376 0.36717886 0.25923645 0.20377019 0.31874585 0.20801058 -0.18221825 -0.30174312
-0.35228035 -0.31246677 -0.43533194 -0.39786413 -0.5844041 -0.62180156 -0.4877907 -0.5107506
-0.6140283 -0.96174073 -0.97090036 -0.6982543 -0.67861825 -0.6617034 -1.009415 -1.0255193
-0.732623 -0.5857277 -0.5060394 -0.7425892 -0.76589495 -0.64267373 -0.58664423 -0.6818762
-0.48407266 -0.48802 -0.47763383 -0.59083194 -0.517475 -0.3456291 -0.2275962 -0.19129355
-0.27979842 -0.44008252 -0.31438178 -0.18128529 -0.056982577 -0.14566828 -0.47543764 -0.24979417
-0.12730485 0.043860406 0.08241984 -0.4443829 -0.28659955 -0.11483468 -0.01662333 -0.022551373
0.1217267 0.20063059 0.19821012 0.08046741 -0.14762214 0.2704862 0.3231077 0.3168719
0.2826463 0.06725533 0.26252812 0.30477527 0.32797605 0.38537934 0.22002107 0.17378847
0.18438026 0.25223547 0.35330513 0.25675577 -0.024289237 -0.0017033631 0.08886462 0.14868344
0.06311635
00000000: 405d 3c3f b604 0d3f 59d1 583e 1d10 003e
00000010: 4ed7 943e b6e3 2f3f 7a17 933e a3cd f43c
00000020: f9e5 27bd 5a8b 853e f58d c93e b5c7 c03c
00000030: 1af1 25be 0ba5 4cbe 75c1 b0bc 9bfb 1b3e
00000040: 1369 ecbd 869a 96be 512d 08bf c012 8dbe
00000050: ca13 893e 43df 4b3c 5b10 d6be d639 35bf
00000060: 8bdd 3dbe c1f2 413f ce1c 0f3f 4439 0d3e
00000070: 4750 41bd 8f8e 6e3e b12c 163f 8a8f 8a3e
00000080: 14a3 9cbd 076b febd 4af2 b43d 0d63 6a3d
00000090: 1187 29be 9348 08bf a62f 24bf 8d0a f1be
000000a0: 79ea 95be 63a2 c4be 3fe0 36bf 71d5 88bf
000000b0: cbed 88bf 9449 4abd 9a9a 6dbe e667 5dbf
000000c0: e3bc b8bf e900 b8bf 6775 1b3f ef10 f73e
000000d0: 37fc 2b3e da2b 663d 7747 863e 021e 153f
000000e0: d738 9a3e 57f2 0a3c 8728 273d 989e a13e
000000f0: c064 d53e 891e 1d3e 315f acbd cc6c f9bd
00000100: c7b4 ed3d fcc4 003e 00c6 833c 0788 20be
00000110: 8b74 00bf d567 4dbe ebc3 fc3e e86d d53e
00000120: 6c7a 9e3c 46e0 a3be fe76 203e 1838 dbbd
00000130: 8709 01be 1d38 d63d 2d0c 843e b104 843e
00000140: 1e51 eabe ab9e e4be 1670 77be 6471 bcbd
00000150: b387 f23d ae16 23bf b242 37bf 4a0b 2cbf
00000160: 89b3 bebe d538 30bd c561 0ebf 6987 33bf
00000170: 6dfa 28bf 64e8 8bbe 9a5f 4a3d be2c 4bbe
00000180: 56ea d5be dec2 a4be 017e 183d 2d84 8b3e
00000190: 5bb6 5c3e fe66 9e3e e9dc 053f 4bf8 0e3f
000001a0: 0643 033f 42f6 973e 6de4 923e 4c6a 093f
000001b0: 0c03 1d3f c80c 1a3f aeed 623e 66b5 683e
000001c0: 2c88 d83e 7a99 063f 0836 0a3f 81aa e83d
000001d0: 4232 7a3d 1a46 303e 6341 bb3e afe8 e13e
000001e0: 3589 853d 5fb4 9cbd 74c3 ee3d f921 803e
000001f0: cbda ba3e 469a 7a3d c3ba 053e bfdc a63e
00000200: 617d c93e c650 143e 35e2 983e 7421 003f
00000210: 59ab 2f3f 01ee 253f e2f8 0d3f 51a7 e63e
00000220: 535d 113f e9d2 233f 5399 2e3f 9c06 233f
00000230: 0514 ce3e 3ae1 d63e 098e fd3e 23d3 023f
00000240: 24b9 fa3e defe bb3e a4ba 843e 22a9 503e
00000250: a832 a33e ba00 553e 6c97 3abe 137e 9abe
00000260: 175e b4be a5fb 9fbe d4e3 debe d9b4 cbbe
00000270: 829b 15bf 632e 1fbf b4bf f9be 8dc0 02bf
00000280: f530 1dbf a434 76bf ed8c 78bf cbc0 32bf
00000290: edb9 2dbf 6565 29bf 8334 81bf 3744 83bf
000002a0: 2e8d 3bbf 40f2 15bf cc8b 01bf 531a 3ebf
000002b0: b111 44bf 4486 24bf 512e 16bf 708f 2ebf
000002c0: 5fd8 f7be c2dd f9be 6c8c f4be c340 17bf
000002d0: 3e79 04bf 4cf6 b0be fa0e 69be 75e2 43be
000002e0: bd41 8fbe 7f52 e1be a6f6 a0be daa2 39be
000002f0: 9066 69bd 112a 15be 906c f3be 0bca 7fbe
00000300: 345c 02be f8a6 333d bccb a83d 2886 e3be
00000310: 2dbd 92be 722e ebbd a62d 88bc a8bd b8bc
00000320: d94b f93d 1b72 4d3e 98f7 4a3e 19cc a43d
00000330: 422a 17be 2b7d 8a3e 5f6e a53e 093d a23e
00000340: 04b7 903e 2abd 893d 166a 863e 810b 9c3e
00000350: 7aec a73e 7150 c53e 344d 613e 9bf5 313e
00000360: 2ece 3c3e 0225 813e 69e4 b43e 7e75 833e
00000370: 39fa c6bc 6243 dfba a7fe b53d 7940 183e
00000380: 2543 813d

Color_Space_Linearization.enhance_feature.0.bias f4 [3]
0.020332068 -0.096037 0.10117683
00000000: 708f a63c 0caf c4bd cc35 cf3d

Color_Space_Linearization.enhance_feature.1.weight f4 [16, 3, 3, 3]
0.38689408 0.6750718 0.17438786 0.042464 0.3780991 -0.086650215 -0.10498594 0.41885713
-0.04608006 0.3140014 0.39804408 0.38285854 0.58995736 0.59834397 0.58281064 0.6032914
0.58938694 0.58754754 0.35144675 0.5393093 0.65139645 0.30669263 0.51699376 0.6440817
0.071903534 0.27093378 0.39461738 -0.9749479 -0.5661826 -0.21926907 -0.6160714 -0.33595705
-0.11610669 -0.21576269 0.094027355 0.09963105 0.2935399 0.064231 -0.1452257 0.3421754
0.19052304 -0.019458534 0.37800065 0.2290893 0.12191313 -0.10908328 0.029333496 0.27221623
0.028416663 0.117649384 0.35889116 0.10969 0.12971355 0.361788 0.16695467 0.08306155
-0.7774469 -0.26814294 -0.23901355 -1.0705214 -0.96335375 -0.77472 -1.456408 -0.18069655
-0.065818645 0.14326265 -0.20383458 -0.04533535 0.07181813 -0.17308936 -0.06513029 0.010645428
0.027015507 0.064866275 -0.009127261 -0.016115414 0.095223896 0.11554681 -0.039042965 0.032354116
0.12251254 0.82324606 0.86537355 0.8999514 0.99506706 1.0094702 0.8849079 1.0500968
0.60857373 0.5241292 -0.54826576 -0.08003881 0.24917345 -0.51304346 -0.08287155 0.19812186
-0.7432367 -0.3701104 -0.1029504 1.0081685 0.6046706 0.12559254 0.9221308 0.5430626
0.10268562 0.6317554 0.4329569 -0.02715932 -0.7179648 -0.31540728 0.14796981 -0.37061244
-0.11252912 0.32733524 -0.180019 -0.013588495 0.34576878 -0.2811253 -0.2618056 -0.480186
-0.1337025 -0.10317995 -0.24834304 -0.19382784 -0.07196806 -0.14614715 1.0622318 0.7960519
0.9233933 0.8605622 0.56759226 0.6268391 0.9230612 0.54390764 0.5327822 -0.16398612
-0.1975062 0.40984765 -0.17176415 -0.3116075 0.40224466 0.010548266 -0.2798227 0.34086636
-0.6476277 -0.4722332 -0.3671663 -0.7124383 -0.57698613 -0.45706284 -0.62279034 -0.468505
-0.21854696 0.6730471 0.20751278 0.08515237 0.6649374 0.12839137 -0.03911567 0.94833004
0.42564905 0.20705722 -1.0384653 -0.8248457 -0.11906089 -0.51310134 -0.41007003 0.42631948
0.4315047 0.5397157 1.1671244 0.022064684 -0.25741822 -0.58295375 0.18842779 -0.05933678
-0.33386898 0.23313168 0.035212576 -0.16729899 -0.147281 0.021219116 0.24434978 -0.06554062
0.028795835 0.24550155 0.0105502475 0.031160748 0.17428452 0.7883775 0.82991064 -0.3919785
0.10271075 0.27067453 -0.9015381 -0.7781383 -0.5597399 -1.3902501 -0.29100356 -0.116354726
0.08724285 -0.19793054 -0.07715174 0.100042365 -0.023586355 -0.04090769 0.04531854 -0.016115947
0.14434618 0.15826477 -0.0954361 0.126623 0.25990027 -0.24571745 0.010656623 0.22390902
-0.26032788 -0.53715205 0.064979196 -0.105874486 -0.34610674 0.2785343 0.15374249 -0.1459178
0.386847 -0.8043578 -0.698402 -0.5581802 -0.8325454 -0.780704 -0.62014186 -0.65191334
-0.5396788 -0.40445524 0.15653476 -0.025693068 -0.12725447 0.19314417 -0.01538765 -0.13558203
0.23924847 0.052737527 -0.06563598 -0.85125256 -0.3909574 -0.28102762 -0.7523546 -0.37924626
-0.4070443 -0.6997029 -0.42177632 -0.47621354 0.1056569 -0.012243349 -0.31560656 0.34140614
00000000: fb16 c63e 81d1 2c3f bb92 323e bbee 2d3d
00000010: 3596 c13e ab75 b1bd de02 d7bd 7174 d63e
00000020: 72be 3cbd cbc4 a03e 6fcc cb3e 0906 c43e
00000030: 7207 173f 122d 193f 1433 153f 4e71 1a3f
00000040: 10e2 163f 8469 163f d4f0 b33e 2d10 0a3f
00000050: ebc1 263f d106 9d3e b459 043f 8ae2 243f
00000060: 2942 933d d5b7 8a3e 4a0b ca3e 3096 79bf
00000070: 58f1 10bf 1288 60be dbb6 1dbf 9002 acbe
00000080: 58c9 edbd e5f0 5cbe 6a91 c03d 5d0b cc3d
00000090: dd4a 963e 8b8b 833d 0cb6 14be 9d31 af3e
000000a0: 7918 433e 8167 9fbc 4d89 c13e 6396 6a3e
000000b0: 97ad f93d 0e67 dfbd cd4c f03c ed5f 8b3e
000000c0: 10ca e83c 29f2 f03d 95c0 b73e 27a5 e03d
000000d0: a1d3 043e 473c b93e 2af6 2a3e 2d1c aa3d
000000e0: c306 47bf 084a 89be f8bf 74be d806 89bf
000000f0: 5a9e 76bf 0d54 46bf 946b babf 8408 39be
00000100: edcb 86bd 72b3 123e 03ba 50be 8fb1 39bd
00000110: 6215 933d 563e 31be 0863 85bd 296a 2e3c
00000120: a04f dd3c 9cd8 843d 828a 15bc 7904 84bc
00000130: bf04 c33d cea3 ec3d 84eb 1fbd c085 043d
00000140: dbe7 fa3d 41c0 523f 1f89 5d3f 3763 663f
00000150: b7bc 7e3f 5236 813f 5389 623f 9269 863f
00000160: 7dcb 1b3f 552d 063f 255b 0cbf 63eb a3bd
00000170: 5327 7f3e d156 03bf 8fb8 a9bd 75e0 4a3e
00000180: c344 3ebf 1c7f bdbe a9d7 d2bd aa0b 813f
00000190: b1cb 1a3f 559b 003e c410 6c3f 2706 0b3f
000001a0: d74c d23d b9ba 213f 87ac dd3e 397d debc
000001b0: 8bcc 37bf 107d a1be 6685 173e eac0 bdbe
000001c0: ab75 e6bd 7c98 a73e e756 38be 47a2 5ebc
000001d0: 9b08 b13e a8ef 8fbe 620b 86be f0da f5be
000001e0: 4fe9 08be 0250 d3bd a34d 7ebe ce7a 46be
000001f0: fe63 93bd 99a7 15be 36f7 873f 0fca 4b3f
00000200: 8163 6c3f ce4d 5c3f ba4d 113f 8778 203f
00000210: bd4d 6c3f 883d 0b3f 6a64 083f faeb 27be
00000220: 113f 4abe 8dd7 d13e f1e2 2fbe 058b 9fbe
00000230: 03f3 cd3e a2d2 2c3c ec44 8fbe 0986 ae3e
00000240: eeca 25bf 8dc8 f1be 39fd bbbe 5b62 36bf
00000250: 5db5 13bf 2404 eabe 306f 1fbf e3df efbe
00000260: c6ca 5fbe d14c 2c3f 3b7e 543e 5e64 ae3d
00000270: 5639 2a3f 0779 033e c137 20bd c2c5 723f
00000280: acee d93e cf06 543e 6eec 84bf 1629 53bf
00000290: 32d6 f3bd 9c5a 03bf b3f4 d1be 8c46 da3e
000002a0: 2fee dc3e cf2a 0a3f 5564 953f ffc0 b43c
000002b0: 52cc 83be 753c 15bf 37f3 403e 200b 73bd
000002c0: e0f0 aabe 12ba 6e3e 103b 103d 6d50 2bbe
000002d0: d5d0 16be b6d3 ad3c d436 7a3e 293a 86bd
000002e0: 3ee5 eb3c c264 7b3e f2da 2c3c d344 ff3c
000002f0: a477 323e 1cd3 493f 0675 543f 68b1 c8be
00000300: 045a d23d da95 8a3e 33cb 66bf 1234 47bf
00000310: 1d4b 0fbf b7f3 b1bf 6bfe 94be 634b eebd
00000320: 61ac b23d 4eae 4abe bb01 9ebd 03e3 cc3d
00000330: 2c38 c1bc d28e 27bd ef9f 393d 9705 84bc
00000340: 7ccf 133e 2910 223e 0174 c3bd 76a9 013e
00000350: a611 853e 5b9d 7bbe 1e99 2e3c 6848 653e
00000360: b249 85be cc82 09bf d013 853d b9d4 d8bd
00000370: e734 b1be 0c9c 8e3e ac6e 1d3e 7a6b 15be
00000380: cf10 c63e 65ea 4dbf 79ca 32bf e6e4 0ebf
00000390: b221 55bf 38dc 47bf 9ec1 1ebf cbe3 26bf
000003a0: 6428 0abf c214 cfbe a64a 203e 457a d2bc
000003b0: ff4e 02be 96c7 453e 7b1c 7cbc 04d6 0abe
000003c0: 8dfd 743e 4e03 583d 286c 86bd b0eb 59bf
000003d0: 912b c8be dae2 8fbe 509a 40bf 912c c2be
000003e0: 1c68 d0be bb1f 33bf 11f3 d7be 43d2 f3be
000003f0: a562 d83d 5498 48bc 2f97 a1be c9cc ae3e

Color_Space_Linearization.enhance_feature.1.bias f4 [16]
0.050162524 0.04599878 -0.035161477 -0.0443068 0.035006154 0.19051822 0.057337034 0.02652128
-0.030442875 0.041827243 0.037335705 -0.070326075 0.1269088 -0.18017907 0.12134861 0.21528697
00000000: 3877 4d3d 3769 3c3d 7b05 10bd 0c7b 35bd
00000010: 9d62 0f3d 3517 433e 3dda 6a3d 2843 d93c
00000020: 5663 f9bc 0b53 2b3d 53ed 183d 1e07 90bd
00000030: 61f4 013e dd80 38be 9f85 f83d 3074 5c3e

Color_Space_Linearization.enhance_feature.3.weight f4 [64, 16, 1, 1]
0.1650739 -0.4728201 0.2104163 0.46040192 -0.10613739 -0.3548245 -0.6511818 0.57243145
-0.16207686 0.04172139 -0.3535256 -0.24624199 0.646525 -0.06180039 0.89146376 -0.12010337
0.29429758 -0.30927378 0.14591086 -0.030159881 0.05402319 -0.37257648 -0.04130304 0.5930065
-0.44087476 0.46163577 0.13633443 0.39660823 -0.0089601865 -0.0358048 0.3490692 -0.31749845
0.2804935 0.36472723 0.2835459 -0.15662833 0.31233752 -0.09759655 0.3453326 0.18359447
-0.25170997 0.6175331 0.11315689 0.2430831 -0.24109337 0.27866608 -0.1343354 -0.21993934
-0.17548093 -0.41091076 0.08833689 0.72403115 0.51293254 0.23271914 -0.17263702 0.012890388
0.061537754 0.26244676 0.23197512 -0.27368522 0.16702017 0.13855775 0.1658931 -0.16224608
0.36104906 0.08344824 -0.42450002 0.1297096 0.21803404 0.33147594 0.60064346 -0.6969597
0.47901717 -0.29982004 0.2957964 0.026913173 -0.2974862 0.118959025 -0.58362794 0.03448593
0.5382442 0.2709099 -0.107527375 -0.1405842 0.31582096 0.12836425 0.7567169 -0.2582728
-0.06608418 0.4570632 0.3603262 0.3503159 -0.71606535 0.14781275 -0.5476986 -0.025811689
-0.074226335 0.34602475 0.13408709 0.09511256 0.2406126 0.13391198 0.08197133 0.27772725
0.20534854 -0.09773927 0.7264711 -0.03096726 0.0028184343 0.50843817 -0.13258398 -0.7290509
0.07134856 0.40795964 -0.475143 -0.3679645 -0.2566376 0.06882056 0.7104387 -0.31687427
0.28380358 -0.32312512 0.70023715 -0.10399706 0.3175958 0.019014467 -0.2739945 0.12706743
-0.08894046 -0.5347524 -0.18753994 0.5374816 0.05552341 0.07351067 -0.31345287 0.296227
-0.025767626 -0.35560295 0.32587883 -0.29160622 0.60834825 0.15900463 0.69299304 -0.14245003
0.13632661 0.00037804546 0.20627922 -0.18352567 0.3274412 0.030372968 0.16639219 -0.032962684
-0.08478889 0.51694447 -0.21496172 0.42304218 -0.7326716 0.018832833 -0.44590637 -0.18464953
0.015031786 0.11665757 0.16488285 -0.14614893 -0.27558476 -0.42350316 -0.32650563 0.48002824
0.14182968 -0.35054317 -0.11176565 -0.012557074 -0.04038384 -0.1358543 -0.14821188 -0.31671193
-0.51970845 -0.22365366 -0.29358077 0.045080643 -0.099309236 0.22963959 -0.050414197 -0.08275621
0.11532984 -0.19093716 0.18653144 -0.08610187 0.4402683 -0.3105587 0.51246184 0.18053468
0.16920859 -0.18070364 -0.19572602 0.33274558 0.4576089 0.00424368 0.1638815 -0.4497929
-0.1325623 0.40602535 0.27055952 0.04615846 -0.2932458 0.046126146 -0.32946286 0.022467345
0.13109347 0.066275336 0.12482687 -0.21813063 -0.6780737 -0.3684019 -0.2479011 0.57695645
-0.2066868 -0.4529907 -0.055887774 0.011129784 0.3496785 0.2508611 0.2588361 -0.11390464
-0.21662359 0.0041514584 -0.2725695 0.14173676 0.5212803 0.40556943 0.36984953 -0.612467
0.09730904 0.29114458 0.2734034 -0.24649675 -0.35549623 -0.098918915 -0.33556217 0.118207686
0.665648 -0.07634181 0.18254827 0.21998908 0.021917999 -0.22436316 0.031266723 0.88898903
0.011851286 -0.07618021 0.6057119 0.013107032 0.5345256 0.33808887 0.5296594 -0.4280411
00000000: 2209 293e 7a15 f2be 5f77 573e cdb9 eb3e
00000010: 8f5e d9bd 8fab b5be dab3 26bf de8a 123f
00000020: 7af7 25be 0ce4 2a3d 4f01 b5be dc26 7cbe
00000030: aa82 253f 6822 7dbd f836 643f c1f8 f5bd
00000040: 2cae 963e 2259 9ebe a869 153e db11 f7bc
00000050: 6c47 5d3d 58c2 bebe 602d 29bd 46cf 173f
00000060: 56ba e1be 865b ec3e 419b 0b3e 3c10 cb3e
00000070: bfcd 12bc 0ea8 12bd 33b9 b23e 288f a2be
00000080: d89c 8f3e 87bd ba3e ee2c 913e 2d63 20be
00000090: b4ea 9f3e b3e0 c7bd 6fcf b03e 3000 3c3e
000000a0: 21e0 80be a616 1e3f cdbe e73d c7ea 783e
000000b0: 2ee1 76be 52ad 8e3e 388f 09be c737 61be
000000c0: 46b1 33be e562 d2be f9e9 b43d 1b5a 393f
000000d0: 8c4f 033f ed4d 6e3e c2c7 30be 3532 533c
000000e0: 030f 7c3d 6c5f 863e e38a 6d3e 7820 8cbe
000000f0: 5607 2b3e 15e2 0d3e e1df 293e d623 26be
00000100: 6cdb b83e e9e6 aa3d 1158 d9be 98d2 043e
00000110: 5144 5f3e 37b7 a93e c5c3 193f f36b 32bf
00000120: bd41 f53e 0382 99be a072 973e 0479 dc3c
00000130: 1c50 98be caa0 f33d a468 15bf 1e41 0d3d
00000140: 5fca 093f b4b4 8a3e 5037 dcbd 4ef5 0fbe
00000150: 49b3 a13e eb71 033e 33b8 413f 553c 84be
00000160: 2457 87bd 3004 ea3e ad7c b83e 9b5c b33e
00000170: 0f50 37bf 3a5c 173e fa35 0cbf 0973 d3bc
00000180: fa03 98bd 282a b13e 204e 093e 60ca c23d
00000190: 2663 763e 3920 093e 96e0 a73d 4432 8e3e
000001a0: e346 523e 872b c8bd 03fa 393f 0daf fdbc
000001b0: 7bb5 383b 0129 023f 18c4 07be 14a3 3abf
000001c0: 321f 923d 16e0 d03e f145 f3be d865 bcbe
000001d0: 0166 83be cbf1 8c3d 50df 353f 583d a2be
000001e0: b44e 913e a870 a5be be42 333f 69fc d4bd
000001f0: eb9b a23e 3ac4 9b3c 0249 8cbe f71d 023e
00000200: 6a26 b6bd 89e5 08bf 780a 40be 6598 093f
00000210: 846c 633d c38c 963d e57c a0be 11ab 973e
00000220: a116 d3bc 9711 b6be 97d9 a63e 694d 95be
00000230: b6bc 1b3f 1cd2 223e fe67 313f 6cde 11be
00000240: 3499 0b3e 6734 c639 dc3a 533e 27ee 3bbe
00000250: 5fa6 a73e bbd0 f83c b762 2a3e e103 07bd
00000260: cca5 adbd 7956 043f ed1e 5cbe fc98 d83e
00000270: 5e90 3bbf 5047 9a3c d74d e4be c414 3dbe
00000280: e147 763c 2aea ee3d 0dd7 283e 11a8 15be
00000290: 7219 8dbe 68d5 d8be bf2b a7be 43c6 f53e
000002a0: cd3b 113e 657a b3be 64e5 e4bd 30bc 4dbc
000002b0: 8769 25bd 641d 0bbe dbc4 17be 1128 a2be
000002c0: 9d0b 05bf 7705 65be 3850 96be 7ba6 383d
000002d0: a462 cbbd a426 6b3e 1e7f 4ebd 167c a9bd
000002e0: 0d32 ec3d 0885 43be 1902 3f3e 2d56 b0bd
000002f0: d96a e13e 8d01 9fbe b330 033f 15de 383e
00000300: 0445 2d3e 600a 39be 676c 48be a15d aa3e
00000310: b74b ea3e 910e 8b3b 8dd0 273e 414b e6be
00000320: 69be 07be 8ee2 cf3e c786 8a3e a710 3d3d
00000330: 5024 96be c5ee 3c3d 5baf a8be 700d b83c
00000340: 5e3d 063e 5dbb 873d 3ba5 ff3d a35d 5fbe
00000350: 3d96 2dbf 2d9f bcbe c9d9 7dbe 6bb3 133f
00000360: b4a5 53be 66ee e7be 94ea 64bd b359 363c
00000370: 0f09 b33e de70 803e 2a86 843e d646 e9bd
00000380: 93d2 5dbe f508 883b 3b8e 8bbe 7123 113e
00000390: a072 053f cca6 cf3e eb5c bd3e a3ca 1cbf
000003a0: f649 c73d e710 953e 88fb 8b3e a569 7cbe
000003b0: 9a03 b6be 0096 cabd cece abbe df16 f23d
000003c0: e867 2a3f 1859 9cbd efed 3a3e d144 613e
000003d0: 608d b33c 75bf 65be 8911 003d c994 633f
000003e0: e52b 423c 5f04 9cbd ef0f 1b3f e0be 563c
000003f0: abd6 083f fc19 ad3e c297 073f 3428 dbbe

Color_Space_Linearization.enhance_feature.3.bias f4 [64]
-0.1396127 0.028952511 0.021379191 -0.09369008 -0.10637018 -0.04774111 -0.130166 0.09161964
-0.02526723 -0.05323467 -0.26113617 0.2538203 -0.21074295 0.01890653 -0.038120102 -0.122074045
-0.07595895 -0.069359146 0.03785818 0.045572735 -0.19780551 0.09147284 -0.10180903 -0.117391735
-0.03988774 -0.058296826 -0.36644188 -0.101125374 0.23321688 0.18745221 0.13570173 0.022236196
-0.029452547 0.116967276 0.11093478 -0.14839557 -0.20761009 -0.032515932 -0.25439548 0.16309866
0.08573986 -0.23356083 0.11892695 -0.06189806 -0.09887201 -0.13397105 0.030931825 -0.0377314
-0.077663176 0.021058276 -0.23611741 -0.06777028 0.057300963 0.08423135 0.18151769 -0.1426227
0.18470597 0.07459305 0.0854661 -0.11366406 0.1780859 0.047310557 0.021709925 0.12267082
00000000: a2f6 0ebe d12d ed3c 6a23 af3c 96e0 bfbd
00000010: 9cd8 d9bd 2f8c 43bd 3c4a 05be 14a3 bb3d
00000020: 39fd cebc 990c 5abd a4b3 85be bcf4 813e
00000030: 00cd 57be dee1 9a3c d323 1cbd f501 fabd
00000040: 5e90 9bbd 2b0c 8ebd 2e11 1b3d 7aaa 3a3d
00000050: 878d 4abe 1d56 bb3d 4181 d0bd 146b f0bd
00000060: 5461 23bd a7c8 6ebd 459e bbbe d21a cfbd
00000070: 68d0 6e3e 79f3 3f3e 65f5 0a3e af28 b63c
00000080: 7846 f1bc 8a8c ef3d c631 e33d 02f5 17be
00000090: bd97 54be 6d2f 05bd 2040 82be 5603 273e
000000a0: 6198 af3d 922a 6fbe f98f f33d d288 7dbd
000000b0: 697d cabd b52f 09be bd64 fd3c 3e8c 1abd
000000c0: df0d 9fbd 6882 ac3c c3c8 71be 25cb 8abd
000000d0: 6ab4 6a3d 7c81 ac3d c6df 393e af0b 12be
000000e0: 9023 3d3e 3ec4 983d da08 af3d b4c8 e8bd
000000f0: 265c 363e b7c8 413d 03d9 b13c d73a fb3d

Color_Space_Linearization.enhance_feature.4.weight f4 [32, 64, 1, 1]
-0.3398679 -0.37395144 -0.674128 -0.27496818 0.48313266 -0.046831965 -0.6923289 0.3405732
-0.30786046 -0.18479401 0.2945984 0.054666124 -0.10303019 -0.120126344 0.0989153 -0.43352717
0.48170134 0.24821803 -0.26536942 -0.1637037 -0.06616717 -0.019547217 0.024474028 0.28674546
-0.1154961 0.09089159 0.19536021 -0.12417274 0.008169898 -0.421813 -0.105133176 -0.14340478
0.4617748 -0.43425533 -0.052926816 0.40012425 0.3095132 -0.20278296 -0.37721956 0.08390358
0.04664143 -0.035377003 -0.75193125 -1.0357987 -0.13983254 -0.1500292 0.6236205 -0.4545812
0.49004942 -0.0028017615 0.16329703 -0.2256159 -0.03670969 0.31733358 -0.7481271 0.8259462
0.0755873 -0.57903594 -0.28449696 0.19369988 -0.53426254 -0.90499467 -0.46092314 -0.2977758
0.9809498 0.17369397 -0.15023145 0.13167049 -0.2845416 -0.27557236 -0.31480637 -0.5310359
0.1792553 0.049700797 0.12004137 -0.047972396 0.07476854 0.02012522 -0.110431574 0.07873245
-0.2584184 -0.114298955 0.2218232 -0.4879008 0.2662416 0.013469065 0.48457897 -0.14205939
0.22660324 -0.11247097 0.09343609 0.06946909 0.00685891 0.18970495 -0.08334962 0.45334023
-0.19107506 0.0660683 -0.15744904 0.0147163635 -0.17202054 0.35966513 0.49304324 -0.10614228
-0.22002918 0.19753948 -0.17183924 0.10232556 0.9599749 0.10455339 0.009917435 0.21356331
0.24691072 -0.22771256 0.08348615 -0.07488113 0.08571198 -0.2746445 0.12828259 -0.18383951
0.1750146 0.53655046 0.19096231 0.6109804 0.28234273 0.12911755 0.21963917 -0.13271098
0.5035431 -0.15182988 -0.21673124 0.7570922 0.2720234 -0.19658525 0.13968743 -0.82619894
0.3253926 0.18784358 0.008336664 -0.12251024 0.4684021 -0.4897636 0.45231247 -0.045285486
-0.38253146 0.031465437 0.015240575 -0.30775473 1.5007372 -0.67802906 0.24051005 -0.19516343
0.39565837 -0.20050968 0.36576936 -0.059489977 -0.39430273 -0.16782263 0.2583826 0.1127416
-0.37990782 -0.32351607 -0.8072149 0.3050876 0.019744202 0.72871685 0.78920406 -0.28622943
-0.7595428 0.13330992 -0.9773455 0.21362409 0.60010046 0.42327604 0.1272121 0.2727287
0.1988366 0.098727986 -0.03149884 -0.18180351 -0.21858239 -0.81774426 -0.045689836 0.2893568
0.068056874 0.220118 0.06995771 0.42741302 0.024812724 -0.22836299 0.63106745 -0.23357657
0.4202634 0.2342377 0.24471822 0.71553165 -0.19546054 0.043121744 0.077725105 -0.7718406
0.28156975 0.18979011 -0.08341465 -0.14218315 0.6820359 -0.43733257 0.33094573 0.12461286
-0.4407028 0.15586452 0.41062823 -0.101566635 0.29655477 -0.45187604 0.32151487 0.03339454
0.85309607 -0.21463321 0.17821428 0.11035093 0.01881462 -0.112721376 0.12760726 0.041837785
-0.31796202 0.16007599 -0.56337583 -0.16850168 0.12976612 0.16833955 0.57151943 0.005902753
-0.2781261 0.1908057 -0.066373274 0.22723536 0.42709166 0.11581004 -0.4334537 -0.033239096
-0.07381692 -0.1991 -0.04335063 -0.26857838 0.056068692 -0.46304992 0.027850965 -0.2896764
0.105016895 0.27720135 -0.24910484 -0.085820094 -0.10126354 0.1452355 0.15007593 -0.48947585
00000000: 2a03 aebe 9076 bfbe a793 2cbf a1c8 8cbe
00000010: 2a5d f73e e0d2 3fbd 773c 31bf 9c5f ae3e
00000020: e39f 9dbe a43a 3dbe 9ad5 963e 96e9 5f3d
00000030: 7e01 d3bd cd04 f6bd 1b94 ca3d 46f7 ddbe
00000040: 8fa1 f63e de2c 7e3e 80de 87be f1a1 27be
00000050: a782 87bd 7c21 a0bc c27d c83c 4dd0 923e
00000060: 3889 ecbd 5f25 ba3d 820c 483e 474e febd
00000070: 09db 053c e0f7 d7be 1050 d7bd b4d8 12be
00000080: bf6d ec3e b756 debe cac9 58bd 16dd cc3e
00000090: 8478 9e3e 56a6 4fbe ec22 c1be a4d5 ab3d
000000a0: 160b 3f3d 7ae7 10bd 917e 40bf 0d95 84bf
000000b0: 4330 0fbe 41a1 19be 98a5 1f3f debe e8be
000000c0: c2e7 fa3e c29d 37bb 5637 273e db07 67be
000000d0: e65c 16bd 8c79 a23e 4285 3fbf 3671 533f
000000e0: 84cd 9a3d b33b 14bf 96a9 91be 4359 463e
000000f0: 6ec5 08bf bbad 67bf 1efe ebbe 1276 98be
00000100: 871f 7b3f d5dc 313e 46d6 19be a1d4 063e
00000110: 70af 91be d217 8dbe 4d2e a1be f8f1 07bf
00000120: b48e 373e 1093 4b3d 40d8 f53d b47e 44bd
00000130: 4020 993d a5dd a43c f329 e2bd 7b3e a13d
00000140: 6b4f 84be 9215 eabd 9f25 633e 22ce f9be
00000150: d250 883e 5aad 5c3c bc1a f83e 0478 11be
00000160: ae0a 683e 2e57 e6bd 6c5b bf3d cf45 8e3d
00000170: b5c0 e03b 0442 423e 35b3 aabd 361c e83e
00000180: 2ea9 43be d14e 873d 523a 21be e71c 713c
00000190: 2726 30be 0726 b83e 2a70 fc3e 2061 d9bd
000001a0: 544f 61be ca47 4a3e a0f6 2fbe 1090 d13d
000001b0: eac0 753f 1620 d63d bd7c 223c 57b0 5a3e
000001c0: 2ad6 7c3e 7b2d 69be c9fa aa3d 475b 99bd
000001d0: c389 af3d 349e 8cbe 835c 033e 6d40 3cbe
000001e0: 0737 333e 5f5b 093f a08b 433e 3669 1c3f
000001f0: 3a8f 903e 6437 043e 17e9 603e 63e5 07be
00000200: 33e8 003f 4b79 1bbe cbee 5dbe cbd0 413f
00000210: a746 8b3e a54d 49be 390a 0f3e c681 53bf
00000220: dc99 a63e 115a 403e 8196 083c a6e6 fabd
00000230: 66d2 ef3e 4bc2 fabe 8095 e73e 467d 39bd
00000240: 2adb c3be e7e1 003d 9bb3 793c 0792 9dbe
00000250: 2818 c03f 5093 2dbf 4448 763e ecd8 47be
00000260: bc93 ca3e 6952 4dbe 1f46 bb3e c3ab 73bd
00000270: 0ce2 c9be b2d9 2bbe b94a 843e 11e5 e63d
00000280: 4783 c2be e6a3 a5be a3a5 4ebf 7134 9c3e
00000290: 98be a13c 308d 3a3f 4709 4a3f aa8c 92be
000002a0: 6671 42bf 6582 083e 5133 7abf 46c0 5a3e
000002b0: 2fa0 193f a3b7 d83e e443 023e 19a3 8b3e
000002c0: d29b 4b3e e631 ca3d ed04 01bd b32a 3abe
000002d0: 10d4 5fbe b057 51bf 4425 3bbd 9326 943e
000002e0: 6761 8b3d 9d66 613e fd45 8f3d e1d5 da3e
000002f0: 0e44 cb3c fdd7 69be a38d 213f b22e 6fbe
00000300: c42c d73e 02dc 6f3e 6a97 7a3e 152d 373f
00000310: cf26 48be 6da0 303d 572e 9f3d 5897 45bf
00000320: e929 903e 5758 423e 4dd5 aabd 7698 11be
00000330: e899 2e3f 0eea dfbe b871 a93e 0735 ff3d
00000340: cca3 e1be f39a 1f3e dd3d d23e 2b02 d0bd
00000350: 07d6 973e 4c5c e7be 999d a43e b7c8 083d
00000360: 8164 5a3f cfc8 5bbe ce7d 363e abff e13d
00000370: 1e21 9a3c 77da e6bd 7aab 023e 195e 2b3d
00000380: ebcb a2be f6ea 233e 6639 10bf b48b 2cbe
00000390: 69e1 043e 3461 2c3e 194f 123f e26b c13b
000003a0: 8b66 8ebe 9262 433e b6ee 87bd 63b0 683e
000003b0: c2ab da3e d02d ed3d a5ed ddbe b825 08bd
000003c0: 532d 97bd dfe0 4bbe 6e90 31bd 1b83 89be
000003d0: 49a8 653d e114 edbe b527 e43c 7750 94be
000003e0: 1913 d73d 56ed 8d3e 5715 7fbe 72c2 afbd
000003f0: 4263 cfbd 9db8 143e 81ad 193e 949c fabe

Color_Space_Linearization.enhance_feature.4.bias f4 [32]
-0.15860246 -0.13500847 -0.40081534 -0.19665794 0.24255429 -0.0059686983 0.089313634 0.12905605
-0.14991176 -0.11781396 -0.387012 -0.17685615 0.3469598 0.11319279 -0.2316466 -0.13590224
0.1935771 0.13777821 0.28655913 -0.3747054 -0.07096167 -0.35305983 0.09118413 -0.07281296
-0.08163395 0.12415888 -0.26689175 -0.48497754 -0.10616454 0.08851265 -0.1887265 -0.18898961
00000000: af68 22be a93f 0abe ab37 cdbe b360 49be
00000010: 2760 783e 1295 c3bb 11ea b63d 4527 043e
00000020: 7882 19be 7248 f1bd 7026 c6be c719 35be
00000030: b7a4 b13e 9fd1 e73d c434 6dbe f529 0bbe
00000040: 1339 463e bb15 0d3e e1b7 923e 63d9 bfbe
00000050: 5a54 91bd 42c4 b4be bfbe ba3d f61e 95bd
00000060: b32f a7bd 0347 fe3d 09a6 88be fa4e f8be
00000070: cb6c d9bd 1f46 b53d 8541 41be 7e86 41be

Color_Space_Linearization.Color_Feature.0.weight f4 [16, 16, 3, 3]
-0.16802247 0.16961753 0.1894035 -0.13010834 -0.014355398 0.047311433 0.103831 0.1349417
-0.216122 -0.11663875 0.17076488 0.17842881 -0.14565381 0.20856169 0.040797293 0.012827906
0.10267725 -0.0018592697 -0.11825238 -0.066602975 -0.16176169 -0.18351978 -0.040434513 -0.14413626
-0.40336043 -0.19160129 -0.21323954 0.003967731 0.034669045 0.0024618944 -0.13074449 -0.1276866
-0.15895355 -0.112695925 -0.04680716 0.0055860537 -0.07578783 -0.080675624 -0.061686393 -0.18860695
-0.14821467 -0.06799043 -0.29183155 -0.17772262 -0.08847917 -0.089431375 -0.01748927 -0.17459886
-0.25797328 -0.15635845 -0.17794316 -0.23453262 -0.07538869 -0.10514588 -0.1373704 -0.3536792
0.05406591 -0.16464035 -0.43501914 0.04501007 0.12600046 -0.1774063 -0.022704309 -0.088537075
-0.019196188 -0.14865176 -0.08186284 0.031665735 -0.06299234 -0.3265194 -0.085623346 -0.092179686
-0.30958205 -0.24795814 -0.52590406 -0.25878078 -0.21811798 -0.31297633 -0.26935855 -0.12941615
-0.32873088 0.14912692 0.13886108 0.16877466 -0.054458205 0.028392332 0.13013774 -0.17288859
0.028876476 0.22994141 0.19765331 -0.07051045 0.1175061 0.02504278 -0.2603418 -0.063084535
0.09923015 -0.14358471 0.08215407 -0.10272184 -0.22070067 0.10932642 0.14953749 -0.055004794
0.1137753 0.1313016 -0.06002554 -0.06854221 0.099375196 0.15962029 0.28339535 -0.017853409
0.028754396 0.21817206 -0.020829061 -0.002789396 0.16456032 -0.20975506 -0.055592872 0.028532878
-0.11938238 -0.18649918 0.0160542 -0.115375414 -0.28963676 -0.26602614 -0.06760696 -0.027632117
-0.05068905 -0.1141045 -0.06980883 -0.05432564 -0.14450845 -0.07582177 -0.043101314 0.3161111
0.22606309 0.038042877 -0.07977525 -0.14633487 -0.090582795 -0.08568685 -0.0074043227 0.020401858
-0.14763254 0.19519235 -0.051900942 0.13127151 0.55682623 0.27129444 -0.1263804 0.17985372
0.19417368 0.34324887 0.07407583 0.25970376 0.0068541984 -0.19287261 -0.09462126 0.06283438
0.11833202 0.40698448 -0.43716106 -0.30244026 -0.20517159 -0.15357727 -0.026817014 0.033935778
-0.15343317 -0.089313224 -0.02158158 -0.28959435 -0.29184532 -0.07358507 -0.09964898 -0.16686387
0.001876041 0.116008796 0.12023028 0.23221412 0.09390644 0.107463785 -0.04521663 0.11264315
0.121505484 -0.058668487 0.040005445 0.106134586 -0.074309036 -0.10682407 0.08350486 -0.3325365
0.30149925 0.5120672 -0.14828646 -0.18224405 -0.055356666 -0.38384223 -0.07373731 -0.09194756
0.1104819 0.13637422 0.20966807 0.1669841 -0.13394094 -0.17510441 -0.13098904 -0.14320943
-0.002665166 -0.055932794 -0.052516084 0.13891023 0.10092707 -0.036834627 0.13043225 0.07433483
-0.18695998 0.14300579 -0.14713135 0.32765064 0.6923249 0.20151722 -0.13120268 0.08235366
-0.28066128 -0.19990663 -0.08095266 0.2548966 -0.17167836 -0.28206018 -0.22840144 0.30672398
0.15062883 0.04435089 -0.07990617 -0.118227005 0.27967575 0.035904795 -0.012774831 0.255424
-0.12393992 -0.29087457 -0.0733194 0.009811696 0.13001785 0.17856522 0.13819462 0.34973505
-0.031532474 0.029508231 0.058968823 -0.18113753 0.2206187 0.3315624 0.12973163 0.24315646
00000000: 150e 2cbe 38b0 2d3e fef2 413e 1f3b 05be
00000010: e732 6bbc a2c9 413d 59a5 d43d 282e 0a3e
00000020: 164f 5dbe 4ce0 eebd fddc 2e3e 0bb6 363e
00000030: 4626 15be 3291 553e 101b 273d 232c 523c
00000040: 7348 d23d bdb2 f3ba 4e2e f2bd 2467 88bd
00000050: dba4 25be 9cec 3bbe a99e 25bd 7598 13be
00000060: 4285 cebe 2133 44be 775b 5abe bd03 823b
00000070: 2101 0e3d bc57 213b e2e1 05be 47c0 02be
00000080: b8c4 22be 1fcd e6bd ddb8 3fbd 370b b73b
00000090: a636 9bbd 4339 a5bd dfaa 7cbd 2e22 41be
000000a0: 96c5 17be 913e 8bbd f26a 95be ebfc 35be
000000b0: 9134 b5bd cc27 b7bd a845 8fbc 0bca 32be
000000c0: 1315 84be 6e1c 20be bb36 36be 5229 70be
000000d0: 6365 9abd b956 d7bd d3aa 0cbe 7115 b5be
000000e0: 3774 5d3d 7b97 28be d4ba debe 7b5c 383d
000000f0: 4406 013e ffa9 35be 63fe b9bc ed52 b5bd
00000100: 5341 9dbc 2b38 18be b4a7 a7bd eeb3 013d
00000110: 2102 81bd 8d2d a7be 4b5b afbd b4c8 bcbd
00000120: 8a81 9ebe bde8 7dbe a6a1 06bf ea7e 84be
00000130: 525a 5fbe 6f3e a0be 5de9 89be ab85 04be
00000140: 6a4f a8be bab4 183e 9931 0e3e 44d3 2c3e
00000150: 910f 5fbd 0997 e83c d442 053e b509 31be
00000160: 5c8e ec3c c375 6b3e a165 4a3e c867 90bd
00000170: 0aa7 f03d 8426 cd3c 854b 85be 7732 81bd
00000180: 2d39 cb3d df07 13be 6540 a83d d45f d2bd
00000190: 5bff 61be 88e6 df3d 5b20 193e b54c 61bd
000001a0: 0603 e93d ed73 063e 57dd 75bd dc5f 8cbd
000001b0: 3985 cb3d 8073 233e 3219 913e 5041 92bc
000001c0: 578e eb3c 7f68 5f3e b5a1 aabc 4dce 36bb
000001d0: 8082 283e 08ca 56be 5ab5 63bd c8bd e93c
000001e0: c07e f4bd a4f9 3ebe 1984 833c f249 ecbd
000001f0: 454b 94be 9434 88be 8575 8abd c05c e2bc
00000200: 529f 4fbd 9faf e9bd eff7 8ebd 9084 5ebd
00000210: 06fa 13be 7248 9bbd 018b 30bd 50d9 a13e
00000220: 157d 673e d9d2 1b3d 3561 a3bd cfd8 15be
00000230: 7983 b9bd 967c afbd f69f f2bb cc21 a73c
00000240: fc2c 17be 81e0 473e 1596 54bd 0a6c 063e
00000250: 2a8c 0e3f 1be7 8a3e dd69 01be 932b 383e
00000260: 77d5 463e 51be af3e 12b5 973d e4f7 843e
00000270: 2f99 e03b 6680 45be cbc8 c1bd 50af 803d
00000280: 0f58 f23d 4560 d03e 93d3 dfbe 73d9 9abe
00000290: 8018 52be 5c43 1dbe 5baf dbbc 3e00 0b3d
000002a0: 961d 1dbe dae9 b6bd dbcb b0bc b645 94be
000002b0: c06c 95be c5b3 96bd c414 ccbd 5dde 2abe
000002c0: 7de5 f53a 0596 ed3d 4b3b f63d 8ac9 6d3e
000002d0: 0552 c03d f915 dc3d 1335 39bd 74b1 e63d
000002e0: ded7 f83d 5e4e 70bd c0dc 233d 175d d93d
000002f0: 562f 98bd 94c6 dabd 9904 ab3d 3942 aabe
00000300: 1c5e 9a3e d616 033f 68d8 17be 2f9e 3abe
00000310: acbd 62bd f886 c4be 9603 97bd 014f bcbd
00000320: 5644 e23d afa5 0b3e 3ab3 563e e1fd 2a3e
00000330: d027 09be 924e 33be fe21 06be 7ea5 12be
00000340: 11aa 2ebb c919 65bd 1b1b 57bd 7c3e 0e3e
00000350: dab2 ce3d e8df 16bd 0890 053e dc3c 983d
00000360: 7072 3fbe 1c70 123e 9aa9 16be d3c1 a73e
00000370: 343c 313f 885a 4e3e ff59 06be 09a9 a83d
00000380: d6b2 8fbe 53b4 4cbe 82ca a5bd cf81 823e
00000390: 74cc 2fbe 316a 90be 11e2 69be ed0a 9d3e
000003a0: 723e 1a3e 47a9 353d d9a5 a3bd 0021 f2bd
000003b0: a931 8f3e e810 133d 864d 51bc efc6 823e
000003c0: 36d4 fdbd 83ed 94be 7b28 96bd 3cc1 203c
000003d0: 6623 053e cdd9 363e e482 0d3e 7910 b33e
000003e0: 3228 01bd 3fbb f13c 4b89 713d 1e7c 39be
000003f0: dee9 613e 8cc2 a93e 5ed8 043e 02fe 783e

Color_Space_Linearization.Color_Feature.0.bias f4 [16]
0.27546757 -0.09817065 -0.14472389 -0.14418483 0.0014412159 0.2612772 -0.009798628 -0.28303853
-0.14136386 -0.26581073 -0.040755928 0.17152004 0.087079115 -0.02181283 0.32180956 0.056050587
00000000: 160a 8d3e b20d c9bd 8032 14be 30a5 13be
00000010: 2ee7 bc3a 20c6 853e 6d8a 20bc 6dea 90be
00000020: b0c1 10be 5818 88be b0ef 26bd f3a2 2f3e
00000030: 8956 b23d d2b0 b2bc 39c4 a43e 4d95 653d

Color_Space_Linearization.Color_Feature.1.weight f4 [8, 16, 1, 1]
-0.43034574 -0.3507496 0.26989964 0.06363149 -1.0543005 0.042362493 0.0356024 0.09866923
0.05347713 0.2830226 0.20778261 -0.00064543955 -0.01574171 0.45560384 -0.28166866 -0.045167323
-0.017810963 0.07098597 0.38802925 -0.08499877 0.17294422 -0.05106106 0.038664505 -0.07670693
-0.095574476 0.46203038 -0.042374697 0.13325852 0.43607193 0.013991637 -0.31101066 0.41110247
0.12874597 -0.32292104 0.5205332 -0.09119082 -0.20720758 -0.2788265 0.020828368 0.17648311
-0.21714778 -0.078153 0.087220296 -0.22974229 0.479316 0.163164 0.21595864 -0.03164286
0.121737495 -0.19962724 0.052229192 0.04014659 0.09513737 0.31167528 -0.09724648 -0.05396898
-0.20668554 0.12951027 0.26394418 -0.028272761 -0.08177579 -0.16834812 0.14977533 -0.13141905
0.14519621 0.08510679 -0.047893383 -0.16958942 -0.041790787 0.062129557 0.080998234 -0.3046388
-0.15742253 -0.20624427 -0.14625138 0.31702855 0.28310496 0.04073721 0.10386432 0.3086741
0.1195406 0.27427283 0.0028157663 -0.19360694 0.098337084 0.14345533 0.1295676 0.32104278
-0.27253008 -0.112132676 0.14056918 0.10617635 -0.19486704 -0.13642782 0.10532351 -0.06728953
-0.028394839 -0.40273973 -0.124157324 0.19104959 -0.31265223 -0.07457895 -0.13569741 -0.19434467
0.1043923 -0.18565406 0.44851595 0.08768291 -0.08699491 -0.20314279 -0.087869845 0.04892811
0.18890181 -0.03551217 -0.016356347 0.022074062 -0.17602187 0.10960168 -0.09613127 0.3802648
0.46961713 0.006954063 0.08814008 -0.32958844 -0.1183827 0.13940692 -0.45901692 -0.17694601
00000000: 4756 dcbe 7495 b3be 4930 8a3e 3a51 823d
00000010: 52f3 86bf 4b84 2d3d d2d3 113d 1813 ca3d
00000020: d60a 5b3d 57e8 903e f7c4 543e b732 29ba
00000030: c2f4 80bc e844 e93e e036 90be 5f01 39bd
00000040: 4ce8 91bc 1861 913d c5ab c63e d613 aebd
00000050: 4a18 313e 6725 51bd ac5e 1e3d 8618 9dbd
00000060: 8dbc c3bd 3f8f ec3e 1791 2dbd ec74 083e
00000070: d244 df3e 2e3d 653c ca3c 9fbe 067c d23e
00000080: fcd5 033e e855 a5be aa41 053f 41c2 babd
00000090: 392e 54be 59c2 8ebe 41a0 aa3c fdb7 343e
000000a0: fd5b 5ebe ae0e a0bd 8ea0 b23d 9041 6bbe
000000b0: e868 f53e 7714 273e 4324 5d3e f29b 01bd
000000c0: 8251 f93d 156b 4cbe 47ee 553d c070 243d
000000d0: 62d7 c23d e793 9f3e 2a29 c7bd 940e 5dbd
000000e0: 60a5 53be 579e 043e b123 873e 479c e7bc
000000f0: 117a a7bd 7363 2cbe b45e 193e b792 06be
00000100: 51ae 143e 784c ae3d da2b 44bd d9a8 2dbe
00000110: d12c 2bbd 907b 7e3d 67e2 a53d 9ef9 9bbe
00000120: 5f33 21be b331 53be ecc2 15be 9151 a23e
00000130: 22f3 903e 10dc 263d d1b6 d43d 880a 9e3e
00000140: b4d1 f43d 7d6d 8c3e b888 383b e640 46be
00000150: f464 c93d f4e5 123e 5ead 043e b85f a43e
00000160: 1089 8bbe d1a5 e5bd 5ef1 0f3e fc72 d93d
00000170: 3a8b 47be bcb3 0bbe dab3 d73d 18cf 89bd
00000180: 4b9c e8bc e733 cebe 3246 febd 81a2 433e
00000190: f413 a0be d9bc 98bd 43f4 0abe 4a02 47be
000001a0: a1cb d53d 191c 3ebe e2a3 e53e 1993 b33d
000001b0: 632a b2bd aa04 50be 1bf5 b3bd d868 483d
000001c0: 7a6f 413e 3675 11bd bffd 85bc aad4 b43c
000001d0: 143f 34be d876 e03d 79e0 c4bd 11b2 c23e
000001e0: a871 f03e e9de e33b c982 b43d d1bf a8be
000001f0: a172 f2bd b0c0 0e3e 4404 ebbe 5631 35be

Color_Space_Linearization.Color_Feature.1.bias f4 [8]
-0.31688204 -0.19738598 -0.046699543 0.4032341 0.514427 -0.13221113 -0.15026157 0.26073727
00000000: 5d3e a2be 8d1f 4abe 0548 3fbd b374 ce3e
00000010: 7db1 033f 5b62 07be 2bde 19be 5b7f 853e

Color_Space_Linearization.Color_Feature.3.weight f4 [3, 8, 1, 1]
0.45132565 -0.18648663 -0.52916586 -0.13533263 0.14519206 -0.27779654 -0.14307067 -0.54187745
-0.25203514 -0.044933967 -0.7744584 0.18861549 0.2285268 0.04401496 -0.07112016 0.10828854
0.14940533 -0.38342822 0.6671364 -0.028542135 0.02664398 0.15236023 0.24084371 -0.038596805
00000000: 2814 e73e 5af6 3ebe 6a77 07bf a394 0abe
00000010: 3aad 143e 593b 8ebe 1e81 12be 7bb8 0abf
00000020: c00a 81be ae0c 38bd e842 46bf 6b24 413e
00000030: ee02 6a3e 0849 343d 72a7 91bd 62c6 dd3d
00000040: b6fd 183e b450 c4be 73c9 2a3f 32d1 e9bc
00000050: 7a44 da3c 5204 1c3e bc9f 763e af17 1ebd

Color_Space_Linearization.Color_Feature.3.bias f4 [3]
0.13006225 0.66992515 0.09611457
00000000: 0a2f 053e 3780 2b3f b7d7 c43d

Color_Space_Linearization.gain_rate.0.weight f4 [8, 16]
-0.05392706 -0.1667071 -0.10507922 0.30354837 -0.15808819 0.584233 -0.30170232 0.1068298
-0.100479044 0.10528786 -0.0614732 0.04949731 0.14238219 -0.044524945 -0.44671318 0.0744159
0.25087807 0.30644995 0.103195116 -0.06635964 0.043669693 -0.0005197345 -0.19465247 -0.08024217
0.0786386 0.19290024 -0.24078394 0.13745703 -0.068703726 -0.6693903 -0.17491378 -0.13222851
0.24454673 0.050687563 0.4384165 -0.20741034 -0.019207455 -0.15122159 0.38890278 -0.17021634
0.18998468 0.123309515 -0.12018358 -0.10661286 -0.09747568 0.20751263 -0.016280813 0.19209747
0.05482854 -0.25126323 0.34215325 0.1366804 0.15724282 -0.06391977 0.054463666 -0.2743003
-0.056807186 -0.3289957 -0.1557456 0.43262103 -0.27686045 0.012152327 -0.60270554 0.28728393
-0.23553798 -0.031155962 -0.08115635 -0.28620642 -0.17956515 -0.48310563 0.080538034 0.13463719
0.16875291 0.054641742 -0.060708217 -0.16925389 0.16775784 -0.050104253 0.20712882 -0.46929336
-0.12572794 -0.32621732 0.1179196 0.059696093 -0.18026218 -0.0035900937 0.04774494 -0.2475308
0.13214923 0.31072205 -0.32147375 0.19492702 0.100807846 -0.3077624 -0.5348052 0.17426643
-0.35170522 0.035281654 0.07932618 0.0930184 -0.09743858 -0.0483882 0.19988295 -0.054880902
0.37322724 0.032200076 -0.4054524 0.21632017 0.065438226 -0.01418689 -0.11519233 0.03742269
0.08338648 -0.2986328 0.03734907 -0.11116531 -0.39279154 -0.27949792 0.033955652 -0.08333865
-0.031983294 0.015072158 -0.013809081 -0.27908105 -0.11688078 0.19904086 -0.56972635 -0.11572868
00000000: 9fe2 5cbd 44b5 2abe c633 d7bd b16a 9b3e
00000010: dfe1 21be 4b90 153f ba78 9abe 95c9 da3d
00000020: f5c7 cdbd 29a1 d73d 52cb 7bbd b1bd 4a3d
00000030: a3cc 113e ca5f 36bd 97b7 e4be 5d67 983d
00000040: 1773 803e 02e7 9c3e f657 d33d 90e7 87bd
00000050: fede 323d cb3e 08ba fa52 47be 0256 a4bd
00000060: 460d a13d a487 453e 1190 76be 89c1 0c3e
00000070: 8ab4 8cbd 2a5d 2bbf 991c 33be e966 07be
00000080: 756a 7a3e c39d 4f3d 2178 e03e 6063 54be
00000090: f458 9dbc d5d9 1abe 441e c73e 314d 2ebe
000000a0: 588b 423e b389 fc3d cf22 f6bd d857 dabd
000000b0: 54a1 c7bd 317e 543e 575f 85bc 33b5 443e
000000c0: e493 603d 93a5 80be b62e af3e f2f5 0b3e
000000d0: 4304 213e 5ee8 82bd 4b15 5f3d 1771 8cbe
000000e0: a7ae 68bd 2072 a8be c67b 1fbe 8180 dd3e
000000f0: a7c0 8dbe 8e1a 473c e94a 1abf e116 933e
00000100: de30 71be ca3a ffbc 4d35 a6bd a689 92be
00000110: eddf 37be 9f59 f7be 20f1 a43d 55de 093e
00000120: 90cd 2c3e 05d0 5f3d 2ea9 78bd e450 2dbe
00000130: b6c8 2b3e 1e3a 4dbd 9419 543e 3847 f0be
00000140: d3be 00be f505 a7be d57f f13d e483 743d
00000150: a696 38be c747 6bbb 3390 433d b778 7dbe
00000160: 2152 073e f616 9f3e 3598 a4be f39a 473e
00000170: 5874 ce3d 0993 9dbe fee8 08bf e672 323e
00000180: b512 b4be 7f83 103d c475 a23d 6e80 be3d
00000190: e18d c7bd b532 46bd 1eae 4c3e ccca 60bd
000001a0: a417 bf3e 3ae4 033d 7597 cfbe 0983 5d3e
000001b0: 7a04 863d 2170 68bc f5e9 ebbd 8948 193d
000001c0: 88c6 aa3d 66e6 98be 57fb 183d a3aa e3bd
000001d0: f91b c9be 5a1a 8fbe 1515 0b3d 74ad aabd
000001e0: ea00 03bd 36f1 763c 7c3f 62bc b6e3 8ebe
000001f0: 315f efbd 5ed1 4b3e 96d9 11bf 2803 edbd

Color_Space_Linearization.gain_rate.2.weight f4 [1, 8]
-0.18343091 -0.23134881 -0.23341885 0.30078837 -0.2729933 0.28294712 0.24010943 -0.2204639
00000000: 50d5 3bbe b4e6 6cbe 5a05 6fbe ef00 9a3e
00000010: c7c5 8bbe 72de 903e 3fdf 753e 4ac1 61be

Color_Space_Linearization.tail.0.weight f4 [3, 3, 1, 1]
0.3982152 0.1915928 -0.17057636 0.43475705 0.18709055 -0.20215988 0.49340308 -4.0381236
-3.1225693
00000000: dde2 cb3e e730 443e 92ab 2ebe 7a98 de3e
00000010: aa94 3f3e 0003 4fbe 549f fc3e 4f38 81c0
00000020: 2dd8 47c0

Color_Space_Linearization.tail.0.bias f4 [3]
6.121257e-05 0.1367607 0.23566698
00000000: 405f 8038 ff0a 0c3e af52 713e

Gain_Correction.enhance_feature.0.weight f4 [3, 3, 7, 7]
0.049603682 0.003553771 0.0013538135 -0.018132046 -0.06928424 -0.07669136 -0.09088862 0.110201195
0.09855845 0.052346263 0.01801124 0.035124514 -0.022124112 -0.010295477 0.03236932 -0.018655412
0.010211587 0.016415901 -0.030350493 -0.0484809 -0.07759014 0.031393163 0.015492806 0.0031216473
-0.045856483 -0.07205187 -0.089973874 -0.086863734 0.008727862 -0.0064660865 -0.03103285 -0.03672939
-0.07446852 -0.08851705 -0.09287319 0.053408165 -0.024311172 -0.032268073 -0.04437652 -0.14168282
-0.10637555 -0.10051079 -0.005959185 -0.017137092 -0.04604928 -0.07047831 -0.0811776 -0.06091754
-0.1140248 0.10072222 0.052028477 -0.033579294 -0.055787977 -0.025300805 -0.050801978 -0.06499872
0.074922234 0.028308008 -0.061373416 -0.08958179 -0.09861899 -0.08879489 -0.085874654 0.03126613
-0.026018227 -0.069397256 -0.10040832 -0.1177425 -0.12094349 -0.09188366 -0.015266487 -0.09908386
-0.15572731 -0.18020655 -0.11985153 -0.15675665 -0.13897932 -0.028117124 -0.07998029 -0.12147948
-0.14385913 -0.18063709 -0.18757813 -0.13316756 -0.016058017 -0.01516433 -0.102512024 -0.13231109
-0.14529145 -0.10967779 -0.10940724 0.020022543 -0.04540868 -0.039909933 -0.1010363 -0.07147684
-0.071995646 -0.11085464 -0.17582406 -0.13531412 -0.20480038 -0.15823738 -0.15339911 -0.16334072
-0.1463792 -0.23168087 -0.24118775 -0.2357838 -0.2071785 -0.20000845 -0.22711535 -0.19009167
-0.28721207 -0.31970772 -0.32024613 -0.26756957 -0.2518983 -0.22883822 -0.22732195 -0.27789772
-0.32339436 -0.30542758 -0.3125767 -0.3022043 -0.3019507 -0.2872402 -0.331663 -0.3676326
-0.36779115 -0.32791114 -0.3427989 -0.33983546 -0.31659025 -0.37541166 -0.39581767 -0.4253533
-0.41019335 -0.36333248 -0.3754699 -0.3212664 -0.3826844 -0.36343217 -0.37657577 -0.398228
-0.3428753 -0.3586496 -0.3152451 -0.91152877 -0.7010508 -0.6049826 -0.56901956 -0.515955
-0.49272555 -0.43786964 -0.5577898 -0.29974237 -0.19769509 -0.15588787 -0.10448551 -0.071811974
-0.018057477 -0.56466454 -0.24344003 -0.15717055 -0.07101313 -0.020571843 0.010267439 0.03225542
-0.5789744 -0.2908676 -0.16959555 -0.14070083 -0.09485485 -0.049437042 -0.0016509389 -0.5691475
-0.2663065 -0.13580696 -0.070798576 -0.03225569 -0.012972468 0.054458957 -0.52210504 -0.1919361
-0.14011557 -0.051849496 0.012214359 0.002746964 0.070576526 -0.4899001 -0.1668002 -0.09238185
-0.03449707 0.03435823 0.06818584 0.11057345 -0.9512138 -0.67147046 -0.5524339 -0.5234486
-0.4159609 -0.33311427 -0.25377074 -0.7046641 -0.3865038 -0.24056946 -0.15126282 -0.1215416
0.042734325 0.08385571 -0.587687 -0.26824304 -0.09544882 -0.054284215 0.08427302 0.17682807
0.27637008 -0.5551813 -0.25326303 -0.08305914 -0.00602176 0.073542655 0.19150834 0.28396288
-0.5065232 -0.21580364 -0.04443787 0.057100326 0.14998211 0.27294436 0.37909698 -0.43056968
-0.07278389 0.13502887 0.17493397 0.28465605 0.38810608 0.47357336 -0.2931236 0.011434144
0.1782527 0.3084279 0.38289306 0.49086845 0.51660234 -0.17012188 -0.10417746 -0.025904385
0.045844186 0.11311677 0.19004127 0.24121778 -0.14093931 -0.05399018 -0.0072389157 0.08244012
00000000: 3b2d 4b3d 62e6 683b 7172 b13a a889 94bc
00000010: e5e4 8dbd 5c10 9dbd d023 babd 2ab1 e13d
00000020: 03d9 c93d 0969 563d 4f8c 933c b9de 0f3d
00000030: a03d b5bc 5cae 28bc b195 043d 3cd3 98bc
00000040: 804e 273c a47a 863c 99a1 f8bc e893 46bd
00000050: 94e7 9ebd 1e96 003d 8ad5 7d3c 8d94 4c3b
00000060: 02d4 3bbd ee8f 93bd 3944 b8bd 9de5 b1bd
00000070: 4eff 0e3c 77e1 d3bb 9a38 febc 8f71 16bd
00000080: f482 98bd 6d48 b5bd 4d34 bebd 85c2 5a3d
00000090: 3928 c7bc 872b 04bd 27c4 35bd 4d15 11be
000000a0: 6ddb d9bd 9ad8 cdbd 4445 c3bb 1663 8cbc
000000b0: 2b9e 3cbd ef56 90bd 7140 a6bd ac84 79bd
000000c0: d685 e9bd 7447 ce3d d01b 553d 718a 09bd
000000d0: ef81 64bd a243 cfbc bc15 50bd 0d1e 85bd
000000e0: d470 993d 32e6 e73c b162 7bbd a876 b7bd
000000f0: c1f8 c9bd 18da b5bd 0ddf afbd ea10 003d
00000100: 2d24 d5bc 2620 8ebd e1a2 cdbd fb22 f1bd
00000110: 38b1 f7bd 802d bcbd 4a20 7abc 7bec cabd
00000120: fb76 1fbe 1188 38be b874 f5bd d184 20be
00000130: 9850 0ebe e255 e6bc b5cc a3bd 3cca f8bd
00000140: cf4f 13be eef8 38be 7b14 40be 145d 08be
00000150: 1a8c 83bc cf73 78bc d3f1 d1bd 8f7c 07be
00000160: 48c7 14be c09e e0bd e710 e0bd 5106 a43c
00000170: 74fe 39bd 9978 23bd 1fec cebd 7362 92bd
00000180: 7472 93bd c207 e3bd 390b 34be c98f 0abe
00000190: 31b7 51be fb08 22be a814 1dbe ca42 27be
000001a0: 6ee4 15be c03d 6dbe ecf9 76be 4f71 71be
000001b0: 9a26 54be 04cf 4cbe ed90 68be 64a7 42be
000001c0: 760d 93be bbb0 a3be 4df7 a3be e1fe 88be
000001d0: d0f8 80be 9154 6abe 16c7 68be 9c48 8ebe
000001e0: f293 a5be 0161 9cbe 0e0a a0be 86ba 9abe
000001f0: 4899 9abe 2611 93be bccf a9be 573a bcbe
00000200: 1f4f bcbe f8e3 a7be 5683 afbe eafe adbe
00000210: 1e18 a2be f535 c0be 9da8 cabe e8c7 d9be
00000220: dd04 d2be b706 babe 973d c0be 087d a4be
00000230: 36ef c3be c813 babe 8ace c0be 8ae4 cbbe
00000240: 5a8d afbe eca0 b7be ce67 a1be f359 69bf
00000250: 1178 33bf 24e0 1abf 44ab 11bf a015 04bf
00000260: 8646 fcbe 7330 e0be 50cb 0ebf d577 99be
00000270: 9570 4abe 12a1 1fbe 80fc d5bd 2812 93bd
00000280: 46ed 93bc db8d 10bf 5848 79be 51f1 20be
00000290: 556f 91bd 4886 a8bc c338 283c 421e 043d
000002a0: ab37 14bf 99ec 94be 75aa 2dbe e113 10be
000002b0: 4243 c2bd 7f7e 4abd 5164 d8ba a7b3 11bf
000002c0: 5359 88be fb10 0bbe d8fe 90bd 8b1e 04bd
000002d0: 798a 54bc 5b10 5f3d ada8 05bf e68a 44be
000002e0: 757a 0fbe 2360 54bd bc1e 483c 6906 343b
000002f0: 6d8a 903d 30d4 fabe accd 2abe b232 bdbd
00000300: cd4c 0dbd 37bb 0c3d 05a5 8b3d 5574 e23d
00000310: bf82 73bf 7de5 2bbf 4f6c 0dbf ba00 06bf
00000320: d4f8 d4be f48d aabe 3dee 81be de64 34bf
00000330: d3e3 c5be d757 76be a4e4 1abe cdea f8bd
00000340: 300a 2f3d 8bbc ab3d a872 16bf 2757 89be
00000350: ac7a c3bd 2059 5ebd 5597 ac3d 6b12 353e
00000360: 6180 8d3e 5d20 0ebf b1ab 81be e91a aabd
00000370: 2f52 c5bb 889d 963d c31a 443e 9563 913e
00000380: 81ab 01bf a1fb 5cbe 7c04 36bd 08e2 693d
00000390: e994 193e 5dbf 8b3e 0019 c23e a173 dcbe
000003a0: b80f 95bd 0245 0a3e e421 333e 70be 913e
000003b0: d7b5 c63e 3578 f23e 4c14 96be 4756 3b3c
000003c0: e087 363e 43ea 9d3e 8f0a c43e 1c53 fb3e
000003d0: 0d40 043f 6e34 2ebe fe5a d5bd 6f35 d4bc
000003e0: 1dc7 3b3d c4a9 e73d 2e9a 423e cb01 773e
000003f0: 6552 10be cf24 5dbd 6d34 edbb 5ed6 a83d

Gain_Correction.enhance_feature.0.bias f4 [3]
0.049875084 0.0609461 0.03590879
00000000: d149 4c3d 9ea2 793d 1815 133d
