MODELS/parameters_LOLV2_Syn.pth (torch, 135851 bytes, 100 tensors)

Color_Space_Linearization.enhance_feature.0.weight f4 [3, 3, 5, 5]
00000000: df05 863d 297e 1b3e ca04 683e 0963 033e
00000010: 3cdd 7f3d 9262 0d3e fad6 b23e e17b 0a3f
00000020: 4d7f b63e 0df8 263e fccf f23d 9fd6 8f3e
00000030: a249 033f d438 c23e 4503 3d3e b82e f93d
00000040: 14ba 1f3e 1f91 693e 49b4 073e b86f 823d
00000050: 3d15 bb3d 2bbf 4a3e 96e2 5d3e d11f f63d
00000060: 0887 883d e884 37bd 2bfd 32bc e8ac c5ba
00000070: 97bc 10bd 72bd 883c cd5e 003d 419d 283e
00000080: b56f 8d3e 694a 273e 3929 f53d e885 223c
00000090: f1ae a23d 3f49 5a3e 74f8 093e d301 bb3d
000000a0: 3991 2abc 8005 66bd f3fe 85bd 442d dabd
000000b0: 29cd 31bd 6da5 7d3c 2066 7d3d 084c fc3c
000000c0: 8b73 21bb 7c2b 443d 1572 57be 8d19 84be
000000d0: aef5 91be 9df4 84be 88c0 04be 9f0c 50be
000000e0: b76c 4ebe 5521 1cbe 1ac5 4cbe 1d8b 0dbe
000000f0: 02b0 55be f654 86be 6116 52be 2521 77be
00000100: a984 49be 30aa 1dbe b0c1 8abe 5eea a6be
00000110: ff1a a9be 1e39 5abe 6e0f f8bd 16fa 05be
00000120: 4f6f 3fbe 0975 34be 258b b0bd b3e1 9f3d
00000130: b179 6c3d 98fc 863d 6d2d 713d 077b f33c
00000140: b571 043e 6a05 2a3e 6c2a 453e c95a 193e
00000150: 2366 a63d 83c0 e33d 2ed5 363e 1b83 7a3e
00000160: 55bf 5a3e 3b8e ff3d 8732 ac3d ccba 993d
00000170: 30d9 e33d 8733 023e 3faf ca3d 80f6 c83d
00000180: 50b5 963d 1b89 913d c42d 8c3d df81 6e3d
00000190: 9ec4 32be 4f3a 76be 2d17 74be 3143 49be
000001a0: 63bd 26be 6a92 4fbe 2854 78be b9d5 7bbe
000001b0: 0ce9 74be 0512 59be e02d 56be 67c2 63be
000001c0: db08 57be 9fa5 60be 421b 64be a0ee 5ebe
000001d0: e20d 8dbe dd03 8ebe 48aa 7cbe 7033 5abe
000001e0: 9ec2 4dbe 9c1d 83be a890 8bbe 27f9 7ebe
000001f0: e775 52be 8708 1e3e 66f7 003e d7c2 123e
00000200: c817 2b3e e0b1 2c3e 26b3 843d af1e 683d
00000210: d590 953d be72 9d3d 4f4a c33d f027 723d
00000220: 42f1 823d e93c 8c3d 684d ec3c 58e2 f63b
00000230: 6330 333e 791f 393e ade1 413e 8b83 2e3e
00000240: e19c 0d3e 9e57 023e da69 0d3e 2e04 213e
00000250: da9d 293e 1bc2 283e 1ca0 093c 7859 d03c
00000260: 9be7 0b3c cd22 b13d a307 543c 27e0 f03d
00000270: fe65 2b3d c9b6 e9bd 23ac 233e 3149 193e
00000280: 05d2 d33d 95e8 533c 94b8 6bbe eef2 093e
00000290: bce8 4f3e 51b5 d63c 4f1b abbc 4997 2dbe
000002a0: d3b1 733d abac c53d b551 de3d 405a dd3d
000002b0: 8c78 1f3e ddf8 2e3e c1ab 083d d381 ebbc
000002c0: 45aa 963c ad12 0bbc 8ef1 303d c3ea 81bd
000002d0: a0eb fabc 9248 f8bd e6e6 99be e5e4 bfbc
000002e0: 8047 0ebd 1c94 88bb 315f 02be e306 dabe
000002f0: 0058 83bd 65ef 5f3b 7914 433d c670 713c
00000300: b702 3abe fb1b bb3c 6e47 143d 5bc2 14bd
00000310: a767 30b9 1c4b fe3c 8baa 373d a204 b3bd
00000320: 8cd3 133e 0820 af3d 276f 04bd 22c4 a73d
00000330: 725a a33d afad cf3c bdbe 64be ae2b 01bf
00000340: 4dc6 ccbd bf39 a53d faa3 cbbd ca4e e0be
00000350: a50c 5dbf 00d7 bdbe 979a 91bd 2adc a03c
00000360: c9a7 45be 1763 ffbe 257d 59be 11eb 8fbc
00000370: 3bc4 563c bbc7 36bd 99b4 5bbd 5d44 ed3c
00000380: 859e a63c
0.065440886 0.15184845 0.22658077 0.12830748 0.062466845 0.13807133 0.3492964 0.54095274
0.35643998 0.16305561 0.11856076 0.2809343 0.5128423 0.3793398 0.18458278 0.12167114
0.15598327 0.22809266 0.13252367 0.06368965 0.0913491 0.19799487 0.21668467 0.12017787
0.0666638 -0.044804484 -0.010924618 -0.0015081437 -0.035336103 0.016691897 0.03134041 0.16466238
0.27624288 0.16336979 0.11970753 0.009919621 0.07943524 0.21317004 0.13473684 0.09131207
-0.0104106 -0.05615759 -0.06542768 -0.10653165 -0.043408547 0.015481335 0.061864972 0.030797973
-0.002463552 0.047893032 -0.21039613 -0.25800744 -0.2850775 -0.25967875 -0.1296407 -0.20317315
-0.20158659 -0.1524709 -0.19997063 -0.13822599 -0.20867923 -0.26236695 -0.2051635 -0.24133737
-0.19679512 -0.15396953 -0.27100897 -0.32600683 -0.3302841 -0.21310851 -0.12112318 -0.13083681
-0.18694805 -0.1762277 -0.0862029 0.078067206 0.05773324 0.06591147 0.058881212 0.02972175
0.12934001 0.16603628 0.19254464 0.14976038 0.0812495 0.11120703 0.17854759 0.24464075
0.2136205 0.124783 0.08408075 0.07506332 0.111254096 0.12714969 0.09896707 0.09812641
0.07358801 0.07106229 0.068446666 0.058229323 -0.17457816 -0.2404568 -0.23836966 -0.19654538
-0.16283183 -0.20270696 -0.24250853 -0.24593247 -0.23917025 -0.2119828 -0.20915937 -0.22242127
-0.20999472 -0.2193818 -0.22276023 -0.21770716 -0.27549654 -0.27737322 -0.24674332 -0.21308684
-0.20093772 -0.25608528 -0.272588 -0.24899732 -0.20552789 0.1543294 0.12594375 0.14332138
0.1670829 0.16864729 0.06479482 0.056669887 0.07303015 0.07687901 0.095356576 0.05912012
0.063936725 0.06847555 0.028845504 0.0075343065 0.17498927 0.18078412 0.18933745 0.17042367
0.13829376 0.12728736 0.1380991 0.1572425 0.16564122 0.16480295 0.008399989 0.025433287
0.008539106 0.08649216 0.012941274 0.11761504 0.041845314 -0.114118166 0.15983634 0.14969327
0.103427924 0.01293387 -0.2301963 0.13471577 0.20303625 0.026209505 -0.020887045 -0.16952242
0.05949576 0.096520744 0.10855428 0.108082294 0.15573329 0.17087121 0.033366922 -0.028748428
0.018391738 -0.008488339 0.043199115 -0.06343605 -0.030629933 -0.12123217 -0.30058974 -0.023424575
-0.034736156 -0.0041680466 -0.12731625 -0.4258338 -0.06413269 0.003416979 0.047626946 0.01473636
-0.18165098 0.02284049 0.036200933 -0.036318164 -0.00016823281 0.031041674 0.044840377 -0.08741118
0.14436167 0.08551031 -0.032332566 0.08191706 0.079762354 0.025351373 -0.22338386 -0.50457275
-0.0999876 0.08067655 -0.099433854 -0.4381011 -0.8634742 -0.37078094 -0.07109564 0.019636232
-0.19302286 -0.49880287 -0.21239145 -0.017568143 0.013108308 -0.04462407 -0.05363903 0.028963262
0.02033926

Color_Space_Linearization.enhance_feature.0.bias f4 [3]
00000000: e14e bfbd 4518 4f3c 017b 463e
-0.09341217 0.012640064 0.1938286

Color_Space_Linearization.enhance_feature.1.weight f4 [16, 3, 3, 3]
00000000: 6264 f2bd 30ef 11be 3ff7 ccba bae5 87bd
00000010: d8b0 f83c cf2c 8c3e e8b5 5bbe 3939 d7bd
00000020: 0304 a23d 023b 013f f41d 943e 95d6 0d3f
00000030: 8591 3f3f c2c9 0c3f 6dc3 503f 8786 863f
00000040: be00 613f 4713 913f a428 85bd 5a75 e03e
00000050: c7c9 813e 3ca3 0d3e 2436 103f d686 b63e
00000060: 819b 023e 98a3 153f dbf6 093f b9b2 7cbe
00000070: 22fd 07bd 01fb c7be 81dd 38be 21a0 d83d
00000080: 74de 4cbd e770 c2bd 6b29 613e ff10 653e
00000090: 03e0 c03e f94b 953e 4222 32be 42ac d43e
000000a0: a2a6 e23e f975 483e 3c13 19be 5686 23be
000000b0: 87a5 aabe 25f3 283e c617 febc 5c77 9c3e
000000c0: 6b77 ad3d 3f5f c3bd e629 1a3e f12f 15be
000000d0: 72b6 a1be 62ce 32be b3d0 2ebe 36c0 20be
000000e0: 4a4e 533d aa78 51be 1301 84be cd5b 13be
000000f0: 969f 3ebd 8b87 1abe 2851 0cbe b12f 4abd
00000100: 94cb 7b3d 8192 803e 22fe 283d 57d7 ba3d
00000110: 9b3c fb3d 10e9 bc3d eefb 303e 7b20 823e
00000120: 9ec4 93be d529 50be 0ed7 8bbe 021c b0be
00000130: 7897 77be 085e 70be 76bf 4dbe 80d9 babd
00000140: 8ab8 6dbd 388c d8be b09c 3dbf 8542 1dbf
00000150: 3fb2 36bf f436 9fbf 5cfe 9abf 49c2 efbd
00000160: 8418 eebe 1327 dcbe 88e8 29bf f68d 6cbf
00000170: ad05 22bf 54ae 2dbf 067d 6fbf 34fb 2bbf
00000180: e6b8 22bf 564c 53bf 2754 08bf 406a 463e
00000190: 8bdd 9c3e e08e 283e c0e9 683d 3d80 1a3e
000001a0: 7eb7 ccbc f259 fe3d 03bd 043e b857 f1bd
000001b0: 4e96 243e 1046 103e 92f6 3abc 4dbf 04be
000001c0: 0712 90be d225 c5be e9f3 4b3e ce0b 4c3e
000001d0: 5036 b93d a6c8 c73d c255 40be b367 d3be
000001e0: 8ee7 d53e 7893 613e c204 3fbc 5a19 5fbe
000001f0: 664d 0ebe 0c87 0abe a711 28be a8cd 3fbd
00000200: 2d2f a43e e8c6 03be ce85 96bc c8af ad3e
00000210: 782c 17be a73e 3fbe 4c10 793c 1c73 403e
00000220: 5c4d 913e f455 2a3e e30b d23d 60d2 803e
00000230: 4cef 4c3e ded2 453c d119 163e 8d91 033e
00000240: 9229 05bf 0549 e9be d36a 90be 99a6 12bf
00000250: 69b9 05bf c3ec bbbe 5795 e8be 270e d5be
00000260: 5f30 96be 46d7 c23e e79e c33d 376f 683e
00000270: 8432 263f deef c43e c4fd 043f b4a3 363f
00000280: 66f0 133f 4cd3 573f 3558 b3be 886a 61be
00000290: 5b16 f8bd 5819 07bf 375c 85be 42ac 0dbe
000002a0: 9a45 fdbe 992b a4be 15e9 1dbe 3c04 5c3f
000002b0: c1d9 a23f 8839 733f d6ba 5b3f d141 b03f
000002c0: 6686 9d3f f369 973e 4292 1f3f 5225 033f
000002d0: 5a1c d23c 2063 95bd afc2 bbbd d5a1 243d
000002e0: 301f 9cbd 5dc2 b6bd 80c4 c1bc c66f 61bd
000002f0: 900a 4bbd b62a f2bd d3a5 a5bd 111e 683e
00000300: 15de 5dbe e659 2abe a7ae f83d 8ac1 a7be
00000310: 625a 9dbe 9ee0 13be 7968 58bf 758c 91bf
00000320: 60d9 77bf 5312 96bf 0838 afbf ae5c 93bf
00000330: 5dfa a4bf ff08 b9bf d63f 9ebf ee30 16be
00000340: 1cbe 093d d9d8 c0bc ca35 a7bd 34e4 533d
00000350: b779 d13c 6430 54bd 25a6 323d c3b0 35bb
00000360: 9cc3 40bd f3cf 82bd bcec 9abe 16f2 40be
00000370: af3b 32be a7d7 96be e1aa 8cbd 15f6 b63d
00000380: e0a9 c83d 3748 153f 90fe ca3e 7af9 cf3a
00000390: 1cdb ce3e a97e ea3e 9865 bc3e 7324 3ebf
000003a0: 5ac9 31bf b1a4 09bf 5b60 b6bd c189 d5bb
000003b0: 0ae9 cf3e 4743 02be d40c cdbd 8220 893e
000003c0: 758c 7dbe d68a 9abe 76f0 eabd dbb2 4abd
000003d0: 8cf8 a7bb a4a6 0d3e dc0a a6bd 2848 8dbd
000003e0: b266 863d b7d1 383d 9f5d 5e3d e90b 1b3e
000003f0: 64d9 433f 2946 863f e85d 523f 7166 823f
-0.11835553 -0.14251399 -0.001563765 -0.06635614 0.030357763 0.27377936 -0.2145611 -0.10508961
0.079109214 0.50480664 0.28929102 0.5540555 0.7483142 0.5499536 0.81548196 1.0509804
0.8789176 1.1334008 -0.06501892 0.43839532 0.25349256 0.138318 0.5633261 0.35649747
0.12754633 0.5845275 0.53892297 -0.24677552 -0.03320039 -0.39058688 -0.18053247 0.10577417
-0.050016835 -0.09494191 0.21988456 0.22369765 0.37670907 0.29159525 -0.17395881 0.41537672
0.44267756 0.19576253 -0.14948744 -0.15969214 -0.33329412 0.16499002 -0.031017195 0.30559814
0.08470043 -0.09539651 0.15055045 -0.1456907 -0.31584507 -0.17461541 -0.170718 -0.15698323
0.051588334 -0.20456186 -0.2578207 -0.14390488 -0.04653891 -0.15090768 -0.13702834 -0.04936189
0.061473444 0.25111774 0.041257985 0.09123104 0.12267419 0.09224141 0.17283604 0.25415406
-0.28860945 -0.20328458 -0.2731251 -0.34396368 -0.24178874 -0.2347337 -0.20092568 -0.09123516
-0.05803732 -0.42294478 -0.7406721 -0.61429626 -0.7136573 -1.2438645 -1.2108874 -0.11706979
-0.4650308 -0.4299856 -0.6637044 -0.92404115 -0.6328991 -0.6784413 -0.93550146 -0.6718018
-0.6356338 -0.82538354 -0.53253406 0.19376469 0.30637774 0.16460752 0.056863546 0.15087982
-0.02498984 0.124194995 0.12962727 -0.11784309 0.16072962 0.14089227 -0.011411326 -0.129636
-0.28138754 -0.38505417 0.19917263 0.19926378 0.090435624 0.097550675 -0.18782714 -0.41290054
0.41778225 0.22028911 -0.011658849 -0.21787015 -0.13896713 -0.13528079 -0.16412984 -0.04682699
0.32067242 -0.12868845 -0.01837435 0.33923173 -0.14763057 -0.18676244 0.015201639 0.1879391
0.28379333 0.16634351 0.102561735 0.25160503 0.2001316 0.0120742 0.14658286 0.12848492
-0.52016556 -0.45563522 -0.282065 -0.5728546 -0.5223604 -0.36704072 -0.45426437 -0.4161236
-0.2933378 0.38054866 0.095517926 0.22698675 0.6492083 0.38464254 0.51949716 0.7134354
0.57788694 0.8430679 -0.35028234 -0.22013295 -0.12113639 -0.52773046 -0.26046917 -0.13835242
-0.49467164 -0.32064512 -0.15420945 0.8594396 1.2722703 0.9500966 0.85831964 1.3770086
1.230664 0.2957302 0.62332547 0.5122882 0.025648285 -0.07294297 -0.09167992 0.040193398
-0.07623136 -0.089237906 -0.023653269 -0.055038236 -0.04957062 -0.11824553 -0.08088269 0.2266772
-0.21666749 -0.16635856 0.12142687 -0.32764846 -0.3073302 -0.14441153 -0.8453441 -1.1370989
-0.9681606 -1.1724342 -1.3688974 -1.1512659 -1.2888905 -1.445587 -1.2363231 -0.14667103
0.033628568 -0.023540901 -0.08164556 0.051731303 0.025570733 -0.05180396 0.04361548 -0.0027723766
-0.047061548 -0.063873194 -0.3025874 -0.18842348 -0.1740558 -0.29461405 -0.0686853 0.08933655
0.09798026 0.58313316 0.3964734 0.0015867196 0.40401542 0.4579976 0.3679626 -0.7427437
-0.69447863 -0.53766924 -0.08905097 -0.0065166657 0.40607482 -0.12720977 -0.100122124 0.26782614
-0.24760611 -0.30184048 -0.114716455 -0.049486976 -0.0051260646 0.138331 -0.0810754 -0.06898528
0.06562556 0.045121875 0.054288503 0.15141262 0.76503587 1.0490161 0.8217454 1.0187513

Color_Space_Linearization.enhance_feature.1.bias f4 [16]
00000000: acc7 873e 376f 1b3c ba47 59be 8cfe 9f3c
00000010: fa69 5abd 6bdc af3c 3cb7 963d 5993 0d3e
00000020: 1cca b1bc 58aa 99bc 7bad 3f3d c6b7 993c
00000030: b3b6 9d3d f933 4bbb b6e4 aebd 6487 e63d
0.26519525 0.009486965 -0.21218768 0.019530557 -0.053323723 0.021467408 0.07359168 0.1382574
-0.021702819 -0.018757984 0.046796303 0.018764388 0.07700863 -0.003100632 -0.08539717 0.112562925

Color_Space_Linearization.enhance_feature.3.weight f4 [64, 16, 1, 1]
00000000: 8b7e a23d 3da5 34be d18a 8c3e 73a9 26bd
00000010: 97be d3bc 9fc1 543d 7a3c 88be 8207 433f
00000020: 850c f4bd 189e 27be 4eb7 343e 2a80 1cbe
00000030: 45ab aabe dde7 3cbe 69f6 113e c56e ec3e
00000040: fa97 083e cfbd f73d 5046 cf3d 66b3 0abc
00000050: abba 4a3e feb0 c63e cd02 29bd ae32 02bd
00000060: 40c0 6d3d 857e 8e3d fff9 313d ad44 5bbd
00000070: fde0 66bd ebd0 ca3e 8f13 f63d 5c8f 6d3d
00000080: a345 163e 4cfb b53e c0b7 b6bd 516e 13be
00000090: 24e0 6e3e fe66 a9be 6dbb 1abe 435b 823e
000000a0: b7a5 e63e ad58 30be 1078 1fbe 93d2 eb3c
000000b0: e4e1 543e e8ac d43e 7cd2 733d c847 72be
000000c0: 3c00 b03d 418e dd3d 1258 1fbe c3d5 a93e
000000d0: 801c fbbd e8d4 87be cb5b 9abe 6aed 1abd
000000e0: 4d7b 583e 3ec1 a5be 05bd 04bf 67ac 3a3d
000000f0: a8af 9a3e 035d e23d e0b8 1a3e 1bb8 1dbf
00000100: e780 85be 98a9 c4bd a04e 053e 2995 5dbe
00000110: 549f fa3d 262b 3a3e ca1b f9bd cac1 b8bd
00000120: a3c7 77be 1f82 b33e fff0 c13e e4ca 8e3d
00000130: 02dd 9f3c 16dd 953e 4ca9 eabd 8a0e 0d3f
00000140: 618e e9bc bd87 ebbd 2008 583e 5c2f 433e
00000150: 8f39 aebd b74c 29bd 1fc4 14bf b772 1abe
00000160: 6fc7 6ebe bc71 93be f594 cb3d 5ad1 c43c
00000170: a1be 693c c131 4c3e 689d 86be 91d7 523e
00000180: 2f74 f1bc 7cea 88bc 85d5 eebd 2e52 bfbd
00000190: 116c 48be ab16 d5bd 015f 873e 2ef8 06bd
000001a0: 24d5 ccbd 4fca fc3d 56f0 bdba b014 743d
000001b0: ac40 ae3d 5d07 3dbe 4f03 1c3d c104 333b
000001c0: 7423 4bbe 9e0f 7f3b b15d 53bd abff b03d
000001d0: 1789 5f3d 3599 b0be a1ee 6f3d e986 1fbf
000001e0: 4d75 da3c 2be1 003e 8b82 a0be d870 ac3d
000001f0: 4ba6 1c3e fb3e 0f3e 9ec7 f8bd 6371 e3be
00000200: d986 7ebd 43f6 673e 2fb4 7fbe f48c 283e
00000210: b3d6 913e e706 afbd d3ce 1dbf 78c0 9bbd
00000220: 8696 fb3d 07c6 81be 8457 7a3e 432e aebe
00000230: 1495 87bd 738b 3cbc a6de e83c a279 fc3c
00000240: f717 3e3c f41c b9be 3574 273d e742 243f
00000250: a4a3 a1be adc1 b3bd 1d65 62bd f1ed 723d
00000260: 90a1 a5be cf45 a33c 9f6f 50be bd6c f03d
00000270: 6ae0 c43d 69cc 7d3c 0d3d 193e d732 ffbe
00000280: 0694 173e d9e8 13bb 4e9f 7a3d ed8b 693e
00000290: 43a8 e63b a900 31be e710 02bf 3b41 dabd
000002a0: e78c 53be bb62 153e fbbf 093e 97d8 7cbe
000002b0: 8ba5 ed3d 76f8 af3e 5152 f83d bc82 333d
000002c0: c7c4 ec3d 8073 71bd c729 353b 1663 8d3e
000002d0: 6bf2 713e 9c7c 26be 1d19 ffbd 71e5 223e
000002e0: e2af 31bc ef18 d43e 8efe 9e3e 10bc 153e
000002f0: 1710 29bd 77fa b23e eb39 873e bcf5 e13e
00000300: f834 813d d1e6 d83d 3a78 ea3d a507 babc
00000310: e7c6 c53e 4d7a 753e 71e8 69bd 06a4 5b3c
00000320: c505 0b3e 9ec7 1a3d 1497 103d 4c32 26bd
00000330: 37d0 e3bc a46f a23e dc2f aa3d 91f3 86bc
00000340: 1e05 863d feec 0fbe 5b79 033e 5b41 8b3b
00000350: a482 e8bd d998 5ebc b4ae 67be eb52 533f
00000360: f3d6 02be 7f88 79be e509 103e 483a 1bbe
00000370: cbce 5cbe 7280 07be 7390 d13d 186d c43e
00000380: 6f43 9e3e 7108 363e 83b5 f13d 0f92 2abf
00000390: 2059 bd3e 3ff4 623e 48a1 65bd 4ff0 f3bc
000003a0: 6f79 6c3e ea5b a3bd 59fa 853e c28f 56bc
000003b0: c9b4 6dbe 4e2e 07be 90ba 80be 2364 dc3e
000003c0: 4fe8 b93e f28d 413e c061 b23d ece6 283d
000003d0: 9fb6 0b3e 2613 f03d 766a 713e d424 123e
000003e0: 8d1b 593e 7f6e 0e3f 5ce4 473e 93df 6c3c
000003f0: 8106 f23d a755 5e3e 0e92 e53d 04e2 453e
0.079342924 -0.17641158 0.2744966 -0.040688943 -0.025847716 0.051942464 -0.2660864 0.7618333
-0.119164504 -0.16368902 0.1764805 -0.15283266 -0.33333793 -0.18447824 0.14254154 0.4617826
0.13339224 0.1209675 0.10120833 -0.0084656235 0.1979777 0.3880691 -0.041262437 -0.031786613
0.058044672 0.069577254 0.043451305 -0.05353229 -0.05636691 0.39612517 0.12015449 0.057998046
0.14675002 0.35543287 -0.08921766 -0.14397551 0.2332769 -0.3308639 -0.1511056 0.25460252
0.45048305 -0.17221327 -0.15573144 0.028786933 0.20789295 0.41538167 0.059526905 -0.23660195
0.08593795 0.108181484 -0.1556094 0.331709 -0.12261295 -0.26529622 -0.30148157 -0.037824072
0.21140786 -0.32373995 -0.5185092 0.045574572 0.3021214 0.11052897 0.15109587 -0.6160905
-0.26074907 -0.0960266 0.13018274 -0.21638931 0.12237421 0.18180522 -0.121635035 -0.09021337
-0.24197249 0.35060212 0.37879178 0.06972292 0.019514564 0.29270238 -0.11458072 0.5510031
-0.028510274 -0.115004994 0.2109685 0.19061035 -0.08507072 -0.041332927 -0.5811176 -0.15082823
-0.23318265 -0.2879771 0.09940521 0.024025608 0.014266641 0.19940855 -0.26291966 0.20590045
-0.029474346 -0.016713373 -0.11661819 -0.093418464 -0.19572474 -0.10404714 0.2643967 -0.032951526
-0.10001591 0.12343275 -0.0014491181 0.05959004 0.08508429 -0.1845984 0.038089093 0.0027316066
-0.19837743 0.003891922 -0.051603023 0.08642515 0.0545741 -0.34491888 0.058577184 -0.6231523
0.026667261 0.12585895 -0.31349596 0.08419961 0.1529781 0.13988869 -0.12147449 -0.44422445
-0.06214032 0.22652535 -0.24971078 0.1646002 0.28484115 -0.085462384 -0.61643714 -0.0760507
0.122845694 -0.25346395 0.24447447 -0.3401967 -0.06620231 -0.011507857 0.02842648 0.030819718
0.011602393 -0.36154902 0.040882308 0.64164585 -0.3157016 -0.08777175 -0.05527221 0.05930895
-0.32349825 0.019930748 -0.2035508 0.1173949 0.09613116 0.01549063 0.14964695 -0.49843475
0.1480256 -0.0022569208 0.06118708 0.22807284 0.0070391013 -0.17285408 -0.5080704 -0.10656973
-0.20659219 0.14588444 0.13452141 -0.24691997 0.116038404 0.34369248 0.121250756 0.04382585
0.1156097 -0.05894804 0.002764331 0.2761466 0.23627631 -0.16258472 -0.12455962 0.15907837
-0.010845156 0.41425273 0.31053585 0.14622521 -0.04127511 0.34956715 0.26411375 0.44132793
0.06308931 0.105909 0.11448713 -0.022708723 0.38628313 0.23972435 -0.05710644 0.013405805
0.1357642 0.037788026 0.03530033 -0.04057531 -0.027809246 0.317258 0.0830991 -0.016473563
0.06543945 -0.14055249 0.12839262 0.0042497343 -0.11353043 -0.013586246 -0.22625238 0.825484
-0.12777309 -0.24368475 0.14066274 -0.15158951 -0.2156326 -0.13232592 0.102326296 0.38364482
0.30910823 0.17776658 0.11802199 -0.6662912 0.3698206 0.22163485 -0.056062013 -0.029777674
0.23093198 -0.079765156 0.26167563 -0.013095798 -0.23213495 -0.13201258 -0.25142336 0.43045148
0.3631005 0.18901804 0.087100506 0.04123585 0.13643883 0.11722402 0.23575768 0.14271861
0.21201916 0.55637354 0.19520706 0.014457601 0.11817647 0.21712361 0.11209498 0.193245

Color_Space_Linearization.enhance_feature.3.bias f4 [64]
00000000: 3add 183d 30f6 d8be ca19 2f3b 1dc3 c83d
00000010: 18fa 51bd 50e6 31be e2fe 333e 2583 f7bd
00000020: dfd6 1ebe 46fd 813c f5a3 87bd 0169 6a3b
00000030: a3a6 23be f0ea d03d ccf4 a2bd ebf4 aa3e
00000040: a6aa e43c c011 2ebe 1840 9b3e cf8b 823d
00000050: 730d dbbc 4501 cd3d 205f 15be 715d 413d
00000060: c732 0e3e 516a b1bd 2d12 f03d 1973 08be
00000070: 0eb3 6dbe 8f26 3abe 3217 00be 9747 a7be
00000080: 121e 89bd 763a 333e cfcf ab3c 02d4 013d
00000090: 6b00 4abd b59f 01be 5643 cf3c 695f c73e
000000a0: 32dd 383d d953 65be c016 1abd c617 b8bd
000000b0: 4471 243a 23a7 4a3d 938d 803d 2d3a 54bc
000000c0: efbf 0abe 14eb 15bd 074e e63d 2e53 93ba
000000d0: 3f54 623c 39e9 1dbe 858a 3abe f232 fc3d
000000e0: 65cb ae3d ce14 833e ba15 dd3e 7be3 1a3e
000000f0: 6227 633e 20ad 303d 2155 c63d ce48 02be
0.037320353 -0.42375326 0.0026718252 0.0980284 -0.0512639 -0.17373013 0.17577699 -0.12085561
-0.15511654 0.01586784 -0.06623069 0.0035768154 -0.15981536 0.10201061 -0.079568475 0.33389983
0.027913403 -0.16998959 0.30322337 0.063743226 -0.026739812 0.10010008 -0.14587069 0.047208253
0.13886558 -0.08662856 0.11722217 -0.13325156 -0.23212835 -0.18178771 -0.12508848 -0.32671806
-0.066951886 0.1750277 0.020973114 0.031696327 -0.049316805 -0.1265858 0.025300663 0.3893998
0.045132823 -0.22395267 -0.037619352 -0.089889094 0.00062729814 0.0494758 0.06277003 -0.012953323
-0.1354978 -0.03660114 0.11245351 -0.001124 0.013814031 -0.15420999 -0.18216904 0.123144045
0.08534888 0.2560181 0.4318064 0.1512584 0.22182992 0.043133855 0.09684206 -0.12723085

Color_Space_Linearization.enhance_feature.4.weight f4 [32, 64, 1, 1]
00000000: 7e00 a1bf 9742 04bc 2d8c afbc 5675 0e3e
00000010: 01dd 81be b083 8abe 2a86 d23d 5838 493f
00000020: 1b75 12be edc0 a1bd a0ff eabe 4f18 07bf
00000030: fa00 0fbd 46a5 92bf c9d0 f3bd 27e1 42be
00000040: 82ac 1d3d 214a 773e d29f 56bd 7602 47be
00000050: 63ad fb3e 197c 83bd 61ad 4cbe 4eb3 89be
00000060: c9a8 de3e 4805 553d 25e2 0abe 199c a53e
00000070: 3b4a 773d 31a6 093e 815f a7be b59a 723e
00000080: d351 153f 26c3 9d3d 7617 89bd 2014 143e
00000090: 4485 dc3d 7f02 bcbe 1d9d b7bd a45f 2b3d
000000a0: 7df6 9bbe 5b50 ddbd 0403 a33c 1d26 04bd
000000b0: a45d c1be 34a8 5abf 01be 3abc c303 a63d
000000c0: 8748 923e 0dc5 4c3e 9024 bbbf 0f64 17be
000000d0: a37d 1b3e 5100 a6be c88d a2be cf93 4abe
000000e0: 107a edbe aa6e f93d 4e22 00bc ef95 6f3e
000000f0: 77b3 4b3e 022f 3d3d 5339 d0bc fdc7 3a3e
00000100: bf91 3b3d f5a8 513c e727 9d3e fd1c cd3e
00000110: c9fb 91be d766 a4bd 09ce 08bd fc72 dc3c
00000120: 889c a13d c664 17be 62ed 30be 1735 babe
00000130: 9dc5 39bc d7bf dd3c f231 193e 55f4 a9be
00000140: 05e3 07bf e0fc ffbb d984 b63d 4d91 d1be
00000150: 5331 7e3d 1857 98bc 0c81 e5bd dfff 62be
00000160: 4ea6 d73e a266 8a3e f94b 613d 368d 883e
00000170: 9b9a 003e 5a12 1bbd 8f93 a73d 7d57 573e
00000180: 4671 183f feb6 2a3d d27f a23c 5f49 d5bd
00000190: 97f3 153c 5043 36be 5514 993e 52c4 26be
000001a0: 16fe cebe 4545 87be 2fa1 a43d dfb8 10be
000001b0: e701 a5be eef1 9a3b 7b8d 893e c149 d23c
000001c0: a358 933e 0a53 b33e b2ef 1fbc d744 623d
000001d0: b7c1 7fbd 50e2 ef3d e4dc 53bd 6228 fabe
000001e0: b369 ad3d 7e3e 4bbe fe8a e2bb e682 bc3e
000001f0: e797 1abb 9d04 9e3e aba8 a13e 4b98 563d
00000200: f8a3 1b3d dc40 19bd 2e66 aa3e 017c 9b3e
00000210: 2977 683e 2240 373e 5ef6 82bd 659d b1bd
00000220: 500b 8a3e 4f44 0bbe 9325 ac3e 4453 543b
00000230: 509a 5d3d f44d b23d a5ad 853e 8a7b aabb
00000240: ff40 3ebf 841f 8dbd 9b9d 41bd bbc8 a9bd
00000250: 3e4e b8be ba0f 343e bcfd 25be 92de 0ebe
00000260: df12 f73e 74a2 8f3d cf31 51be a8bd 163c
00000270: b81c f8bd 4128 8f3c 01df 0a3f a7e8 0dbd
00000280: dff4 0e3d 5a12 a6bd 0029 82bd aa29 76be
00000290: a29e 183e eb7b 213e 8e0c 003f 4229 973c
000002a0: 2453 033e a9c8 dabe d034 083f 931a 0b3f
000002b0: d27e 063e 1dc4 4c3c acb0 e03e 0e47 6fbe
000002c0: c8c0 f7bc 8eb7 0a3e 228c b7bb 9354 9fbe
000002d0: 038e 3e3c 4233 02be 21a0 ee3a cb28 a8bd
000002e0: 15ed 07be c89e 14be c97b 10bb 7ac1 1e3e
000002f0: 399b 7fbd cd25 403e eda7 013f 0397 5abe
00000300: e9a3 cbbe 8969 69ba 1ee3 3e3e 8dcf cf3d
00000310: 3422 043e c4f7 d03d 52a2 8dbd 1765 fa3e
00000320: 7ca0 aebd 52c3 2e3e 9c8e 0f3d b765 a03e
00000330: 8649 983d 0d0b b7be 3dc8 88be 5878 a83d
00000340: 19e2 db3d fb60 fc3d 3344 b2bc c41b 043e
00000350: 42b1 ae3d a996 1dbe 710b 92be d9d4 203e
00000360: b382 abbd 42a3 4dbe 3526 1fbe 292e 7b3c
00000370: 47da 49be 3cf5 0a3f d7b7 cbbd fee1 d63c
00000380: 00a1 b6be 89ed 98bd 024c 7d3c efd5 783d
00000390: 0cf2 0d3f afae a03e 0c85 ccbd 0090 603d
000003a0: fd0a 323e 1ca8 4e3e 4753 edbc 9d04 a73c
000003b0: 21b5 053f c486 afbe 5235 dfbd 9e66 44bc
000003c0: 3f8d b03c 92e9 ddbe d965 84be 0183 513d
000003d0: 104e 093e 5b8c 97bd 7b9e f53c 0f95 963d
000003e0: 569d 6dbe 3058 cf3b 7c8d 9bbd 8bbd 0ebf
000003f0: 59e9 11be f3b9 83bd 5894 efbd c9e1 2bbe
-1.2578275 -0.008072517 -0.021429146 0.13911948 -0.25363925 -0.27053595 0.10279496 0.786016
-0.14302485 -0.07898126 -0.4589815 -0.52771467 -0.03491304 -1.1456687 -0.11905057 -0.19031201
0.038494594 0.24149372 -0.05239851 -0.19434533 0.4915572 -0.06420154 -0.19988014 -0.2689461
0.43488148 0.05200699 -0.1356283 0.32345656 0.060373526 0.13442303 -0.3269005 0.23691829
0.5832798 0.07703237 -0.06693928 0.14460802 0.10767606 -0.36720654 -0.08965514 0.041839257
-0.30461493 -0.10806342 0.019898899 -0.03226291 -0.37766755 -0.8541291 -0.0113978395 0.08106186
0.2857096 0.19997044 -1.4620533 -0.14784263 0.15184645 -0.32422116 -0.31748796 -0.19782947
-0.4638219 0.121793106 -0.007820679 0.23397039 0.19892679 0.04618741 -0.02541796 0.18240352
0.04579329 0.01279663 0.30694506 0.4006118 -0.2851241 -0.08027428 -0.033399615 0.026910298
0.07891184 -0.14784536 -0.17278054 -0.3636863 -0.011338619 0.027069015 0.14960459 -0.33194223
-0.5308078 -0.0078121275 0.089120574 -0.40931168 0.062058758 -0.018596217 -0.11206254 -0.2216792
0.42119068 0.27031428 0.055004094 0.26670235 0.12558977 -0.0378593 0.081824414 0.21029468
0.5954784 0.04167842 0.01983634 -0.10414385 0.009152315 -0.17799115 0.29898325 -0.16285828
-0.40428227 -0.26420036 0.08038556 -0.14133023 -0.32228014 0.0047285473 0.26865754 0.025669934
0.28778562 0.3502429 -0.009761738 0.055241432 -0.0624406 0.117130876 -0.05172433 -0.48858935
0.08467426 -0.19848058 -0.006913542 0.36818618 -0.0023589076 0.30862895 0.31573996 0.05239133
0.03799817 -0.03741537 0.33281082 0.30368045 0.22701706 0.17895558 -0.06394647 -0.08672599
0.26961756 -0.13600276 0.33622417 0.0032398263 0.054102242 0.08706275 0.26109043 -0.0052027153
-0.74317926 -0.06890777 -0.047269445 -0.082902394 -0.35997194 0.17584124 -0.16210073 -0.13952091
0.48256585 0.07013407 -0.20429157 0.009200491 -0.12114853 0.01747525 0.54246527 -0.034645703
0.034901496 -0.08108969 -0.063554764 -0.24039331 0.14904264 0.15769927 0.50019157 0.01845229
0.12824684 -0.42731217 0.53205585 0.54337424 0.13134316 0.012497929 0.4388479 -0.23366949
-0.030243292 0.13546583 -0.005601422 -0.31119213 0.011630538 -0.12714866 0.0018205681 -0.08210906
-0.13274033 -0.14513695 -0.0022046438 0.15503493 -0.06240389 0.1876442 0.5064686 -0.21346669
-0.3977349 -0.00089039706 0.18641326 0.10147009 0.12903672 0.102035075 -0.06915726 0.4890525
-0.08526704 0.17066696 0.035048112 0.31327602 0.074358985 -0.3575062 -0.2671527 0.08226079
0.10736484 0.12323185 -0.021761036 0.12901217 0.08529903 -0.15389504 -0.28524354 0.15706195
-0.08374538 -0.20081809 -0.15541919 0.01533083 -0.19712172 0.5428045 -0.09947174 0.026230808
-0.35669708 -0.07467181 0.015460016 0.060750898 0.5544746 0.31383273 -0.09986314 0.05482483
0.17387004 0.20181316 -0.028970374 0.020387942 0.52229506 -0.34282506 -0.10898842 -0.0119873565
0.021551726 -0.43342263 -0.25858954 0.051150326 0.13408685 -0.073998176 0.029982796 0.073526494
-0.2320455 0.0063276514 -0.075953454 -0.5575797 -0.14249171 -0.064319514 -0.11698216 -0.16785349

Color_Space_Linearization.enhance_feature.4.bias f4 [32]
00000000: 51cb a2be 5cb9 6ebe 3ba0 a63d 397e 803d
00000010: 4a8e d0be 3cea aabd 5d5a 42be bbfc cdbe
00000020: 4f78 4d3e 50ff 4f3b 4db7 c8be 5119 c6bc
00000030: 0f2d 823e d5db 65be 9d15 53bd 5352 7bbd
00000040: fffe 213c ed44 9fbe ddde edbe f682 5f3e
00000050: c31a a8be 14a2 bfbe ebb2 dfbd f560 003e
00000060: 54ed 35be ec64 513d 2597 273d 42f0 233e
00000070: 2951 c93d 0f37 88be 012d 9f3d b170 a9be
-0.31795743 -0.23312896 0.0813603 0.06274075 -0.40733558 -0.08345458 -0.18979783 -0.4023188
0.20065425 0.0031737871 -0.39202347 -0.024181994 0.25425002 -0.2244714 -0.051534284 -0.061357807
0.009887456 -0.31107274 -0.46459094 0.21827301 -0.32832918 -0.37428343 -0.10922798 0.12536986
-0.17766315 0.051121637 0.040915627 0.1600962 0.09829933 -0.26604506 0.07772256 -0.3309379

Color_Space_Linearization.Color_Feature.0.weight f4 [16, 16, 3, 3]
00000000: ae99 133e 54aa af3d 27ac 563e c1c6 25be
00000010: 390c 54be 4fc2 ff3c 4da1 96bd c082 7dbe
00000020: 547f 58be 486f 7ebc 3599 31bd 31ca 6ebe
00000030: 14c6 c13d a23d 253e 10e2 273e 692f 133a
00000040: 7b0c 59be 7f27 80be 2033 11be d196 c83d
00000050: 23e6 243d 3d8e 13be fab3 113e 6ed6 3a3d
00000060: d61c a23d d7e5 b93e cda2 1a3e 692f 2e3d
00000070: 5704 173d 02d6 23be 6942 893e 0adb cf3d
00000080: 975a 6abe 3dc0 443e 086d c13d fca7 dabd
00000090: 6528 41be 11f3 3fbe 1baf 07be 9582 953d
000000a0: 2dbe d33d ed94 e23c eda4 2abd 8675 973d
000000b0: 4d40 d83d 981e 30bc 5342 613e 0248 213e
000000c0: 37c1 d0bd d4fd 883d 2903 623d e8e4 98be
000000d0: 527d a4bd 3585 603d e39e 80be 40a5 a9bd
000000e0: 97ee 9abe 2211 3fbd 108e 533d 4fe3 6cbe
000000f0: 559c b0bd b137 9f3d e673 04be ad48 663d
00000100: b4c0 933e 86ab 413e 3b85 7d3d c879 903e
00000110: f299 2c3e edcb e3bc a0bb 853e f8df 373e
00000120: 8687 a23d 0cf0 183d e366 d03d d1a6 1bbe
00000130: 375e 36be 1061 583c d7f7 33bc 7536 94bd
00000140: 4f9e b3bc 445a 14bd 55e2 463d 048d 603d
00000150: a991 f3b8 24ef 833c 58ca d93c b19a 0e3e
00000160: 7953 6b3e d255 1e3e 1a04 9abd 3dd2 5bbe
00000170: 86d8 88be 5ca3 17be 082a 8cbe 18aa 9ebe
00000180: 1625 67be 33ce 96be 8e9e 8bbe 2e78 f5bc
00000190: 11f8 fabd dbbb edbc daee d5bd 32d6 8abe
000001a0: 4f71 41be 73c7 c23d 88b2 09bd 3cca 683c
000001b0: 0091 d3bd e952 85be 3955 15be 0039 4a3d
000001c0: 8dc4 a9bd f25a 8fbd a928 913d 35bf b73c
000001d0: f2c0 543d f369 8f3d 98e0 3cbe df8f 903d
000001e0: 1ab9 623d 31d1 febd be40 1f3e c87f 2cbe
000001f0: 955e b9be d5db 493d 133c 0c3d ebe9 da3c
00000200: 7d22 d33d b8d2 33bc 2ea0 953c 981c 1f3e
00000210: ebf5 efbd cb61 bebd 8876 673d 814a ba3b
00000220: 215f d4bd ceaa 03be 844e af3d a8d9 f63d
00000230: 0423 173e 6ed2 a93d 8f16 d03c 113f 673e
00000240: 0b3c bcbb 50a0 233d 0bf4 0ebe 488a acbd
00000250: c319 1cbd 08ea 8dbd 2d35 fdbd 51b0 00be
00000260: 639c 88bd c728 f63c 1e0d 083e b9b6 09be
00000270: bd60 713e 1860 353e 33bf c8bd 3287 483e
00000280: bda2 77bd a538 a1be dec4 28be 6621 c7bc
00000290: 8778 fd3d 322c d1be 0d89 91be 7e81 1cbe
000002a0: 20ab 90be 88af 56be b689 2fbe a034 76bd
000002b0: 9c0f 21bd 20c9 06be 4505 363e 73fd 023e
000002c0: 9dd1 aabd 044c 8e3d 8712 213d af09 dbbd
000002d0: bafb 12be 4b93 4fbe efeb 5fbe 8f1f 81bd
000002e0: 618e 803c 88d2 a9bd fac2 13be 7e9c 543b
000002f0: 6f3b 55bd eec1 a9bd e3de 64bc 211c 383d
00000300: c566 2abe dc40 02be 9efa 393c c362 223e
00000310: 28f6 353e 64d4 6d3e d73f 523c 1c49 203d
00000320: 1b42 7cbd 75cf 873a 21d4 243d c1e2 15be
00000330: 9087 003e 4ccb 913c 5a1e 54be 57c3 1d3e
00000340: 236c c83d 5fe1 ebbd afe4 163c 7d1e fbbd
00000350: 41b1 46be 5cff 973d 4664 a2bd 6ffe 04be
00000360: ab0f 9ebe df7c 7b3e 3734 ddbd 5e01 40be
00000370: 797f 863e ec4c 0f3d 8aa1 24be 0198 ba3d
00000380: 324e 97bd 4688 05be d51e 083e 911a cf3d
00000390: 6e2c 083e f112 8e3e cf47 8f3e bc34 833d
000003a0: cd49 6c3e 8c6b 303e 398d fb3b b124 e23d
000003b0: 9e86 f6bc 050e 1e3e 1a45 6c3e c0f4 703d
000003c0: 4fb4 c93c fe49 963d e630 ea3b 5e85 27bc
000003d0: fee5 b83c 3b32 983b b19c 36bd ab74 08bc
000003e0: cca5 553c d60d 58be ecba 3bbe 5716 a8be
000003f0: 88c5 f23e 4451 92bd b472 34bd c814 a73e
0.14414093 0.085774094 0.20964108 -0.161891 -0.20707788 0.031220583 -0.073549844 -0.24756908
-0.21142322 -0.015529461 -0.043359 -0.23319317 0.094616085 0.16136792 0.1639483 0.00056146696
-0.21196167 -0.25030133 -0.14179659 0.09794391 0.040258538 -0.14409728 0.14228812 0.045614652
0.07915656 0.36308166 0.15101166 0.042525683 0.036869373 -0.15999606 0.2680848 0.101492
-0.2288612 0.19213958 0.09444624 -0.10676572 -0.18863066 -0.18745066 -0.13250391 0.07300297
0.103390075 0.027658904 -0.04166119 0.07395463 0.105591394 -0.010749482 0.21997957 0.15750125
-0.10193103 0.06689039 0.055178795 -0.29862142 -0.080317155 0.054814536 -0.2512122 -0.08283472
-0.30260155 -0.0466472 0.051649153 -0.23133586 -0.08623568 0.07774294 -0.12934837 0.056221653
0.28857958 0.18913087 0.061894637 0.28217912 0.168556 -0.0278072 0.2611971 0.17956531
0.07936005 0.0373383 0.10175874 -0.15200354 -0.17809378 0.013206735 -0.010984383 -0.07236949
-0.021926073 -0.036218897 0.04855569 0.054821983 -0.00011614274 0.016105242 0.026585743 0.13926198
0.22981061 0.15462425 -0.075203136 -0.21466918 -0.26727694 -0.1480841 -0.27375817 -0.30989146
-0.22572741 -0.29454193 -0.27269405 -0.029964533 -0.12254346 -0.02902024 -0.10445948 -0.27116543
-0.1889088 0.09510698 -0.033617526 0.014208373 -0.10330391 -0.26039818 -0.14583291 0.049370766
-0.08289442 -0.06999768 0.070878334 0.022430042 0.05194182 0.0700263 -0.1844505 0.07058691
0.055352308 -0.12442244 0.15552041 -0.1684562 -0.36204973 0.049281914 0.03423698 0.026722869
0.103093125 -0.010975532 0.018264856 0.15538251 -0.11716827 -0.09295996 0.056509525 0.005685151
-0.10369707 -0.12858126 0.085598975 0.120532334 0.14759451 0.082920894 0.025401382 0.22582652
-0.0057444624 0.039947808 -0.13960283 -0.084248126 -0.038110506 -0.069294035 -0.12363658 -0.1256726
-0.066704534 0.030048741 0.13286254 -0.1344861 0.23572059 0.17712438 -0.09802093 0.19582823
-0.060457934 -0.3148853 -0.16481349 -0.024307918 0.123765044 -0.4085403 -0.28424874 -0.15283772
-0.28255558 -0.20965397 -0.17142376 -0.06010878 -0.039321527 -0.1316266 0.17775448 0.12791996
-0.08340762 0.069480926 0.03932431 -0.106952064 -0.14353839 -0.20271032 -0.21867345 -0.063048474
0.015692892 -0.08292109 -0.14429846 0.003244191 -0.052058633 -0.08288942 -0.013969156 0.0449487
-0.16640766 -0.12720054 0.011351256 0.15857987 0.17769682 0.23225552 0.012832603 0.039132223
-0.06158648 0.001036151 0.040241364 -0.14637281 0.12551713 0.017797135 -0.20714703 0.15406547
0.097862504 -0.115175955 0.009209796 -0.122616746 -0.19403554 0.07421753 -0.07929282 -0.12987684
-0.3087133 0.24559353 -0.10800975 -0.18750522 0.2626913 0.034985468 -0.16077247 0.09111024
-0.073879614 -0.13040265 0.13293011 0.10112489 0.13298199 0.27748826 0.27984473 0.06406543
0.23075028 0.17228526 0.007676747 0.110421546 -0.030093487 0.15435036 0.23073235 0.05882716
0.02462211 0.07338332 0.0071469424 -0.010224668 0.022570606 0.00464466 -0.044583026 -0.008328597
0.013040017 -0.21099028 -0.18333024 -0.32829544 0.4741633 -0.071444064 -0.044054702 0.32633042

Color_Space_Linearization.Color_Feature.0.bias f4 [16]
00000000: b6dd 82bc b1b7 29be 8b3d d73e 0ff4 373c
00000010: 3f93 f6bd 7042 14be f0ef 0d3e 4233 44be
00000020: aee7 8bbc 5d44 b03d 4ede 633d 8fa8 b0be
00000030: bef3 b8bc 5135 703d 9f5e 763e 5a2b ce3d
-0.01597486 -0.16573979 0.4203914 0.011227622 -0.12039804 -0.14478469 0.1386106 -0.19160178
-0.017078247 0.08606789 0.05563193 -0.345036 -0.022577163 0.058644596 0.24059533 0.100668624

Color_Space_Linearization.Color_Feature.1.weight f4 [8, 16, 1, 1]
00000000: b7b0 873e 74e1 7cbd b0c7 69bd 514c 33bc
00000010: b507 ef3e c075 2cbe 8107 bd3d 00bf 05bd
00000020: 3a81 debb a993 cfbc ae80 c43d a908 13bd
00000030: c3b0 4a39 1458 62bd 2785 cf3d e576 043e
00000040: b4f6 9cbd 40a4 eb3e 2875 bcbd 5a84 cabb
00000050: 2192 453e 67b9 343f 3d09 8bbe 6941 803f
00000060: 6d29 ea3b 5df4 263e 8372 683b 8dc5 0c3d
00000070: e700 c13b 387a bcbd 8cd5 43bd edb6 52bd
00000080: 93e0 94bb 303e 5c3d dd07 c33e e54d 3a3b
00000090: 08f6 e1bd 6a38 b7bd b68d fcbd 15b9 c0bc
000000a0: da47 47bb ae5e a73c 9032 83bc 5b20 05be
000000b0: fb1d 6dba 0eb7 c2bc f12f cd3d 7aeb cb3c
000000c0: 13ad 8dbd a57f 6e3e 9155 acbc 2e74 7ebb
000000d0: 89a8 7bbe bab9 ae3d 7705 9fbc 9c51 b83c
000000e0: 6b0e 693b f0af b93e 8a98 393f 5f7a cf3c
000000f0: dfc6 a7ba 16af e7bd bb99 d5bd 1827 cc3d
00000100: 5abb afbd a047 5d3e c175 82bb c675 40ba
00000110: 5c57 b0bd bd20 6a3d a806 a5be f669 9e3e
00000120: 97b3 94bb 0dd1 c73e d339 a63d a13b 283e
00000130: 6757 c73a dea8 003e fc82 113d b6a6 a4bd
00000140: 6960 193e 4c74 0c3e 5489 763c ce19 20bc
00000150: d27e eb3c db37 a83c b14f ca3d 428c 57bc
00000160: 8205 6d3b 4523 b6bd 30d7 b93d 16e8 ab3e
00000170: 6e73 913b 9817 ed3c 7ca9 193d fa47 223e
00000180: a6dc d2bd 8b38 2abe 7a67 be3d a6a7 bfbb
00000190: 32be 013e 199d f2bd 7e75 233d db71 173e
000001a0: e897 85bb e9db 7e3e 9798 69bd 87aa de3d
000001b0: 38da 13bb a8a0 2ebc 18e9 1ebf 8ff7 4e3e
000001c0: 3d65 e73b dda3 013d 5e3d 27bd 28a6 6fbc
000001d0: a581 613e a9b9 4fbd 73ef d9be 2a52 093d
000001e0: 990a 253b 4ff8 03be 4c78 903d a739 8cbc
000001f0: 1708 0bb9 1baa 07bf c484 47be beb8 16be
0.2650201 -0.061738446 -0.057075202 -0.010943488 0.46685567 -0.16841793 0.09229947 -0.032652855
-0.0067903074 -0.025338965 0.09594856 -0.03589693 0.0001933007 -0.05525978 0.10132819 0.1293598
-0.076642424 0.4602375 -0.09202033 -0.0061803283 0.19294025 0.705954 -0.27155486 1.0019962
0.0071460516 0.16304155 0.0035468645 0.034368087 0.00589 -0.09202999 -0.047811076 -0.051443983
-0.004543373 0.053770244 0.38091937 0.0028427776 -0.11033255 -0.08946307 -0.12331717 -0.023525754
-0.0030407817 0.020430889 -0.016015321 -0.13000624 -0.00090453 -0.023768928 0.1001891 0.024892557
-0.06917777 0.2329088 -0.021036895 -0.0038826573 -0.2457601 0.08531518 -0.019411786 0.022499852
0.0035561572 0.36267042 0.7249838 0.025326906 -0.0012800357 -0.11312692 -0.104297124 0.09968394
-0.08580656 0.21609354 -0.0039813225 -0.00073417684 -0.086104125 0.057160128 -0.3223164 0.30940217
-0.0045380103 0.3902668 0.08116498 0.16428997 0.0015208543 0.12564418 0.035525307 -0.0803961
0.14978184 0.13716239 0.01504739 -0.009771777 0.028746996 0.020534446 0.09878481 -0.013155999
0.0036166613 -0.08893446 0.09074247 0.33575505 0.004438809 0.028941914 0.03751515 0.1584777
-0.102959916 -0.16623132 0.0929708 -0.0058488427 0.1267021 -0.1184637 0.03990697 0.14789526
-0.0040769465 0.24888577 -0.057030287 0.10872369 -0.0022560488 -0.010658421 -0.6207442 0.20211624
0.007061629 0.031650413 -0.04083001 -0.014627017 0.22022112 -0.05071417 -0.42565498 0.033525623
0.0025183319 -0.12887691 0.07054195 -0.017117335 -0.00013259087 -0.52993935 -0.1948424 -0.14718911

Color_Space_Linearization.Color_Feature.1.bias f4 [8]
00000000: bc4f 9c3e e7c6 7a39 f994 1e3f 9753 4c3d
00000010: 33d4 35be 45b6 a7be d037 87be a302 e3be
0.30529583 0.00023915955 0.61946064 0.049884405 -0.17756729 -0.32756248 -0.2640977 -0.4433795

Color_Space_Linearization.Color_Feature.3.weight f4 [3, 8, 1, 1]
00000000: 0c55 243b 6089 693e a1b5 7b3e 5867 f43c
00000010: e990 c0be 2690 49be 2808 17be 74cc bebd
00000020: ffc7 cc3d 1fe5 fb3d c027 e7be 6db8 783e
00000030: 5b26 b4ba baf1 09bf 0909 2bbe 71af 05bf
00000040: 88c2 5d3e 45b5 fbbc 51cc 25bc 15cb 8f3e
00000050: 01e7 b8bb a157 d03c 96ce c6be 44a1 27be
0.0025075106 0.2280631 0.24581005 0.029834434 -0.37610558 -0.19683895 -0.14749205 -0.0931634
0.09999084 0.12299561 -0.45147514 0.24289103 -0.0013744341 -0.5388447 -0.16702665 -0.5222083
0.21656239 -0.030726084 -0.010119514 0.28084627 -0.005642772 0.02543241 -0.38829488 -0.16370112

Color_Space_Linearization.Color_Feature.3.bias f4 [3]
00000000: c906 e83e 79b5 513f 432b 0d3e
0.45317677 0.8191753 0.13786034

Color_Space_Linearization.gain_rate.0.weight f4 [8, 16]
00000000: 56a9 5ebe f3c5 7dbe 7ff4 933e 926d 97be
00000010: 6ece 9a3c 241e fa3d fdae 7ebd 270f 01be
00000020: 8fbf 973e 5825 133e eeeb cdbe 9a70 8cbc
00000030: ceab cbbd bf0b 32be a92b be3d f90b 7bbb
00000040: 5c6a a33c a8bb dbbd 1d5f cebe 7bf7 6b3d
00000050: 840f a3bd 8f49 b0bd 70eb 54bd 3878 b7bc
00000060: 1ff4 273e 8977 f33d 62b1 433e ff44 e6be
00000070: a464 d93c 35b0 003e 13f4 013d 7cc6 823b
00000080: 2520 96be 58b4 86be b576 9dbe f61c 643e
00000090: 5f2b 9abe 7dc9 63be 4e2a 483e 5397 3d3d
000000a0: cfd9 bdbe 8dd7 213e 4007 603d 4422 363e
000000b0: e9e2 3f3e 80eb 71be 7bc8 5a3d c477 b4be
000000c0: ab12 13be 8fc3 ab3d d6ac 4b3d e82e 643e
000000d0: 6cc8 a83d 34d0 81bd 46c3 5a3e fdb0 1ebf
000000e0: e3d9 60bd 7247 86be 9ac3 74be a88e 653d
000000f0: 7d91 493d 9d52 353d b335 df3c c89f 683e
00000100: 57c4 0abe 281b 28be 0387 dc3d f26d 053e
00000110: d8a5 f8be 27bf 8dbe 017a 323d a8c5 bf3d
00000120: 999c 4ebe 891f 9fbd d6ec 8abe 8102 fb3d
00000130: 6831 823e 8a6a 023e 3590 37be ddc6 abbe
00000140: 28e9 dabe e3f8 513e f33e 3b3d 28d5 1cbe
00000150: bb44 c43d ffcc e33d 07b1 8d3e ed44 063e
00000160: 5eea af3d baed e7be 047e f43c 03e0 b73d
00000170: 82d2 083e d3e7 debb c21b 24bd d6b0 6e3d
00000180: b037 a33d 457f 0b3f 4970 09be 5d41 0dbe
00000190: 0739 0cbc b363 53be faef cabe 22d9 f4bc
000001a0: bdc4 6dbe 84b1 49bb 4c87 793e 31ff 08bd
000001b0: 9bd5 abbd f6e6 0fbd 05f4 983e f1f9 25bd
000001c0: 46b2 363e b5dc 703e 5ace 213c c1e9 2ebe
000001d0: 33ca 723c 9f14 803e 8adf 12bd dd0f 93be
000001e0: 8a1e 853e 0d27 10be 7097 a73d bcbe fabd
000001f0: 3010 3ebe 773e 89be 670d 4e3e 560f 823d
-0.21744284 -0.24782543 0.28897473 -0.29575783 0.018897261 0.1221278 -0.0621786 -0.12603436
0.29638335 0.14369714 -0.40219063 -0.017143536 -0.099448785 -0.17387293 0.09285671 -0.0038306697
0.019948177 -0.10729152 -0.4030694 0.057609063 -0.07961944 -0.0860778 -0.051982343 -0.022396192
0.16401719 0.11888034 0.19110635 -0.44974515 0.026537247 0.12567218 0.031726908 0.0039909463
-0.293214 -0.26309466 -0.3075463 0.22276673 -0.30111215 -0.2224483 0.19547388 0.046286892
-0.37080237 0.15804882 0.054694414 0.17786509 0.18738903 -0.23624992 0.05341385 -0.35247624
-0.1436259 0.08386909 0.049725376 0.22283518 0.082413524 -0.0633854 0.21363553 -0.6198881
-0.054895293 -0.26226383 -0.23902741 0.05604425 0.049211014 0.04426824 0.027247285 0.22717202
-0.1355146 -0.1641661 0.10767939 0.13030222 -0.4856403 -0.276849 0.043573383 0.09363872
-0.20176925 -0.07769687 -0.27133816 0.12256337 0.2542832 0.12735954 -0.17926104 -0.33550158
-0.4275601 0.20505099 0.04571433 -0.15315688 0.09583422 0.11123084 0.27674124 0.1311223
0.08589624 -0.45298558 0.029845245 0.08978274 0.13361552 -0.006802538 -0.040065534 0.058274113
0.07969606 0.5449107 -0.1342174 -0.13794465 -0.008558518 -0.20643501 -0.39636213 -0.029888693
-0.23219581 -0.0030775974 0.24368018 -0.033446494 -0.083903514 -0.03513237 0.29873672 -0.040521566
0.17841443 0.23521693 0.009875858 -0.17081358 0.014818716 0.25015733 -0.035857715 -0.2872304
0.25999862 -0.14077397 0.08183181 -0.12243411 -0.18560863 -0.2680547 0.201223 0.06350581

Color_Space_Linearization.gain_rate.2.weight f4 [1, 8]
00000000: 2de8 0cbf 3359 443e 06d1 abbe 7d70 cf3e
00000010: bf22 9bbe c2ce bb3e 34c2 bdbe c1df 163f
-0.5504177 0.19174652 -0.3355791 0.4051551 -0.30299947 0.3668118 -0.37062228 0.5893517

Color_Space_Linearization.tail.0.weight f4 [3, 3, 1, 1]
00000000: b728 74be a80d 0ebf 2c04 5ebd 210c b03e
00000010: 5337 34be 19ff e43d c069 e5bd 76c4 dbbe
00000020: d7f0 a7be
-0.23843656 -0.5548959 -0.054203197 0.34384254 -0.1759923 0.111814685 -0.11201811 -0.42923325
-0.32800934

Color_Space_Linearization.tail.0.bias f4 [3]
00000000: 5f58 d13e aa9b 3ebd 65a1 f4bd
0.40887734 -0.04653517 -0.11944846

Gain_Correction.enhance_feature.0.weight f4 [3, 3, 7, 7]
00000000: 6f0e 063f 7e03 dc3e f19b ad3e 7382 ae3c
00000010: 797a 7cbe 3999 b3be f8f0 e8be 02ec 9b3e
00000020: eeb6 8b3e a30c 8d3e beee 133e c705 62bd
00000030: 8cfb 0ebe 09e5 5dbe a216 503e cbca 263e
00000040: cce6 2e3e 530a eb3d 61cb 0abc c9ce 46bd
00000050: 9864 85bd cb59 4f3e f6b8 023e 777d 0d3e
00000060: a69a 143e df76 9d3d 815c e03d f36d 2c3e
00000070: 31f8 d13c 327d 94bd a5eb a3bd ad6d 8cbc
00000080: 0906 553c 8bcf 043e af6f 883e 2e02 d9bd
00000090: e41b 56be e488 77be cd15 2abe 9598 d4bd
000000a0: 15e4 863d 7e0e 653e 14b1 97be 7713 9ebe
000000b0: f065 85be 1bdb ddbd 36c5 5d3c 08bb 6c3e
000000c0: 66c2 c83e 8265 6b3e d6e2 ad3d c2a5 a23d
000000d0: e5b5 5bbc ddd7 35be ccf3 bbbe b32a 39bf
000000e0: 8bf2 123d 5b8f 79bc 3489 853d e9d5 e23d
000000f0: b09f d73b cc4f 3cbe 1788 0fbf 962a 41be
00000100: fafb 78be e29a 48be d622 23be 577f 65be
00000110: 5bb3 b8be df8d 34bf f97e 49be a48d 9dbe
00000120: c38c 88be 38f6 16be 0bc9 29be 8bc7 55be
00000130: 3a5f e4be 4098 d83c c46c 05be dca5 94bd
00000140: 861f ed3d 4ad0 e03d fd33 fe3d f50b 7d3d
00000150: c9aa 943e b472 fe3d 76f8 3f3e 011c ce3e
00000160: a7e0 c23e f948 d43e 73d5 cb3e 04df 4c3e
00000170: 5113 df3d 5547 773e 6f58 0d3f 6e8a 233f
00000180: b657 3c3f 38f6 3a3f cd6c 3dbf 307b 82bf
00000190: 020d 84bf 5e1a 22bf 1683 59be 4c43 8ebd
000001a0: dadb 5fbe 5e7f 67bf 572f 8cbf 4d82 8bbf
000001b0: 423b 41bf ab60 8ebe e6fb afbd 3d79 8cbe
000001c0: 32b4 53bf 4007 85bf ce21 83bf 2aec 24bf
000001d0: 8731 13be 4043 8b3d 4e8c bbbd dc11 21be
000001e0: bdca fbbe 064c d1be f38f 073e 192c 0a3f
000001f0: 7c0e 373f 29d3 283f b709 d83e f3fe 133d
00000200: 8729 f93d a703 1e3f 9b79 683f 525a 893f
00000210: dc0a 8f3f 5fa4 c23e ac54 4cbd 894f 8ebc
00000220: ded9 e33e 3d1d 443f f517 7a3f c25d 823f
00000230: 844e 52be c707 0ebf 93be fabe 1e88 0cbd
00000240: 1966 c43e 17f8 2f3f f257 2e3f 76a9 99bd
00000250: c175 c2bc fa26 073e 29d6 9b3e b2a0 e33e
00000260: aabe 003f be51 ff3e 052a 13be 575d bdbd
00000270: c99e 853d b87e 7e3e f11a cf3e 47bc f33e
00000280: aa3d fd3e a741 8bbe c509 68be aecb 80bd
00000290: 21dc 073e 4b8d 9f3e 5430 d03e 4e32 e63e
000002a0: a840 bcbe 562d a8be 7cce 38be b8e4 5d3b
000002b0: b749 373e f811 903e 46c5 b13e eaee e9be
000002c0: d029 d8be 675b 8fbe 7104 ddbd d810 7c3d
000002d0: fdd9 2b3e 979a 7a3e c630 dcbe 7971 c6be
000002e0: c558 84be 446b e6bd 6d57 d33c a00f da3d
000002f0: 81d6 2d3e 1e28 b2be 2e89 9cbe fc2c 45be
00000300: e484 a6bd 6faf aa3c a9e9 913d 368f f03d
00000310: 3479 44be fac8 6fbe 5de6 1bbe e2e6 88bc
00000320: eecd bb3d 340e 033e f077 ae3d 4604 84be
00000330: 46e3 9abe a227 62be 76ef 9bbd 9418 433d
00000340: ca44 d03d 8426 b63d 7046 b5be 9b97 ccbe
00000350: e41a 9cbe 493f 14be f786 043b fc1e a73d
00000360: d561 ca3d 3b0e cbbe 6a04 e3be 49ad b8be
00000370: 3e7d 5cbe 9488 99bd 26ef e53b 5794 433d
00000380: d00d e0be 07da f6be 8492 cbbe 05d6 87be
00000390: 9eaf 0bbe b48c 7fbd 303e 87bc 2f26 bebe
000003a0: 5d75 cebe e2ce a7be b334 66be 0649 08be
000003b0: cf2e c9bd 373c a2bd 9661 89be 7c0b 97be
000003c0: cc2b 6ebe a780 2dbe 97a3 f7bd c1ce 03be
000003d0: b19c 0bbe a678 4a3e f662 a23d f4ac 4b3d
000003e0: fabc a23d 7bf5 ce3d 510e 5f3d bd1d 6cbd
000003f0: ab96 383e 4995 893d d5a0 3a3d 0f5c b13d
0.52365774 0.42971414 0.33908036 0.021302437 -0.24656095 -0.35077837 -0.45496345 0.30453497
0.27288002 0.27548704 0.14446542 -0.05518129 -0.13963145 -0.21669401 0.20321134 0.16288297
0.1708023 0.114765786 -0.008471341 -0.04853705 -0.06513327 0.20249097 0.1276587 0.13817392
0.14512119 0.076886885 0.10955144 0.16838817 0.025631042 -0.072504416 -0.0800393 -0.017142141
0.013001927 0.12969796 0.26647708 -0.10596119 -0.20909077 -0.24173313 -0.16609879 -0.10380665
0.06586472 0.2236881 -0.29627287 -0.30874225 -0.26054335 -0.10832807 0.013535788 0.23118222
0.39210814 0.22987941 0.08490531 0.07941772 -0.013410066 -0.17758127 -0.3670944 -0.7233078
0.03587584 -0.0152319325 0.0652031 0.110759564 0.0065803155 -0.18389815 -0.5606703 -0.18863901
-0.24314871 -0.19590333 -0.15931258 -0.22411858 -0.36074337 -0.7052898 -0.19677342 -0.30772126
-0.26669893 -0.14742362 -0.16580598 -0.20876901 -0.44603902 0.026439786 -0.13029772 -0.07258198
0.11578278 0.10977228 0.1241226 0.06177898 0.2903655 0.12424222 0.18747124 0.4025574
0.3806202 0.41461924 0.39811286 0.20006949 0.10892356 0.24148305 0.55213064 0.638831
0.73571336 0.7303195 -0.7399414 -1.0193844 -1.031647 -0.63321483 -0.21241412 -0.069464296
-0.2186121 -0.9042872 -1.0951947 -1.089914 -0.75481045 -0.27808127 -0.08592968 -0.27436247
-0.8269683 -1.0392838 -1.0244691 -0.6442286 -0.14374362 0.06799936 -0.0915762 -0.15729469
-0.49178115 -0.40878314 0.13238506 0.5397354 0.71506476 0.65947205 0.42194912 0.03613181
0.12166124 0.61724323 0.90810555 1.0730689 1.1175189 0.3801603 -0.049885437 -0.01737191
0.44502157 0.76607114 0.97692806 1.0184863 -0.20537764 -0.5548062 -0.48973522 -0.0343095
0.38359144 0.6873793 0.68102944 -0.07503025 -0.02373779 0.13198462 0.3043683 0.44458538
0.5029093 0.49867052 -0.14371498 -0.09246319 0.065244265 0.24853027 0.40450242 0.47604582
0.49461108 -0.27198526 -0.22659977 -0.06288849 0.13267566 0.31162485 0.4066187 0.44960254
-0.3676808 -0.3284709 -0.18047518 0.003385825 0.17899214 0.2813871 0.3472082 -0.4569009
-0.422194 -0.27999422 -0.10791863 0.0615395 0.16782375 0.24473034 -0.4300596 -0.38758448
-0.25848976 -0.11250928 0.025798524 0.106475115 0.16976358 -0.34796232 -0.3057341 -0.19255441
-0.081308156 0.020835606 0.07124645 0.11746065 -0.1918686 -0.2341651 -0.15224595 -0.016711656
0.09170137 0.12798387 0.0851897 -0.2578451 -0.3025152 -0.22085431 -0.07614033 0.04763086
0.101693705 0.08894065 -0.35405302 -0.39959416 -0.30489266 -0.14477266 0.0020222047 0.08160207
0.09881941 -0.39659294 -0.44339305 -0.36069706 -0.21532151 -0.07496753 0.007017034 0.04774889
-0.43760538 -0.48213217 -0.3976022 -0.2653047 -0.13641211 -0.062390044 -0.016509145 -0.37138507
-0.40323916 -0.32775027 -0.2248104 -0.13309106 -0.09823381 -0.07921641 -0.26832265 -0.2950095
-0.23258895 -0.16943608 -0.12091749 -0.12871839 -0.13633992 0.19772586 0.079290316 0.049725488
0.07946201 0.101054154 0.054457013 -0.057645548 0.18026225 0.06717927 0.045563538 0.08660137

Gain_Correction.enhance_feature.0.bias f4 [3]
00000000: a597 e5bc 24b2 82bd d85b 89be
-0.028026411 -0.06381634 -0.26827884
