MODELS/parameters_LOLV2_Real.pth (torch, 135851 bytes, 100 tensors)

Color_Space_Linearization.enhance_feature.0.weight f4 [3, 3, 5, 5]
0	0xbded01a4	-0.115725785
1	0x3e40b6f6	0.18819794
2	0x3db517d0	0.088424325
3	0xbde2487e	-0.11048983
4	0xbe514f2b	-0.20440356
5	0x3e9a7d52	0.30173737
6	0x3e4e6c17	0.2015842
7	0x3e0594b4	0.13045007
8	0x3e66d0b1	0.22540547
9	0x3dd80a45	0.10548834
10	0x3e0069e8	0.125404
11	0x3e70f061	0.23529197
12	0x3e91a368	0.28444982
13	0x3e21169e	0.15731284
14	0xbdab0da7	-0.08352213
15	0x3d69350c	0.056935355
16	0x3ecd745a	0.40127832
17	0x3f0014fb	0.50032014
18	0xbe70ecbc	-0.23527807
19	0x3db6a854	0.08918825
20	0x3e916df9	0.28404215
21	0x3e971aa4	0.29512513
22	0x3e0bd2da	0.13654652
23	0x3d03e691	0.032202307
24	0x3dd37d4d	0.103266336
25	0xbd67fe41	-0.05663896
26	0x3c8def78	0.017326102
27	0x3e3cb490	0.18428254
28	0x3dbfc700	0.09364128
29	0xbe58b4c9	-0.21162714
30	0x3e500769	0.20315327
31	0x3ef723b2	0.4826942
32	0x3e4321b2	0.19055822
33	0x3e398433	0.18116836
34	0xbd6d40cf	-0.057923134
35	0x3e43dda9	0.19127525
36	0x3e9ee001	0.31030276
37	0x3f150b2a	0.5822016
38	0x3d01c19e	0.03167879
39	0x3e7facff	0.24968337
40	0x3edd153e	0.4318027
41	0x3f16baa3	0.58878535
42	0x3ed57c16	0.41696233
43	0xbc40fc50	-0.011778906
44	0x3dd78491	0.10523332
45	0x3f02f7ee	0.5115956
46	0x3e5af6d7	0.21383224
47	0x3e491907	0.19638453
48	0x3e9200d6	0.28516263
49	0xbe01be7b	-0.12670319
50	0xbeb92b56	-0.36165875
51	0x3e6bfe1a	0.23046151
52	0x3e138f3b	0.14410107
53	0xbd97f649	-0.07420022
54	0x3d29c1e1	0.041444663
55	0xb906aa07	-0.00012842576
56	0x3e40eb03	0.1883965
57	0x3d61d8e8	0.0551385
58	0x3d58c695	0.052923758
59	0xbe74bbb9	-0.23899736
60	0x3dee6528	0.11640388
61	0xbcae4043	-0.021270877
62	0x3e81edd1	0.25376752
63	0x3e0872a0	0.13324976
64	0x3d9292be	0.07156895
65	0xbd89745a	-0.067116454
66	0x3efa312e	0.48865646
67	0x3e7af738	0.24508369
68	0xbe365850	-0.17807126
69	0xbc17e734	-0.009271432
70	0x3e6df6aa	0.23238626
71	0x3e019da6	0.12657794
72	0x3e199283	0.14997296
73	0x3c4838d2	0.012220578
74	0xbe02028f	-0.12696289
75	0x3df1dfe9	0.118102856
76	0x3ddde784	0.10835174
77	0xbe4a0cc6	-0.19731435
78	0xbd7b9aff	-0.061427113
79	0xbe788cda	-0.2427248
80	0x3dab23c8	0.08356434
81	0x3de42a88	0.11140925
82	0x3eddfe81	0.43358234
83	0x3d5b9dd9	0.053617332
84	0xbe6cd4d6	-0.23128065
85	0x3d5babf7	0.053630795
86	0xbdf3da8c	-0.11906919
87	0xbe545647	-0.20736037
88	0xbe6cd43d	-0.23127837
89	0xbd6f61c3	-0.058442842
90	0x3e07e825	0.1327215
91	0x3dfcf90a	0.12352188
92	0x3d680624	0.05664648
93	0xbbecfd6b	-0.007232358
94	0xbe42e384	-0.19032103
95	0x3e70adcb	0.23503797
96	0x3e774e81	0.2415104
97	0x3cb505e0	0.022097528
98	0xbbba18a8	-0.005679209
99	0x3e0b2de6	0.13591728
100	0xbd539465	-0.051655192
101	0x3d523607	0.051321056
102	0xbe29d2fa	-0.16584387
103	0xbe397447	-0.18110763
104	0xbe57b5e0	-0.21065474
105	0xbcd59f5e	-0.026076969
106	0xbe8873ff	-0.26650998
107	0xbe1f58fe	-0.15561292
108	0xbeaec1e9	-0.34132317
109	0xbf003312	-0.5007793
110	0xbd26b394	-0.040698603
111	0xbea15038	-0.31506515
112	0xbf198b1c	-0.5997789
113	0xbef5f4fc	-0.4803847
114	0x3a6ee0ef	0.0009112497
115	0xbdebe320	-0.1151793
116	0x3c815553	0.015787756
117	0xbdd22e6c	-0.102627605
118	0xbea4159e	-0.32047743
119	0xbe8ca910	-0.27472734
120	0x3d55effe	0.052230828
121	0x3e30d6f9	0.17269506
122	0xbebdea38	-0.37092757
123	0xbe934e76	-0.28770798
124	0xbdaa760a	-0.083232954
125	0xbe0a8f0d	-0.13531132
126	0xbdfb9d25	-0.12285832
127	0xbed42620	-0.41435337
128	0xbe515869	-0.20443882
129	0xbe4d9096	-0.20074686
130	0xbdc1564e	-0.094402894
131	0xbea0d03f	-0.3140888
132	0x3d069333	0.032855224
133	0xbde5b846	-0.11216788
134	0xbeda1dc9	-0.4260085
135	0xbe131090	-0.14361787
136	0xbe746567	-0.23866807
137	0xbeee4016	-0.4653327
138	0xbee9f3b3	-0.4569374
139	0xbdee3180	-0.11630535
140	0x3dd8a3e1	0.105781324
141	0xbe1e9ff1	-0.154907
142	0x3dfa4099	0.12219352
143	0xbe67ff3b	-0.22655956
144	0xbe304247	-0.17212783
145	0x3d135129	0.035966072
146	0x3c0b7b01	0.008513213
147	0xbdff8b1c	-0.12477705
148	0xbd302a13	-0.043008875
149	0xbd8042e0	-0.062627554
150	0x3e5cc38b	0.21558969
151	0x3e7b711b	0.24554865
152	0x3f054b0c	0.5206764
153	0x3de2d7e9	0.11076338
154	0x3e369dee	0.17833683
155	0x3dcd59e0	0.10026908
156	0x3e93b69c	0.28850257
157	0x3ddd5cab	0.10808691
158	0x3e2364ff	0.15956496
159	0x3e09b220	0.13446856
160	0x3ec1e5fc	0.37870777
161	0xbd778028	-0.060424954
162	0x3d649399	0.055804823
163	0x3ed61d78	0.41819358
164	0x3e1bab4f	0.15202068
165	0x3e715960	0.2356925
166	0x3eebefa4	0.4608127
167	0xbe508407	-0.20362864
168	0x3d54358c	0.05180888
169	0xbcb066d8	-0.021533415
170	0x3e272b13	0.16325025
171	0x3e58c33e	0.21168229
172	0x3eaa3145	0.33240715
173	0x3ea64c0c	0.32479894
174	0x3e819f7c	0.2531699
175	0xbeabc7eb	-0.33550963
176	0xbe611339	-0.21979989
177	0x3dba079f	0.09083485
178	0xbe96004b	-0.292971
179	0xbe7bb831	-0.24581982
180	0xbee7a2e2	-0.45241457
181	0x3da6492f	0.081194274
182	0xbf299764	-0.6624663
183	0x3d7ceff4	0.061752275
184	0xbda2fd32	-0.079584494
185	0xbe6d519f	-0.23175667
186	0xbeae592a	-0.34052402
187	0xbe89f866	-0.26947325
188	0xbe9322d4	-0.2873751
189	0xbe05beb1	-0.13061024
190	0xbe8565d4	-0.2605425
191	0xbe53c432	-0.20680311
192	0xbed0009d	-0.40625468
193	0xbe0b3445	-0.13594158
194	0x3d2ee572	0.042699285
195	0xbe917d30	-0.28415823
196	0xbe2bb93e	-0.16769883
197	0xbd0058db	-0.03133474
198	0xbe65c232	-0.22437361
199	0xbea37ef5	-0.31932798
200	0x3d0ba8e1	0.034096602
201	0x3e34ea3a	0.17667475
202	0x3e8777cb	0.26458582
203	0x3c3487f9	0.0110187465
204	0x3db56fd1	0.08859218
205	0xbdf48ff8	-0.11941522
206	0x3e3c88f7	0.18411623
207	0xbdf343e1	-0.11878181
208	0x3dcb8ed3	0.09939351
209	0xbe043fc7	-0.12914954
210	0x3d5354de	0.051594608
211	0xbe1a62a2	-0.15076688
212	0x3d5b5163	0.053544413
213	0xba9c32d2	-0.0011917001
214	0x3e4fe7f0	0.20303321
215	0x3da099ee	0.0784186
216	0x3eddaf2b	0.43297705
217	0xbe754850	-0.23953366
218	0x3e4db6ce	0.20089266
219	0x3db449ba	0.08803125
220	0xbdca899f	-0.098895304
221	0xbd604ce3	-0.054760825
222	0xbdd25560	-0.1027019
223	0x3df5a9c1	0.119952686
224	0x3eaefb47	0.34176084

Color_Space_Linearization.enhance_feature.0.bias f4 [3]
0	0xbd647c13	-0.05578239
1	0x3d72b0b8	0.059250563
2	0xbc06eb53	-0.008234817

Color_Space_Linearization.enhance_feature.1.weight f4 [16, 3, 3, 3]
0	0xbe3da622	-0.18520406
1	0xbefc29d6	-0.49250668
2	0x3d8ecf87	0.069731764
3	0xbd9c4596	-0.0763046
4	0xbded9b3a	-0.11601873
5	0xbc192cef	-0.009349092
6	0x3d882a69	0.06648714
7	0x3c0cd11e	0.008594779
8	0x3e5bde2e	0.21471474
9	0xbbff6665	-0.007794189
10	0xbdc7510b	-0.097322546
11	0xbe6e6739	-0.23281564
12	0x3e0601f7	0.13086687
13	0xbd2a7aaf	-0.041620906
14	0xbc9f5ffa	-0.019454945
15	0x3da22ae2	0.079183355
16	0xbe231c28	-0.1592871
17	0xbebc63f2	-0.36795002
18	0x3e3c9525	0.18416269
19	0xbd75a86a	-0.059975065
20	0xbd3299d6	-0.04360374
21	0xbead4737	-0.33843395
22	0x3ef83b07	0.48482534
23	0xbd78ed79	-0.060773347
24	0xbd120dd2	-0.03565771
25	0xbe282d9d	-0.1642365
26	0x3eb5d94a	0.3551734
27	0x3d338d7f	0.043836113
28	0xbeddb12c	-0.43299234
29	0xbe8cfa1a	-0.27534562
30	0x3de62cb2	0.11238994
31	0xbbd8cd76	-0.0066162897
32	0xbc45b33b	-0.012066658
33	0x3e8679c0	0.26264763
34	0x3e098f05	0.13433464
35	0xbd3884ae	-0.04504841
36	0xbe0da3f5	-0.13832076
37	0x3cfa40c1	0.030548455
38	0x3e408efb	0.18804543
39	0x3cb4397e	0.02200007
40	0x3d55c499	0.052189443
41	0x3e8068e4	0.25080025
42	0xbe56765b	-0.20943587
43	0xbe19b8db	-0.15011923
44	0xbb04ffc5	-0.0020294052
45	0x3e2588a2	0.16165403
46	0xbe359cfb	-0.17735665
47	0xbde181ed	-0.110111095
48	0xbed4ed53	-0.41587314
49	0x3eb288ac	0.34869897
50	0xbdd13c18	-0.1021654
51	0x3e713c8b	0.23558252
52	0xbd297e36	-0.04138013
53	0x3eb7d981	0.3590813
54	0xbd1cc5d2	-0.038274594
55	0xbd9ac491	-0.07557023
56	0xbdc4f600	-0.09617233
57	0x3de05c23	0.10955074
58	0x3ea34245	0.31886497
59	0x3e73ba2d	0.23801489
60	0x3e5d3874	0.21603566
61	0x3e273e0a	0.1633226
62	0x3e365a92	0.17807987
63	0x3daad3a0	0.083411455
64	0x3e147fbf	0.14501856
65	0x3e9cec53	0.3064905
66	0x3e1ce589	0.15321936
67	0x3e0d9869	0.13827671
68	0x3dde6c33	0.10860481
69	0xbe659718	-0.22420919
70	0xbd57bf7d	-0.05267285
71	0x3d8d11f9	0.06888194
72	0xbe1c0c55	-0.1523908
73	0x3d1b8927	0.037972596
74	0xbdbae972	-0.091265574
75	0x3d2a47be	0.041572325
76	0xbe88dd0e	-0.2673115
77	0x3e3b45a2	0.18288282
78	0x3e221555	0.1582845
79	0xbd585e24	-0.052824154
80	0xbe80b031	-0.25134423
81	0xbe0a8ff7	-0.1353148
82	0x3de26f4e	0.11056386
83	0xbcd8398a	-0.026394624
84	0x3e2295e0	0.15877485
85	0x3e12a0c4	0.1431914
86	0x3db2de2f	0.087337844
87	0xba6db6fa	-0.0009068098
88	0xbcc3da0c	-0.023907684
89	0x3df28e7d	0.11843584
90	0x3d1eeba5	0.038798947
91	0xbdf44ec1	-0.119290836
92	0x3cd022f6	0.025407296
93	0xbd9f6845	-0.0778356
94	0x3d9616ac	0.07328543
95	0x3d9861c7	0.074405245
96	0x3df0fad4	0.11766592
97	0x3d3c79f4	0.04601474
98	0xbe72602a	-0.23669496
99	0x3d5e7f04	0.05432035
100	0x3dcce520	0.100046396
101	0x3e817b5a	0.25289422
102	0x3e8467f5	0.25860563
103	0x3e7df29d	0.24799581
104	0xbceb784e	-0.02874389
105	0x3e85a3f6	0.26101655
106	0x3dc3e166	0.09564476
107	0x3e1e248b	0.15443628
108	0x3d95d840	0.07316637
109	0xbdf96200	-0.12176895
110	0x3ea5aa10	0.3235631
111	0xbe40f81d	-0.18844648
112	0x3d654a90	0.05597931
113	0x3e4123ce	0.18861315
114	0xbd796b88	-0.060893565
115	0x3e2edd05	0.170765
116	0x3d68d7f6	0.05684658
117	0xbe6c8d6e	-0.23100826
118	0xbe2b1413	-0.16706876
119	0xbda2062b	-0.07911333
120	0xbd1135ad	-0.03545158
121	0xbe1c680e	-0.15274069
122	0xbb4dec17	-0.0031421238
123	0xbe0d20bc	-0.13782018
124	0xbe12120b	-0.14264695
125	0xbdbf63d1	-0.0934521
126	0x3bb34a8e	0.005471534
127	0xbd90b98e	-0.07066642
128	0xbe259fee	-0.1617429
129	0xbe2e0cdb	-0.16997091
130	0x3da0fb9e	0.07860492
131	0xbea3e645	-0.3201162
132	0xbd9a35ba	-0.07529779
133	0x3c9fa43c	0.019487493
134	0xbde39af1	-0.11113537
135	0x3e884c07	0.26620504
136	0x3e147434	0.14497453
137	0x3e9202ee	0.2851786
138	0x3da2a39c	0.07941362
139	0x3e0b9e98	0.13634717
140	0xbc4e6ec4	-0.012599651
141	0xbdff320a	-0.12460716
142	0x3d29324d	0.041307736
143	0x3d9ce30e	0.07660495
144	0xbce75b86	-0.028241884
145	0xbd9c8f3f	-0.076445095
146	0x3d74c7ec	0.059760973
147	0xbc8647a3	-0.01639158
148	0xbd4a0063	-0.049316775
149	0x3dfcb841	0.12339831
150	0x3cbda664	0.02315063
151	0xbd38d9ce	-0.04512959
152	0x3de8d897	0.11369436
153	0xbdf006a0	-0.117200136
154	0x3e145cbf	0.14488505
155	0xbe4f55dc	-0.20247597
156	0xbdf9a477	-0.12189572
157	0x3d2fd39e	0.042926423
158	0xbd1691db	-0.036760192
159	0xbe7da4dd	-0.24769922
160	0x3cbd68de	0.023121294
161	0x3d004dd1	0.03132421
162	0x3e4c7440	0.19966221
163	0xbda7537f	-0.081702225
164	0xbe4a328b	-0.19745843
165	0x3e3a4548	0.18190491
166	0x3d6b55ed	0.057454992
167	0x3d034e93	0.032057356
168	0x3e935fe4	0.28784096
169	0x3e99a514	0.30008757
170	0xbcce2973	-0.025166249
171	0x3e73b938	0.23801124
172	0x3ea23103	0.31678018
173	0x3eae1f6c	0.34008348
174	0x3dfb440e	0.1226884
175	0x3cc99887	0.024608864
176	0x3e601e3b	0.21886532
177	0xbed8a7e4	-0.4231559
178	0xbe0f9640	-0.1402216
179	0x3e502c93	0.20329504
180	0xbdbe605b	-0.09295722
181	0xbd76b438	-0.060230464
182	0xbd815fd6	-0.063171074
183	0xbb9c57e1	-0.004771218
184	0x3dae0a17	0.08498018
185	0xbe6c5214	-0.23078185
186	0x3dbc0175	0.091799654
187	0x3d5177e7	0.05113974
188	0xbd8dc7d3	-0.06922879
189	0x3edf5215	0.4361731
190	0xbe3a7dac	-0.18212003
191	0x3da0b440	0.0784688
192	0x3da5af05	0.08090023
193	0xbd8c301a	-0.06845112
194	0xbe1740b2	-0.14770773
195	0x3e4d38bd	0.20041175
196	0xbd292bc3	-0.0413015
197	0xbecc3541	-0.3988438
198	0xbe9b7ff8	-0.3037107
199	0x3d60622e	0.05478113
200	0xbd73a2fe	-0.059481613
201	0x3eacefb4	0.3377663
202	0x3dfd91e9	0.12381346
203	0x3e20c2ae	0.15699264
204	0xbe4f7513	-0.20259504
205	0x3e6977b2	0.22799566
206	0x3eb68966	0.35651702
207	0x3e25df29	0.1619841
208	0x3e21518d	0.15753765
209	0xbdd89d74	-0.10576907
210	0xbe94abb9	-0.29037264
211	0x3f0087d1	0.5020724
212	0xbd2d4fd7	-0.04231247
213	0x3e2d33d4	0.16914302
214	0xbdb260be	-0.08709858
215	0xbd3e9bf4	-0.046535447
216	0xbe0793e3	-0.13240008
217	0x3e26c7d4	0.16287166
218	0x3c19e633	0.009393263
219	0x3c6f9ff7	0.014625541
220	0xbdcd45cc	-0.10023078
221	0x3dd1232f	0.10211789
222	0x3cf4e9a0	0.029896557
223	0xbda85b36	-0.08220522
224	0x3d870cbc	0.06594226
225	0x3d1bf4ce	0.03807526
226	0x3d636198	0.055512995
227	0x3dc5be19	0.09655399
228	0x3ceb6f0a	0.028739471
229	0x3d76ebe5	0.06028356
230	0xbdd326be	-0.10310124
231	0x3e1fb9d9	0.15598239
232	0x3df84fdc	0.12124607
233	0x3eb72eb2	0.35777813
234	0x3e577175	0.21039374
235	0x3ecba3ba	0.3977335
236	0x3ec7b9f2	0.39009053
237	0x3f1021f5	0.56301814
238	0xbe1afcf4	-0.15135556
239	0x3f00de41	0.5033913
240	0x3ecab0cb	0.39588007
241	0x3ec91f72	0.39281803
242	0x3e78d547	0.24300109
243	0x3e1779af	0.14792512
244	0xbe77d4bb	-0.24202244
245	0xbd6a3f57	-0.05718931
246	0xbe82256e	-0.25419182
247	0xbd835782	-0.06413175
248	0xbdab6aa6	-0.08369951
249	0x3bc8a0f9	0.006122705
250	0xbd57aeb4	-0.052656844
251	0xbe665e27	-0.22496854
252	0xbe85ee42	-0.2615834
253	0xbe9c0395	-0.30471483
254	0xbe46cdc2	-0.19414428
255	0x3ece3278	0.4027288

Color_Space_Linearization.enhance_feature.1.bias f4 [16]
0	0x3c18f150	0.009334877
1	0x3c88ec5c	0.016714267
2	0xbd9fefd0	-0.078094125
3	0xbd9a56cf	-0.07536089
4	0xbd6f489b	-0.05841885
5	0xbd1f520d	-0.03889661
6	0xbd11c573	-0.035588693
7	0x3d1c0f8e	0.03810077
8	0xbc6acc1d	-0.014330891
9	0x3b901485	0.0043969774
10	0xbce5d430	-0.02805528
11	0xbbc574c4	-0.0060258824
12	0xbd8a989d	-0.0676739
13	0xbc215b67	-0.009848452
14	0xbc568cfb	-0.013095136
15	0x3d11f7b4	0.03563662

Color_Space_Linearization.enhance_feature.3.weight f4 [64, 16, 1, 1]
0	0xbe70f02f	-0.23529123
1	0xbf1e8773	-0.6192543
2	0xbe24f0d4	-0.16107494
3	0x3dec4e3a	0.11538358
4	0xbdbe43b0	-0.09290254
5	0x3b88d3c5	0.0041756355
6	0xbea016a8	-0.31267285
7	0xbeab284e	-0.33429188
8	0x3ed98964	0.42487633
9	0xbeba9a09	-0.36445644
10	0x3dd6f920	0.104967356
11	0x3d7ff39d	0.062488187
12	0xbd1adde1	-0.037809256
13	0xbd2012d9	-0.039080475
14	0x3e99ab1f	0.30013368
15	0xbee3751a	-0.4442528
16	0xbe0671a3	-0.13129286
17	0xbd609494	-0.054829195
18	0xbdde32d2	-0.10849537
19	0xbe1adbae	-0.15122864
20	0xbe5b465c	-0.21413559
21	0xbca34df7	-0.019934637
22	0x3d932e21	0.07186533
23	0x3e14f003	0.14544682
24	0x3e8b827f	0.27247998
25	0x3e6afba0	0.2294755
26	0xbeb76b13	-0.3582388
27	0x3e3874b5	0.1801327
28	0x3c869d20	0.016432345
29	0xbd9ecb9d	-0.0775368
30	0x3b981783	0.0046414747
31	0xbde94d9d	-0.11391757
32	0x3d888f50	0.0666796
33	0x3bb59671	0.0055416157
34	0x3db5afd1	0.08871425
35	0x3ec1644a	0.37771827
36	0x3eb51d0a	0.35373718
37	0x3e0148d8	0.12625444
38	0x3da6088f	0.08107101
39	0x3e4860f5	0.19568236
40	0x3da32533	0.079660796
41	0x3e07aa65	0.13248594
42	0x3d4c089d	0.0498129
43	0xbdd23f7e	-0.102660164
44	0x3d8a8280	0.06763172
45	0xbe5b1ce0	-0.21397734
46	0xbe8e182f	-0.27752826
47	0x3e647a38	0.22312248
48	0x3ea63a72	0.32466465
49	0x3ec98311	0.39357808
50	0x3c8778b5	0.01653705
51	0x3de4e8e0	0.1117723
52	0xbe863960	-0.2621565
53	0xbed2b2a3	-0.41151914
54	0xbdabb4fe	-0.08384131
55	0xbd425a2b	-0.047449272
56	0x3dfd50a5	0.12368897
57	0x3e9db6f3	0.30803642
58	0xbe8f85e8	-0.2803185
59	0x3e0cb6bd	0.13741584
60	0xbeef7523	-0.46769056
61	0xbdb1e865	-0.08686904
62	0x3e9779d5	0.29585138
63	0x3e8fe1be	0.28101915
64	0x3ef283e0	0.47366238
65	0x3e574fc5	0.21026523
66	0xbe4feebc	-0.20305914
67	0x3d5fa46f	0.054600175
68	0xbe16b070	-0.14715743
69	0xbe107848	-0.14108384
70	0xbe3a7f84	-0.18212706
71	0xbed3934c	-0.41323316
72	0x3e85fa56	0.26167554
73	0xbd806165	-0.062685765
74	0xbe1cff67	-0.15331803
75	0x3e560c2b	0.20903079
76	0x3d8f1ed0	0.06988299
77	0xbe14e7e0	-0.14541578
78	0xbda28afc	-0.079366654
79	0xbe905537	-0.28190014
80	0x3e9d8e97	0.3077285
81	0x3c386231	0.011253879
82	0x3e4c2d45	0.19939144
83	0xbddc5c41	-0.107597835
84	0x3e172671	0.14760758
85	0xbd2e7e47	-0.042600896
86	0xbd6f8716	-0.058478437
87	0xbe8dae6c	-0.27672136
88	0x3e0547cc	0.1301567
89	0x3d58e406	0.052951835
90	0x3c0b1446	0.00848872
91	0xbe905e36	-0.28196877
92	0x3d4956b0	0.049154937
93	0x3e655fc2	0.2239981
94	0xbe0a0e2f	-0.13481973
95	0x3e818a78	0.25300956
96	0xbcb2c80d	-0.021823907
97	0x3e7f5b25	0.24937113
98	0x3eaf7db5	0.34275594
99	0x3e3172e5	0.17328985
100	0xbdd48f8a	-0.103789404
101	0xbd717253	-0.05894692
102	0x3ebd408f	0.36963317
103	0xbe856351	-0.26052335
104	0xbdf9bc69	-0.121941395
105	0xbd8790a1	-0.06619383
106	0x3d0da46b	0.03458063
107	0x3e90815a	0.28223687
108	0x3dac10ad	0.08401618
109	0xbe339c8c	-0.17540187
110	0x3e4c11ef	0.19928716
111	0xbf33b412	-0.7019664
112	0xbf10c0b2	-0.5654403
113	0xbe6fea90	-0.23429322
114	0xbe1602e8	-0.14649546
115	0x3cf4e463	0.02989406
116	0xbcf5cce7	-0.030004932
117	0x3d89a051	0.06720031
118	0xbebe11c8	-0.3712294
119	0xbb3fd2aa	-0.0029269853
120	0x3dc1a25c	0.09454796
121	0xbe6cab33	-0.23112182
122	0xbb59c4aa	-0.0033228793
123	0x3de7b528	0.1131385
124	0x3e65db47	0.22446929
125	0xbd801d72	-0.06255616
126	0x3ec0589f	0.37567613
127	0xbd826dc7	-0.063685946
128	0xbe52e738	-0.20596015
129	0xbdcebc8c	-0.10094556
130	0xbda0cd47	-0.078516535
131	0xbe304679	-0.17214383
132	0xbe7b3aff	-0.24534224
133	0x3e12439f	0.14283608
134	0xbe584166	-0.21118698
135	0xbb464f18	-0.0030259546
136	0xbe9c594b	-0.30536875
137	0xbd4978c1	-0.049187426
138	0x3e2c076c	0.16799706
139	0xbddc7b93	-0.107657574
140	0x3c7f6f20	0.015590459
141	0x3e2c7a8c	0.16843623
142	0xbe983f22	-0.29735667
143	0xbe314888	-0.17312825
144	0x3eaf063b	0.3418444
145	0x3f4a420d	0.79007035
146	0x3eaa39e1	0.33247283
147	0x3d2a66dc	0.041602
148	0x3e6ad0e7	0.22931252
149	0xbd803aaf	-0.06261193
150	0x3e5b0fa7	0.2139269
151	0xbd8d6332	-0.06903686
152	0xbe2cf2c7	-0.16889487
153	0x3b36fe7e	0.0027922685
154	0xbda0ba45	-0.07848028
155	0x3bff3020	0.0077877194
156	0xbcc87357	-0.02446906
157	0xbea7a1ea	-0.32740718
158	0x3c18354c	0.009290051
159	0x3ea5dcca	0.3239501
160	0x3e97d4f9	0.29654673
161	0x3f036e57	0.5134024
162	0x3dcd0bfb	0.10012051
163	0x3e31c867	0.17361604
164	0x3dd0b2a8	0.10190326
165	0x3da3e3de	0.080024466
166	0x3e790466	0.24318084
167	0x3e50c415	0.203873
168	0xbe907558	-0.28214526
169	0x3e5b0450	0.21388364
170	0x3d92dab5	0.07170621
171	0x3d9c2509	0.076242514
172	0xbe697a30	-0.22800517
173	0xbee5234e	-0.44753498
174	0xbd10ae33	-0.03532238
175	0xbe9b7a5e	-0.30366796
176	0xbe42ab8b	-0.19010751
177	0xbe8e6a3b	-0.27815422
178	0xbe983471	-0.2972751
179	0xbdd0deef	-0.10198771
180	0xbd1ce29c	-0.03830205
181	0xbd71445d	-0.058903087
182	0xbea0b09c	-0.31384742
183	0x39980daa	0.0002900188
184	0x3e9415bb	0.2892283
185	0xbe1193db	-0.14216559
186	0xbe417906	-0.18893823
187	0x3e05b504	0.13057333
188	0xbe8c4ed1	-0.27403882
189	0x3e13d59e	0.14436957
190	0x3e4f0f2e	0.20220634
191	0xbd49651b	-0.049168687
192	0x3d66919e	0.056291215
193	0xbe25e5c6	-0.16200933
194	0xbea4021f	-0.32032868
195	0xbc8e6996	-0.017384332
196	0x3b692dd4	0.0035580294
197	0x3df9e881	0.1220255
198	0xbedbc976	-0.4292714
199	0xbe8d43ba	-0.27590734
200	0x3e1c3c42	0.15257362
201	0xbdc3b272	-0.0955552
202	0x3e139fe2	0.14416459
203	0x3a9e385d	0.0012071241
204	0xbe7c0a06	-0.24613199
205	0xbc424ce5	-0.011859153
206	0xbd02d823	-0.031944405
207	0xbe95b10a	-0.29236633
208	0xbe043c69	-0.1291367
209	0x3e283966	0.16428146
210	0xbecccf3d	-0.4000186
211	0x3dc8c0f0	0.09802425
212	0x3d87e83b	0.06636091
213	0x3e35d139	0.17755593
214	0xbe8a1ef9	-0.26976755
215	0x3ec12b7b	0.37728485
216	0xbec981af	-0.39356753
217	0x3e1fb9d6	0.15598235
218	0x3d9b7149	0.07589967
219	0xbe5984df	-0.21242093
220	0xbe4719a7	-0.1944338
221	0xbe4d8add	-0.20072503
222	0xbd86fc07	-0.06591039
223	0xbc050a82	-0.008120181
224	0xbe99fbcb	-0.30074915
225	0xbea3de7c	-0.3200568
226	0xbdc5fbef	-0.09667193
227	0xbc2265fb	-0.009912009
228	0xbe8ae5c7	-0.2712843
229	0xbd45e060	-0.048309684
230	0xbe6dd71f	-0.23226593
231	0xbc860a77	-0.016362412
232	0x3d11d2b6	0.03560134
233	0x3e0fbe7a	0.14037505
234	0xbe429666	-0.19002685
235	0x3da2281b	0.07917806
236	0x3c522c4d	0.012827945
237	0x3e2b489c	0.16726917
238	0x3d550327	0.05200496
239	0x3da02a92	0.0782062
240	0xbec11ce2	-0.37717348
241	0xbee31d38	-0.4435823
242	0x3e80620e	0.2507481
243	0xbc1a8df9	-0.009433263
244	0xbe9bdd9f	-0.3044252
245	0xbd5d47e3	-0.054023635
246	0x3daf347b	0.08554932
247	0xbf0a1787	-0.5394215
248	0x3ddf6f66	0.109099194
249	0xbd518381	-0.051150803
250	0xbd2d43bc	-0.042300925
251	0x3e866b10	0.26253557
252	0x3e49f1aa	0.19721094
253	0x3dfa9942	0.12236263
254	0x3e50c220	0.20386553
255	0xbef9b5df	-0.4877157

Color_Space_Linearization.enhance_feature.3.bias f4 [64]
0	0xbd02ad3c	-0.03190349
1	0x3dc9511a	0.09829922
2	0x3d555fde	0.05209338
3	0xbc5f2a4c	-0.013620924
4	0x3da0ee42	0.07857944
5	0x3ca4d088	0.020118967
6	0xbc52a201	-0.012856008
7	0x3e05a87c	0.13052553
8	0x3da9d512	0.08292593
9	0x3aea79f2	0.0017889126
10	0x3cafb4a3	0.021448439
11	0x3c999779	0.018748986
12	0x3e34a154	0.17639667
13	0x3de30e45	0.11086706
14	0xbe1faaa7	-0.15592442
15	0xbda876a7	-0.08225756
16	0xbd90e50a	-0.07074936
17	0x3bd50975	0.0065013715
18	0xbcb2e816	-0.021839183
19	0xbc4eb6a9	-0.012616792
20	0xbdedf4ce	-0.116189584
21	0x3d03c1d7	0.032167282
22	0xbdf77493	-0.12082782
23	0xbe0571dd	-0.13031717
24	0x3d135d8c	0.035977885
25	0x3d61e9e0	0.05515468
26	0x3d82e611	0.06391538
27	0x3d892fdc	0.066985816
28	0x3d9082de	0.07056211
29	0xbe0cf9e0	-0.13767195
30	0xbd3ea198	-0.046540827
31	0x3c922f14	0.017844714
32	0x3d5bf363	0.05369891
33	0x3d4b353b	0.04961131
34	0xbda6cea2	-0.08144881
35	0x3d97dc22	0.07415034
36	0xbdc1e7b1	-0.0946802
37	0x3d6c2007	0.05764773
38	0xbd72010a	-0.059083022
39	0x3df75cfd	0.12078283
40	0x3e3d17cd	0.1846611
41	0x3d85a22a	0.06525071
42	0x3d898179	0.06714148
43	0xbc52697d	-0.012842533
44	0x3e196705	0.14980705
45	0xbe0b846e	-0.13624737
46	0x3c36dc91	0.011160986
47	0xbd4a5d83	-0.049405586
48	0xbd76d0d0	-0.060257733
49	0xbce070f9	-0.02739762
50	0x3d69b612	0.0570584
51	0x3e2abf7f	0.16674612
52	0x3dc1321e	0.09433387
53	0x3e51a6b1	0.20473744
54	0x3def85d8	0.116954505
55	0xbd0f43a0	-0.0349766
56	0xbd19cfee	-0.037551813
57	0x3e153bf2	0.14573649
58	0xbd3cd900	-0.046105385
59	0x3d313fd3	0.04327376
60	0x3dd20701	0.10255242
61	0xbab8218e	-0.0014048086
62	0xbc7b5581	-0.01534021
63	0xbc5b5fc2	-0.01338953

Color_Space_Linearization.enhance_feature.4.weight f4 [32, 64, 1, 1]
0	0x3e1d8e93	0.15386419
1	0x3ea12b97	0.3147857
2	0xbf0f7cf9	-0.5605007
3	0x3f8283d5	1.0196482
4	0x3e39acca	0.1813232
5	0xbee2bac9	-0.4428313
6	0x3c720407	0.014771468
7	0xbe1d00a7	-0.1533228
8	0xbed7f8b3	-0.4218193
9	0xbd878304	-0.06616786
10	0xbcfed169	-0.031105714
11	0x3f0b54ba	0.5442616
12	0xbe916143	-0.28394517
13	0xbcf77966	-0.030209254
14	0x3f0519aa	0.51992285
15	0x3df85b55	0.12126795
16	0x3e37b3f0	0.17939734
17	0xbe8f7baa	-0.28024036
18	0xbc27bea3	-0.010238322
19	0x3dd3d26c	0.10342869
20	0xbedb46c5	-0.4282743
21	0x3ef2fc31	0.47458032
22	0x3e072fca	0.13201824
23	0x3e5959ef	0.21225713
24	0x3ece01d6	0.40235776
25	0x3d13a049	0.03604153
26	0xbdbdf91e	-0.09276031
27	0xbd8b3878	-0.0679788
28	0xbe0bf126	-0.1366621
29	0xbed7ceae	-0.42149872
30	0xbe787f90	-0.24267411
31	0xbe9d46a2	-0.3071795
32	0x3eced7a4	0.40398896
33	0xbdd093d7	-0.10184448
34	0xbe13ec83	-0.14445691
35	0xbdc63e82	-0.09679891
36	0x3ec01c17	0.3752143
37	0xbdb33da4	-0.087519914
38	0x3eefcc54	0.46835577
39	0xbf2a86d5	-0.6661199
40	0x3e7891a6	0.2427431
41	0xbf0a8cb9	-0.54120976
42	0x3e5aecb6	0.2137936
43	0x3e7ac3c7	0.24488746
44	0x3ef5215f	0.47877023
45	0xbe088aa3	-0.13334136
46	0x3dd028cc	0.101640314
47	0xbda99f3c	-0.08282325
48	0xbdc7cd95	-0.097560085
49	0x3e0c0aed	0.13676043
50	0xbedce64d	-0.43144456
51	0xbdf69b7c	-0.12041375
52	0xbd97d60a	-0.074138716
53	0xbe64293f	-0.22281359
54	0x3cd1464c	0.025546215
55	0x3d90fe34	0.070797354
56	0x3d3cf8b0	0.046135604
57	0xbf30aa31	-0.6900969
58	0x3f21588b	0.6302573
59	0xbf0f8958	-0.56068945
60	0xbe1a763c	-0.15084165
61	0x3e8d0168	0.27540135
62	0x3f2464b1	0.6421614
63	0x3f1cda90	0.61271
64	0x3e6f9809	0.2339784
65	0x3ca82c72	0.020529006
66	0xbe387cb0	-0.18016315
67	0xbb8a7918	-0.0042258613
68	0x3f4b439a	0.79400027
69	0xbe633dd7	-0.22191559
70	0x3ef8d6c5	0.48601356
71	0xbe1eb7bd	-0.15499778
72	0x3e58e2a8	0.21180212
73	0xbdd074aa	-0.10178502
74	0x3e6797c3	0.22616486
75	0x3e146a15	0.14493592
76	0x3eb89909	0.36054257
77	0x3e059af0	0.13047385
78	0x3d097d02	0.033566482
79	0x3e66bb05	0.2253228
80	0xbee37234	-0.44423068
81	0x3d34c52d	0.044133354
82	0x3e6a7292	0.22895268
83	0x3e966818	0.29376292
84	0xbee98542	-0.4560948
85	0x3dbbcb81	0.09169675
86	0x3f185205	0.5950015
87	0xbeaa4c3a	-0.3326128
88	0xbdd05565	-0.10172538
89	0xbe9ae104	-0.30249798
90	0x3c4a9d8a	0.012366662
91	0x3fa0c326	1.2559555
92	0x3ea2ae86	0.31773776
93	0xbec2ca5f	-0.38045022
94	0x3e5bd522	0.21468022
95	0x3dcf72f5	0.10129348
96	0xbe005f33	-0.12536316
97	0x3e798885	0.24368484
98	0xbdb15006	-0.086578414
99	0x3ec95369	0.3932145
100	0x3e37a503	0.1793404
101	0xbe5e58e4	-0.21713597
102	0xbc9b3246	-0.01894487
103	0xbe873e89	-0.26414898
104	0xbf19c53e	-0.6006659
105	0x3e0ad5da	0.1355814
106	0x3d4a962f	0.049459632
107	0xbe33fc0c	-0.17576617
108	0x3db08d1d	0.08620665
109	0x3e6177da	0.22018376
110	0x3eba2325	0.36354938
111	0x3eb23957	0.34809372
112	0x3d3eb1d4	0.04655631
113	0xbe3dda34	-0.18540269
114	0xbe1e69e8	-0.15470088
115	0x3e45235b	0.19251768
116	0xbe89646a	-0.26834422
117	0xbd4d97b4	-0.050193503
118	0xbec5668e	-0.38554806
119	0xbec2a8bb	-0.38019356
120	0x3c5170c6	0.012783235
121	0xbde74e2d	-0.11294208
122	0x3b34011e	0.0027466486
123	0x3d08205e	0.033233993
124	0x3ea61b19	0.3244255
125	0x3d71f746	0.05907371
126	0x3e21a7f4	0.15786725
127	0xbdd3d178	-0.10342687
128	0xbf2c7f42	-0.6738168
129	0x3e5e7d15	0.21727403
130	0x3e903808	0.28167748
131	0x3ea2ca1a	0.31794816
132	0xbd60a542	-0.054845102
133	0xbdb72ab6	-0.08943693
134	0xbcc7598f	-0.024334697
135	0xbf748b47	-0.9552502
136	0xbd265c62	-0.040615447
137	0x3ec70bfa	0.38876325
138	0x3eabc7bb	0.3355082
139	0xbe3d8e22	-0.1851125
140	0xbf08aad1	-0.53385645
141	0xbdf9ce4b	-0.121975504
142	0x3e25a56f	0.16176389
143	0xbe1ac986	-0.15115938
144	0xbd1de7ac	-0.038551018
145	0xbeca12ca	-0.3946746
146	0x3e8198fa	0.25312024
147	0xbf4e22f3	-0.8052208
148	0xbc76dbda	-0.015067065
149	0xbe6d07ba	-0.23147479
150	0xbe42df6a	-0.19030538
151	0x3c9f0324	0.019410677
152	0x3e9dd2b7	0.30824825
153	0x3f250dde	0.64474285
154	0x3f0a773e	0.540882
155	0xbeab88da	-0.33502847
156	0xbeb7e393	-0.35915813
157	0xbcdccaee	-0.026952233
158	0xbe0b4957	-0.13602196
159	0x3f147191	0.5798579
160	0x3d8771df	0.06613516
161	0x3f444c91	0.7667933
162	0x3e99e512	0.3005758
163	0x3e6840c4	0.22680956
164	0xbca24840	-0.019809842
165	0xbeb6ab11	-0.35677388
166	0x3e59b8b7	0.2126187
167	0x3e47be19	0.1950611
168	0x3e2218b1	0.15829732
169	0x3c0b9cca	0.008521268
170	0x3d245c74	0.040127233
171	0x3e7045f4	0.23464185
172	0xbd692843	-0.056923162
173	0x3df7a610	0.12092221
174	0xbcc8d8c4	-0.024517424
175	0x3e877ee4	0.26463997
176	0xbe5c3ce0	-0.21507597
177	0xbe8d415e	-0.27588934
178	0xbea499b1	-0.32148507
179	0x3d3b222c	0.045686886
180	0x3f18e519	0.59724575
181	0xbdc5f8ad	-0.09666572
182	0x3f162cf3	0.5866234
183	0xbf1ed17f	-0.62038416
184	0xbe8357d3	-0.25652942
185	0x3e57ce0c	0.21074694
186	0xbdad547d	-0.084633805
187	0xbe9cd1ad	-0.3062872
188	0xbed40d9a	-0.41416627
189	0x3ecd841c	0.40139854
190	0x3f039b91	0.5140925
191	0x3dcce997	0.10005491
192	0x3e2a9526	0.16658458
193	0x3ed5e8d8	0.41779208
194	0x3dcaa27d	0.098942734
195	0x3e15ef31	0.14642026
196	0x3e12b4d4	0.14326793
197	0x3df229b8	0.118243635
198	0xbe32e307	-0.17469417
199	0x3df898a6	0.121384904
200	0xbe2d8380	-0.16944695
201	0xbda36281	-0.079777725
202	0x3ca60362	0.020265285
203	0x3e4d7067	0.2006241
204	0x3d1010ac	0.03517215
205	0xbec23db1	-0.37937692
206	0xbd00f434	-0.03148289
207	0x3cb3b1ce	0.02193537
208	0xbd214c36	-0.03937932
209	0x3e8f3058	0.2796657
210	0xbe3d6e4c	-0.18499106
211	0xbdbc5b72	-0.09197129
212	0xbe5b1202	-0.21393588
213	0x3e8ece96	0.27891988
214	0x3df0ef59	0.11764402
215	0xbe9eb4d6	-0.30997342
216	0xb9d5322a	-0.000406639
217	0x3eb55207	0.35414144
218	0x3e50d5f2	0.20394114
219	0x3db6d49b	0.0892727
220	0x3e9fe9ac	0.31232965
221	0xbf065212	-0.5246898
222	0xbeaa7fec	-0.33300722
223	0x3de20df4	0.110378176
224	0x3e599a98	0.21250379
225	0xbdb40e04	-0.08791736
226	0x3cdeaf83	0.0271833
227	0xbe4da7db	-0.20083563
228	0x3d84e6a0	0.06489301
229	0xbe85a5a2	-0.2610293
230	0x3d8f51e7	0.069980435
231	0x3d83ca40	0.064350605
232	0xbdbbb9b3	-0.09166279
233	0xbf0820ff	-0.5317535
234	0x3e271711	0.16317393
235	0x3e8f5121	0.27991584
236	0x3e9257a4	0.2858249
237	0xbe84e3fb	-0.25955185
238	0x3e6b3cbd	0.22972389
239	0xbdada935	-0.08479539
240	0xbc879b0e	-0.016553428
241	0x3e1e3768	0.15450823
242	0xbe242828	-0.16030943
243	0x3f304a32	0.68863213
244	0x3e3ba71b	0.18325464
245	0x3dd6145a	0.104531005
246	0x3c8b1ea1	0.016982378
247	0xbe65e1fc	-0.22449487
248	0xbda9b074	-0.08285609
249	0xbdb6b1fe	-0.08920668
250	0xbca5288f	-0.020160941
251	0xbeafd36f	-0.34341
252	0x3e77e674	0.24209005
253	0x3cfe4cf3	0.031042552
254	0x3e7b3c48	0.24534714
255	0x3e8ba6a9	0.2727559

Color_Space_Linearization.enhance_feature.4.bias f4 [32]
0	0xbc223d6f	-0.009902342
1	0x3d8b41e6	0.067996785
2	0x3d917b24	0.07103565
3	0x3e0c33e2	0.13691667
4	0xbe318618	-0.17336309
5	0x3dbb5115	0.091463245
6	0xbd4995c4	-0.049215093
7	0x3e7883d3	0.24269037
8	0xbda02bca	-0.07820852
9	0x3d391e6b	0.045195024
10	0xbd198149	-0.03747681
11	0xbe0d0057	-0.13769661
12	0xbd9ce4b8	-0.07660812
13	0xbddd043b	-0.107918225
14	0x3db30b8d	0.087424375
15	0xbbbbd411	-0.0057320674
16	0x3db87d31	0.09008253
17	0x3cb9c7e0	0.022678316
18	0xbd8702c4	-0.065923244
19	0x3cdda9da	0.02705853
20	0xbe2e233b	-0.17005627
21	0xbe476680	-0.19472694
22	0x3c2019ef	0.009771808
23	0xbbd905f5	-0.0066230246
24	0xbe02591d	-0.12729307
25	0xbe7186cf	-0.23586582
26	0xbdb8cf82	-0.09023954
27	0x3d68781f	0.05675518
28	0xbe8c3fd7	-0.27392456
29	0x3d490e84	0.04908611
30	0x3e392d25	0.18083628
31	0x3d038159	0.032105777

Color_Space_Linearization.Color_Feature.0.weight f4 [16, 16, 3, 3]
0	0xbe20c01b	-0.15698282
1	0xbe06159d	-0.13094182
2	0xbc54a138	-0.012977891
3	0xbe4703dc	-0.19435066
4	0xbe5ae3a0	-0.21375895
5	0xbd2c73e8	-0.042102724
6	0xbaab1de6	-0.0013055175
7	0xbdd053ba	-0.101722196
8	0xbdec6708	-0.11543089
9	0x3e0547e1	0.13015701
10	0x3d9d5b87	0.07683473
11	0xbe83fe1a	-0.25779802
12	0x3e0bd28e	0.13654539
13	0xbd55b042	-0.052170046
14	0x3e5d443f	0.21608065
15	0xbe0d9d20	-0.1382947
16	0x398f2124	0.00027299777
17	0xbe287e39	-0.164544
18	0xbcc23b0f	-0.023709802
19	0xbe10900c	-0.1411745
20	0xbe2afb55	-0.16697438
21	0xbc8d2e81	-0.017234089
22	0x3e184433	0.14869766
23	0x3d8ac34b	0.067755304
24	0xbcadac82	-0.021200422
25	0xbd99553b	-0.074869595
26	0xbced143c	-0.028940313
27	0x3e0e630e	0.13904974
28	0x3e95e920	0.29279423
29	0x3eabd90c	0.3356403
30	0x3df576ff	0.11985587
31	0x3e0fb6f1	0.1403463
32	0x3ead971b	0.33904347
33	0x3e286a09	0.16446699
34	0x3dacd78b	0.08439549
35	0x3e7157da	0.23568669
36	0x3e322f67	0.17400895
37	0xbe2bfafe	-0.16794965
38	0xbe6b3817	-0.22970615
39	0xbc956fa7	-0.018241717
40	0xbe06ea63	-0.13175349
41	0x3d270e13	0.040784907
42	0x3d2288ee	0.039681368
43	0x3d9f4424	0.07776669
44	0xbdd3fb75	-0.10350696
45	0xbe1feea9	-0.15618385
46	0x3cae5502	0.02128077
47	0x3e2c3564	0.16817242
48	0xbdcc2137	-0.09967273
49	0x3e3d064a	0.1845943
50	0x3c7bd598	0.015370749
51	0xbe3ade36	-0.18248829
52	0x3d30da9e	0.04317724
53	0x3d13e6c2	0.03610874
54	0x3d0d4988	0.034493953
55	0x3e82920c	0.2550205
56	0xbc502b49	-0.0127056325
57	0xbcda7100	-0.02666521
58	0xbd8c16c2	-0.06840278
59	0x3e3abd59	0.18236293
60	0x3d844e17	0.06460207
61	0xbd4db3ea	-0.050220408
62	0x3d111c2b	0.035427254
63	0x3e46e826	0.19424495
64	0x3eafbce2	0.34323794
65	0x3d47f0d3	0.048813652
66	0x3e27f371	0.1640146
67	0x3e8b2e0d	0.2718357
68	0x3e49b6c1	0.19698621
69	0x3e28fee0	0.16503477
70	0x3ecd2505	0.40067306
71	0x3e63c0d0	0.22241521
72	0x3db60951	0.08888496
73	0x3bea38fa	0.0071479054
74	0xbd557f1a	-0.052123167
75	0xbdd9bfca	-0.10632284
76	0x3d2d22ff	0.042269703
77	0xbc024404	-0.0079507865
78	0xbd9ccc7f	-0.07656192
79	0x3d420ed8	0.047377437
80	0xbe26512b	-0.162419
81	0x3ca0b3dc	0.019617014
82	0xbe55f374	-0.20893651
83	0xbe8325ac	-0.2561468
84	0x3dc0c338	0.09412235
85	0x3e19d2af	0.15021776
86	0xbd6cd6ff	-0.057822224
87	0x3df5b593	0.11997523
88	0x3e700153	0.23438005
89	0x3d875842	0.06608631
90	0xbe1a6db3	-0.1508091
91	0xbd3e3a93	-0.04644258
92	0xbddcf7da	-0.107894614
93	0xbd56aa5f	-0.052408572
94	0x3e06e88c	0.13174647
95	0x3e096559	0.13417567
96	0xbd39e492	-0.045383997
97	0xbcb0f5e9	-0.021601634
98	0xbd6769eb	-0.056497496
99	0xbdebf642	-0.11521579
100	0xbd6b7158	-0.05748114
101	0xbe179c80	-0.14805794
102	0x3bd17ea8	0.0063932724
103	0xbded8eec	-0.11599526
104	0xbe9c58bd	-0.30536452
105	0xbdfa33b6	-0.12216894
106	0x3d204a08	0.0391331
107	0xbd942472	-0.07233514
108	0xbc1f93a2	-0.009739788
109	0xbd9c45d0	-0.07630503
110	0x3caaace1	0.020834388
111	0xbe8fb3a8	-0.28066754
112	0xbe4acd70	-0.1980493
113	0xbe0708a0	-0.13186884
114	0x3d501f52	0.05081112
115	0xbe21fe30	-0.15819621
116	0x3e4cc062	0.19995263
117	0xbe034385	-0.12818725
118	0x3db566c2	0.0885749
119	0xbd8e9224	-0.06961468
120	0x3dad05bb	0.084483586
121	0xbba09086	-0.004900041
122	0xbd93e579	-0.07221503
123	0xbd0bfd68	-0.034177214
124	0xbcf3b538	-0.029749498
125	0x3de09601	0.10966111
126	0x3bb8430f	0.0056232284
127	0x3d3bc47e	0.045841686
128	0xbd9f0280	-0.07764149
129	0xbc5f7a4c	-0.013639998
130	0x3df30a76	0.1186723
131	0x3c6a68e4	0.014307234
132	0xbc38fc64	-0.011290643
133	0xbd15888d	-0.036507178
134	0xbd85f9c5	-0.065417804
135	0x3c9b286b	0.018940171
136	0xbd795687	-0.060873535
137	0x3ced0cf2	0.028936837
138	0x3bdd4785	0.0067529106
139	0x3d735dcf	0.059415635
140	0x3dd907ac	0.105971664
141	0xbdb54495	-0.088509716
142	0xbc80f4ba	-0.015741695
143	0xbd4ac96d	-0.0495085
144	0x3d808cc0	0.06276846
145	0x3e20961d	0.15682264
146	0x3e42c6a3	0.19021086
147	0x3e38701c	0.18011516
148	0x3e96cc5a	0.29452783
149	0x3e271b17	0.16318928
150	0x3d18ec3d	0.03733467
151	0x3e50eee2	0.20403627
152	0x3c1d77a5	0.009611045
153	0x3ddc1668	0.10746461
154	0x3dd89d77	0.10576909
155	0xbe218bea	-0.15776029
156	0xbe666176	-0.22498116
157	0x3e0769f5	0.13224013
158	0x3cdd6286	0.027024519
159	0x3e3def60	0.18548346
160	0x3df352ed	0.11881051
161	0x3c594749	0.013261625
162	0x3d702ebc	0.05863832
163	0xbd42db1a	-0.047572233
164	0xbc6d649d	-0.01448932
165	0x3b61b6f4	0.0034441324
166	0xbe00f900	-0.12594986
167	0xbe4703f4	-0.19435102
168	0x3e33a3a0	0.17542887
169	0x3e60e325	0.21961649
170	0x3e04e806	0.12979135
171	0xbcc71b89	-0.024305122
172	0xbe01a7b6	-0.12661633
173	0xbe63a4fd	-0.22230907
174	0x3d4b1521	0.049580697
175	0x3d8f4155	0.06994883
176	0xbd097012	-0.033554144
177	0xbe725cd9	-0.23668231
178	0x3d1c09f1	0.03809542
179	0xbe54442e	-0.20729133
180	0x3d325b11	0.04354388
181	0x3de3c21b	0.11121007
182	0x3ea5fb71	0.32418397
183	0xbd87afa9	-0.066253014
184	0x3d28c48b	0.041203063
185	0x3e1a4b5e	0.15067813
186	0xbe0d0a9d	-0.1377358
187	0xbe05472b	-0.1301543
188	0x3d215620	0.039388776
189	0xbd546b06	-0.051859878
190	0x3de3631d	0.11102889
191	0xbcbf5638	-0.023356542
192	0x3d2312f6	0.039813004
193	0xbe9f0526	-0.31058615
194	0xbe16e15b	-0.14734404
195	0x3d81cfc4	0.06338456
196	0xbd890645	-0.06690649
197	0x3da8c01a	0.082397655
198	0x3e65f3b7	0.22456251
199	0xbe0826d8	-0.13296068
200	0x3e8d2a7c	0.27571476
201	0x3e7f2f94	0.24920493
202	0xbdb236c9	-0.08701856
203	0x3d173adb	0.036921363
204	0x3e15bc35	0.14622577
205	0xbe5484db	-0.20753805
206	0xbddf0bce	-0.108909234
207	0xbe4f27ae	-0.2022998
208	0xbe023d5c	-0.12718719
209	0xbc3a1d52	-0.01135953
210	0xbdc088d3	-0.09401097
211	0xbe03cab4	-0.12870294
212	0xbe1f3a1c	-0.1554951
213	0xbdbfed1d	-0.09371398
214	0xbeb3acb4	-0.350927
215	0x3e0556e0	0.13021421
216	0xbc024559	-0.007951104
217	0x3c207e90	0.0097958
218	0x3cf6e354	0.030137695
219	0x3d8fb848	0.07017571
220	0xbcb4f89f	-0.022091208
221	0xbe01f081	-0.12689401
222	0xbe29d15b	-0.16583769
223	0xb9c81cd1	-0.00038168443
224	0xbd59e534	-0.0531971
225	0x3e966c1a	0.2937935
226	0x3d6e63f3	0.058200788
227	0x3e6468c7	0.22305594
228	0x3ce1e806	0.027576458
229	0xbdbf953d	-0.09354637
230	0x3e2ff1fc	0.17182153
231	0x3e0bf789	0.13668646
232	0x3c9da667	0.019244386
233	0xbd008ee0	-0.031386256
234	0x3e2dee91	0.16985537
235	0xbc2fe52a	-0.010735789
236	0x3e05d764	0.13070446
237	0x3c658063	0.014007661
238	0xbe32dfc3	-0.17468171
239	0xbdf06e83	-0.117398284
240	0x3e3f73be	0.18696496
241	0x3c9b1f60	0.01893586
242	0xbc9e63aa	-0.019334633
243	0xba42cbaa	-0.0007430861
244	0xbcbd8a48	-0.023137227
245	0x3dda9b50	0.10674155
246	0x3d3b4264	0.045717612
247	0x3c605345	0.013691728
248	0x3e03058a	0.12795082
249	0xbd7f6560	-0.062352538
250	0x3ccdd96e	0.025128093
251	0xbd6e4f6e	-0.05818122
252	0xbdaf7f6b	-0.08569225
253	0x3e321424	0.17390496
254	0x3c202cd8	0.009776317
255	0x3e0c7076	0.13714775

Color_Space_Linearization.Color_Feature.0.bias f4 [16]
0	0x3ed09c0f	0.40744063
1	0xbebe4850	-0.37164545
2	0xbe29e363	-0.16590647
3	0xbe2e4ae7	-0.1702076
4	0x3d567489	0.05235723
5	0xbdc4bf86	-0.09606843
6	0xbdd1cd39	-0.10244221
7	0xbe9753bf	-0.2955608
8	0x3bb04577	0.0053793746
9	0xbe0a576b	-0.1350991
10	0x3da3046c	0.07959828
11	0x3e812686	0.25224704
12	0x3df52b84	0.119711906
13	0xbe995132	-0.2994476
14	0xbe166d59	-0.1469015
15	0xbeab3bf6	-0.33444184

Color_Space_Linearization.Color_Feature.1.weight f4 [8, 16, 1, 1]
0	0x3ce62279	0.02809261
1	0x3e83dd5f	0.2575483
2	0xbed23bdf	-0.41061303
3	0x3e1143ba	0.14185992
4	0xbf2e4297	-0.6807036
5	0xbf2199af	-0.6312513
6	0xbec5e3f1	-0.38650468
7	0xbeb14e62	-0.34630114
8	0x3d3133a7	0.04326215
9	0xbe2eec85	-0.17082413
10	0x3d5747a5	0.05255856
11	0xbcf24ea9	-0.029578524
12	0xbec90064	-0.3925811
13	0xbdb6da0d	-0.08928309
14	0xbedaf302	-0.42763525
15	0x3e03921b	0.12848704
16	0x3d8321e5	0.06402949
17	0x3e9fedd0	0.31236124
18	0xbf3f6bf2	-0.74774086
19	0x3e9c817a	0.30567533
20	0xbef445f6	-0.47709626
21	0xbe8bc26e	-0.27296776
22	0xbeac18a4	-0.3361255
23	0xbda4d177	-0.08047765
24	0x3ebce12c	0.36890543
25	0x392dcfbc	0.00016575953
26	0xbec65bad	-0.38741818
27	0x3deb2de8	0.11483365
28	0x3e8eb07b	0.2786902
29	0x3d75051a	0.05981932
30	0xbd2bac89	-0.04191259
31	0xbea8d851	-0.32977536
32	0x3efe4878	0.49664664
33	0x3c04cea9	0.008105912
34	0x3e46d184	0.19415861
35	0x3d2090fa	0.03920076
36	0xbe05d639	-0.1307
37	0x3f15a540	0.58455276
38	0x3f537eec	0.8261554
39	0xbeefe5ad	-0.46854916
40	0xbebd2933	-0.36945495
41	0xbebf6194	-0.37379134
42	0x3e1f6356	0.15565237
43	0xbf2e07b1	-0.67980486
44	0xbed75faf	-0.42065188
45	0x3cdf2c83	0.027242905
46	0xbe27f18b	-0.16400735
47	0xbe2a0c55	-0.16606267
48	0x3ebf6b6e	0.3738665
49	0xbe590a0f	-0.21195243
50	0xbed07266	-0.4071228
51	0xbe8db88d	-0.27679864
52	0x3deb6b50	0.114950776
53	0x3d5a5ae0	0.05330932
54	0xbb268345	-0.0025407833
55	0xbdce5df7	-0.10076516
56	0xbdbc6d19	-0.09200496
57	0x3e88fbb7	0.26754543
58	0xbe9f2f00	-0.31090546
59	0x3e472b72	0.19450167
60	0x3e1a19f3	0.15048961
61	0x3db742e8	0.08948308
62	0x3e036753	0.12832384
63	0xbeeaadd3	-0.45835742
64	0xbf4cf443	-0.80060214
65	0x3f5964e5	0.8491958
66	0xbf6569c4	-0.8961451
67	0x3e911c52	0.2834192
68	0xbd8a939a	-0.06766434
69	0xbd706d92	-0.058698244
70	0xbfa7f33a	-1.3121102
71	0xbe2b8e6a	-0.16753545
72	0x3e909abc	0.28243053
73	0x3eda4e60	0.4263792
74	0xbf60e0d7	-0.8784308
75	0x3f243ef2	0.64158547
76	0x3f18aedf	0.5964183
77	0x3f6e9ba6	0.9320625
78	0x3db867c9	0.090041704
79	0x3f48925f	0.78348345
80	0x3f50de71	0.8158942
81	0xbd8f7c9b	-0.070061885
82	0xbc83d912	-0.016094718
83	0x3cc40aa7	0.02393086
84	0xbe4666c3	-0.19375138
85	0x3f867f24	1.050755
86	0x3dedc2c3	0.116094135
87	0x3d95dc55	0.073174156
88	0xbe6b0b56	-0.22953543
89	0x3db1be32	0.08678855
90	0x3d726864	0.059181586
91	0x3ebbe9ef	0.36701915
92	0x3de80fbc	0.11331126
93	0xbf119fc0	-0.56884384
94	0xbea70cfd	-0.32627097
95	0xbeca8f64	-0.39562523
96	0xbea5920c	-0.32337987
97	0x3f93cfb1	1.1547757
98	0xbf501ea2	-0.8129674
99	0xbe2a612c	-0.1663863
100	0xbdf05a5a	-0.11735983
101	0xbe3d83fd	-0.18507381
102	0xbf474a71	-0.77847964
103	0x3ef6a2d7	0.48171112
104	0x3e6413f7	0.22273241
105	0x3d45bc6f	0.048275407
106	0xbecbfb96	-0.39840382
107	0x3dec1337	0.115271024
108	0xbf08ff51	-0.5351458
109	0x3e23b876	0.15988335
110	0xbf201e92	-0.62546647
111	0x3d61a72e	0.055091076
112	0x3dccc0c3	0.09997704
113	0xbcdfd020	-0.027320921
114	0x3e1cb047	0.1530162
115	0xbe08825f	-0.13330983
116	0xbe4de057	-0.2010511
117	0x3ea42695	0.32060686
118	0x3f0d788a	0.55262053
119	0xbe011b07	-0.12607966
120	0xbe588421	-0.21144153
121	0x3e85a6a7	0.26103708
122	0xbe6c6897	-0.23086773
123	0xbe41cd64	-0.18926007
124	0xbe18675b	-0.14883177
125	0x3e5e88b9	0.21731843
126	0x3db8037d	0.0898504
127	0xbe39fb9b	-0.18162386

Color_Space_Linearization.Color_Feature.1.bias f4 [8]
0	0x3e1b9177	0.15192209
1	0xbe8f9ead	-0.28050748
2	0x3e032c82	0.12809947
3	0x3e81d2c5	0.25356117
4	0xbf9211fb	-1.1411737
5	0x3df56b31	0.11983336
6	0xbf31a7e3	-0.693968
7	0xbe47fcb2	-0.1952999

Color_Space_Linearization.Color_Feature.3.weight f4 [3, 8, 1, 1]
0	0x3f2be536	0.67146623
1	0x399855e2	0.00029055687
2	0x3db14fa7	0.086577706
3	0x3eed31ae	0.46326965
4	0xbf99e062	-1.2021601
5	0x3c9ef666	0.019404601
6	0xbe05a526	-0.1305128
7	0xbe4c2213	-0.19934873
8	0x3f295994	0.6615231
9	0x3f82b5d2	1.0211737
10	0xbf5b7428	-0.85724115
11	0x3f3804a4	0.7188208
12	0xbec078e1	-0.37592223
13	0xbf28ec9f	-0.65986055
14	0xbf1fe7dd	-0.6246317
15	0xbf716e45	-0.9430888
16	0xbdaae19c	-0.08343813
17	0x3ee032ea	0.43788844
18	0xbda9a443	-0.082832836
19	0x3f34fb95	0.70696384
20	0x3d81232f	0.06305539
21	0xbfab480b	-1.3381361
22	0x3e2ee316	0.17078814
23	0x3d98c805	0.07460026

Color_Space_Linearization.Color_Feature.3.bias f4 [3]
0	0x3e14da3c	0.14536375
1	0xbe11a372	-0.14222506
2	0xbedf1362	-0.43569475

Color_Space_Linearization.gain_rate.0.weight f4 [8, 16]
0	0xbeba3dfc	-0.36375415
1	0xbe821cff	-0.25412747
2	0x3e02641c	0.12733501
3	0x3d24bb45	0.040217657
4	0xbb3a2637	-0.0028404125
5	0xbe1e64bd	-0.15468116
6	0x3b95d97f	0.0045730467
7	0xbca0cce6	-0.019628953
8	0xbdb60dd5	-0.08889357
9	0x3e50aeec	0.20379227
10	0x3f00cc17	0.50311416
11	0xbe66de46	-0.22545728
12	0x3e8ffa54	0.28120673
13	0x3e16fc5e	0.14744708
14	0xbe094031	-0.13403393
15	0x3d6b9eb8	0.057524413
16	0xbe8520e4	-0.26001656
17	0x3dcda76a	0.10041697
18	0x3eead9f7	0.4586942
19	0xbc26086f	-0.010133847
20	0xbdf9fa5c	-0.122059554
21	0xbec9efd3	-0.39440784
22	0x3dd3cefb	0.10342213
23	0x3cb3e311	0.02195886
24	0x3cfe40fe	0.03103685
25	0xbedb1187	-0.4278681
26	0x3e7c4789	0.24636663
27	0xbc5e97ce	-0.013585998
28	0xbd74fdb3	-0.05981226
29	0xbd74c136	-0.059754573
30	0x3e194300	0.14966965
31	0xbd2e790c	-0.042595908
32	0xbcb7a514	-0.022417583
33	0x3de46318	0.11151713
34	0xbe103faa	-0.14086786
35	0x3d920aac	0.07130942
36	0x3e0e769e	0.13912436
37	0xbe9f993c	-0.31171596
38	0xbe322252	-0.17395905
39	0x3d222285	0.0395837
40	0xbf0a79c0	-0.54092026
41	0x3ec412a3	0.3829547
42	0xbd922fa1	-0.07137991
43	0xbe5fc22a	-0.21851411
44	0x3e188e9f	0.14898156
45	0xbefe4b72	-0.49666935
46	0x3e824054	0.25439703
47	0xbd985d06	-0.07439618
48	0xbf1ec146	-0.6201366
49	0xbc2cb290	-0.0105406195
50	0xbe439090	-0.19098115
51	0xbe343468	-0.17598116
52	0x3df368f7	0.11885255
53	0x3e6d25d1	0.23158957
54	0xbe7c5001	-0.24639894
55	0xbe651c09	-0.22373976
56	0x3e20a429	0.15687622
57	0xba186324	-0.0005813113
58	0x3eb59a1b	0.35469136
59	0x3cc10243	0.023560649
60	0x3da53568	0.08066827
61	0xbeaee0da	-0.34155923
62	0x3dc08455	0.0940024
63	0x3eb193d6	0.34683102
64	0xbe9c1deb	-0.30491576
65	0x3e8d6342	0.2761479
66	0x3e2f3fd2	0.1711419
67	0xbea5db33	-0.32393798
68	0xbe854c51	-0.26034787
69	0xbeb5a337	-0.35476086
70	0x3e8736dc	0.26409042
71	0x3b6c452d	0.0036051974
72	0xbe1ed83a	-0.15512171
73	0x3d8c4ed3	0.06850972
74	0x3e9b7f9c	0.30370796
75	0xbe061746	-0.13094816
76	0x3e43a3af	0.19105409
77	0xbe6b075f	-0.2295203
78	0xbeafd130	-0.34339285
79	0x3cf918e1	0.030407371
80	0xbdb96e4d	-0.09054241
81	0xbe3f5b0b	-0.18687074
82	0xbd38a467	-0.04507866
83	0x3da28214	0.07934967
84	0x3e2c9407	0.16853343
85	0xbd70b752	-0.058768578
86	0xbe8b12b5	-0.2716271
87	0xbe483844	-0.19552714
88	0xbe2bc650	-0.16774869
89	0xbcade596	-0.02122764
90	0x3e926f5b	0.28600582
91	0x3dbc07f8	0.091812074
92	0x3ed798e4	0.42108834
93	0xbdc89f34	-0.097959906
94	0xbe4d689f	-0.20059441
95	0x3eabc8cb	0.3355163
96	0xbda036ce	-0.07822953
97	0xbd18cd98	-0.037305444
98	0xbd79f08f	-0.06102043
99	0xbda482b3	-0.080327414
100	0xbef1b405	-0.47207657
101	0xbec632d9	-0.3871067
102	0x3dc6e229	0.097111054
103	0xbcbabe14	-0.022795714
104	0xbce3d9ec	-0.027813874
105	0xbe489df5	-0.19591506
106	0x3e663822	0.2248235
107	0x3d468053	0.048462223
108	0xbe11df11	-0.1424525
109	0x3de7727d	0.11301134
110	0x3eb28af7	0.34871647
111	0x3d4e3a9a	0.050348856
112	0x3d9803d5	0.07422606
113	0x3e0e6d3f	0.13908862
114	0xbecb9d4f	-0.39768454
115	0xbe833426	-0.25625724
116	0x3ddde720	0.10835099
117	0x3c8dc2f2	0.017304871
118	0x3ec73a44	0.3891164
119	0x3d4a304d	0.04936247
120	0x3e711012	0.23541287
121	0x3ea03083	0.31287012
122	0x3da2125f	0.0791366
123	0x3cfff0f0	0.031242818
124	0xbdc08df0	-0.094020724
125	0x3d74de82	0.059782512
126	0x3eb2489c	0.34821022
127	0x3e1f06d3	0.15529947

Color_Space_Linearization.gain_rate.2.weight f4 [1, 8]
0	0x3e88f083	0.26745996
1	0xbe391d50	-0.18077588
2	0xbeac97ad	-0.3370947
3	0x3eb0ff3e	0.34569734
4	0x3e7b7cff	0.24559401
5	0x3d31daab	0.04342143
6	0xbf130fc1	-0.57445914
7	0x3d259a71	0.04043049

Color_Space_Linearization.tail.0.weight f4 [3, 3, 1, 1]
0	0xbf76a1b4	-0.9634049
1	0xbfc0e4bc	-1.5069804
2	0xbed0da8a	-0.40791732
3	0xbf1b83c9	-0.60747963
4	0xbfd408b6	-1.6565158
5	0x3f634bc8	0.8878751
6	0xbf82b6b8	-1.0212011
7	0xbf8a2a39	-1.0794135
8	0xbeebc43b	-0.4604815

Color_Space_Linearization.tail.0.bias f4 [3]
0	0xbea0fb71	-0.31441835
1	0x3c43fc4b	0.011962007
2	0xbe91cb2c	-0.2847532
